models/engine_hybrid_cnn_model.pt (torch, 51245 bytes, 17 tensors)

conv.0.weight f4 [32, 1, 2]
-0.24527167 0.0064023025 -0.2372879 0.6309206 -0.79357666 -0.49098495 -1.0344412 -0.34514767
-0.44711092 0.58466434 -0.27299073 -0.09332916 0.5356177 0.015579023 -0.84162 0.47742233
0.40318406 -0.7759225 -0.7655109 -0.26504216 0.004602448 -0.9188637 0.02073211 0.32066604
0.094969705 0.08552939 0.8390592 -0.8201482 -0.3323516 -0.92546254 0.51449853 -0.09754101
0.08007688 -0.3502931 -0.044335693 0.0208484 -7.293844e-05 -0.0047623687 -0.052298196 -0.025946949
-0.016345657 0.09942664 -0.391257 -0.040889725 0.43659833 0.50679135 0.2485328 0.81771886
-0.17834097 0.29150698 -0.5546985 0.98830813 -0.19731757 -1.0467205 -0.5789698 0.49519235
0.42927307 0.4852646 0.006724799 -0.0066677453 0.53005195 -0.20515674 0.14148204 -0.20522046
00000000: 7f28 7bbe 68ca d13b 99fb 72be 0384 213f
00000010: d727 4bbf 6162 fbbe 9268 84bf 32b7 b0be
00000020: b9eb e4be 90ac 153f 71c5 8bbe 5c23 bfbd
00000030: 3e1e 093f 293f 7f3c 6974 57bf b370 f43e
00000040: 246e ce3e dba2 46bf 86f8 43bf 9bb3 87be
00000050: 22d0 963b a73a 6bbf 63d6 a93c 572e a43e
00000060: 7a7f c23d 082a af3d 95cc 563f 3cf5 51bf
00000070: fd29 aabe 1deb 6cbf 2db6 033f 95c3 c7bd
00000080: 59ff a33d 9e59 b3be 5899 35bd 44ca aa3c
00000090: 87f6 98b8 a50d 9cbb a236 56bd b28e d4bc
000000a0: 54e7 85bc 32a0 cb3d d652 c8be fc7b 27bd
000000b0: d189 df3e 14bd 013f 627f 7e3e 0656 513f
000000c0: 049f 36be 6740 953e b900 0ebf c301 7d3f
000000d0: 9e0d 4abe f0fa 85bf 5d37 14bf da89 fd3e
000000e0: aec9 db3e 9a74 f83e b45b dc3b 1a7d dabb
000000f0: 7cb1 073f 9c14 52be abe0 103e 5025 52be

conv.0.bias f4 [32]
0.21419714 -0.061970722 -1.0481684 -0.4025325 -0.19122286 0.169304 -1.2263099 -0.8056917
-0.6631058 -0.3322249 0.58826566 -0.73699844 0.10314791 -0.5341572 -0.34826234 -0.5046702
0.36971942 -0.18798937 -0.02956026 0.034036394 -0.38301528 0.3549509 -0.9262501 -0.5055156
-0.59239244 -1.0127476 -0.17906581 -0.20953177 -0.7814597 -0.040685114 -0.74220586 0.660212
00000000: 7f56 5b3e 03d5 7dbd 622a 86bf bd18 cebe
00000010: edcf 43be 075e 2d3e b9f7 9cbf d041 4ebf
00000020: 4dc1 29bf 6219 aabe 9498 163f eeab 3cbf
00000030: 363f d33d 87be 08bf 714f b2be 1132 01bf
00000040: dd4b bd3e 4980 40be 5c28 f2bc bf69 0b3d
00000050: 941a c4be 20bc b53e ba1e 6dbf 7869 01bf
00000060: 08a7 17bf b7a1 81bf 075d 37be 7f8f 56be
00000070: be0d 48bf 6fa5 26bd 3401 3ebf a703 293f

transformer.transformer_encoder.layers.0.self_attn.in_proj_weight f4 [96, 32]
0.09899229 -0.1723931 -0.21648033 0.20326085 0.079337634 -0.20471476 -0.17404039 -0.09974673
0.1865177 0.114948615 0.033186845 0.04536408 -0.143752 -0.04214349 -0.026931046 -0.07137675
0.02565342 -0.21155801 0.02065754 0.14915955 -0.13188921 -0.080961645 -0.0953472 0.19754292
0.14377782 0.092127845 -0.07236848 0.051482372 0.08194458 -0.05637976 -0.011182125 -0.14666326
0.005721207 -0.078130566 0.01172619 0.004103747 -0.21498711 0.072900675 0.16138098 0.16041511
0.15253046 0.13557075 -0.17513508 0.05725711 0.08997855 0.1548819 0.12693553 0.17237534
0.1599523 0.1331834 0.06969639 -0.1339516 0.09725825 0.019181645 0.034513097 -0.19987701
-0.16676527 -0.16530752 0.022609362 0.0029717137 -0.18413824 -0.018493071 -0.1586639 0.1472521
0.0011523714 -0.14896147 -0.020939818 0.14802806 0.17891957 -0.0067649717 0.21386257 -0.0173343
-0.071672164 0.17397287 0.037042383 0.16631371 -0.027741672 -0.03884492 0.056402706 -9.27854e-05
-0.20012274 -0.16709904 0.04635215 0.01841079 0.04773495 0.08614005 0.005135381 0.022886762
-0.0222862 -0.06963695 -0.0055988436 0.021758111 -0.05127987 -0.08613631 0.013046943 -0.0047287773
0.07843525 -0.030416189 -0.03700413 0.19103509 -0.034271233 -0.0885797 -0.21008804 0.13156562
0.12514135 0.054334845 0.20879424 0.16112825 -0.053100526 -0.013086044 0.18474135 -0.15671846
0.10778525 0.0019440025 0.17779718 -0.20274241 0.19781387 -0.13775392 -0.07752394 0.1837592
-0.2107699 0.1010384 -0.11397198 0.110708795 0.20280062 -0.1229717 0.17385381 0.017455578
0.094116166 -0.16013734 0.049846612 -0.034716863 0.079911456 0.116225876 0.17895234 0.13165236
0.1515049 0.017579645 -0.20105779 -0.16947883 -0.18625508 0.0050177155 0.078766 0.18279098
0.08758541 0.10467762 -0.20264031 0.06544976 0.16048436 -0.17825119 0.102538034 0.100225545
0.007893857 -0.080187075 0.164899 0.18733855 -0.07142963 0.113402955 0.052669223 -0.16037697
0.09024976 -0.14043419 0.20956007 -0.06658967 -0.022961559 -0.12341103 -0.18376382 -0.19739449
0.0856882 0.10157841 -0.16847229 0.10154911 0.016823322 0.15945195 -0.18092757 -0.19100672
0.07885274 0.14459756 -0.0052024345 -0.06520171 0.18292119 -0.03484604 -0.013321944 -0.07665351
0.110492565 0.06292739 0.09994053 -0.028317638 0.20758401 0.0018371766 0.061044198 -0.13044403
-0.05896983 -0.123807155 0.006409729 -0.057635166 0.20295294 0.06563357 -0.014452325 -0.17577903
-0.18152712 -0.16288783 0.17518169 0.06879638 -0.21262175 0.20039637 -0.057533603 -0.14444074
0.068660215 -0.15959248 -0.089043885 -0.09342929 0.022831041 -0.04195451 -0.05266432 0.107962586
-0.09752269 0.109535575 -0.11496193 0.10868969 0.15322916 0.066742584 0.012576615 0.12971292
0.09129489 0.098265745 -0.07299069 -0.10815941 -0.19947995 0.20324095 -0.08558961 0.2158591
0.09190077 0.048465516 -0.036407907 0.116284 -0.20718639 0.21276316 -0.1413206 0.10334543
0.011209921 -0.07898835 0.17958274 0.11849325 0.1704892 -0.20570631 -0.11149676 -0.12531161
-0.06704337 0.17721264 0.075448126 -0.07354594 -0.033217326 0.1794597 0.023603883 -0.1787055
00000000: 78bc ca3d d187 30be 05ad 5dbe 9d23 503e
00000010: c57b a23d bfa0 51be a537 32be 0348 ccbd
00000020: 7ffe 3e3e 2e6a eb3d eeee 073d b0cf 393d
00000030: b933 13be a79e 2cbd 7f9e dcbc f92d 92bd
00000040: 1f27 d23c aaa2 58be 003a a93c 48bd 183e
00000050: f70d 07be 38cf a5bd 6545 c3bd b148 4a3e
00000060: 7e3a 133e 86ad bc3d ed35 94bd 2edf 523d
00000070: 8fd2 a73d 77ee 66bd 3b35 37bc e52e 16be
00000080: f678 bb3b eb02 a0bd 351f 403c ba78 863b
00000090: 9525 5cbe f34c 953d 0e41 253e dc43 243e
000000a0: f230 1c3e 0fd3 0a3e 9c56 33be 6e86 6a3d
000000b0: ad46 b83d 5c99 1e3e 63fb 013e 2983 303e
000000c0: 89ca 233e 3b61 083e fbbc 8e3d 9c2a 09be
000000d0: 552f c73d d322 9d3c 9b5d 0d3d 8fac 4cbe
000000e0: 84c4 2abe 6046 29be 4537 b93c 15c1 423b
000000f0: bc8e 3cbe c87e 97bc ca78 22be 41c9 163e
00000100: 2b0b 973a 5b89 18be fb89 abbc ab94 173e
00000110: b136 373e b2ac ddbb cafe 5a3e a900 8ebc
00000120: dbc8 92bd f225 323e c1b9 173d 244e 2a3e
00000130: 8142 e3bc da1b 1fbd 8606 673d c895 c2b8
00000140: faec 4cbe 031c 2bbe c1db 3d3d 3ad2 963c
00000150: b985 433d 326a b03d b346 a83b 057d bb3c
00000160: 8d91 b6bc d19d 8ebd 8176 b7bb 113e b23c
00000170: d70a 52bd 3c68 b0bd d8c2 553c dcf3 9abb
00000180: a9a2 a03d 5f2b f9bc a591 17bd b49e 433e
00000190: fe5f 0cbd 4669 b5bd 5221 57be 23b9 063e
000001a0: 0e25 003e 378e 5e3d 28ce 553e cefe 243e
000001b0: f07f 59bd d966 56bc d62c 3d3e ce7a 20be
000001c0: 83be dc3d e6cd fe3a 7710 363e b59b 4fbe
000001d0: b88f 4a3e 5d0f 0dbe dfc4 9ebd 5f2b 3c3e
000001e0: 11d4 57be 38ed ce3d 246a e9bd 4bbb e23d
000001f0: f7aa 4f3e 96d8 fbbd bc06 323e 00ff 8e3c
00000200: fabf c03d 0bfb 23be f62b 4c3d 4533 0ebd
00000210: 9ea8 a33d d507 ee3d 483f 373e e0cf 063e
00000220: 1a24 1b3e 3003 903c 18e2 4dbe dc8b 2dbe
00000230: a7b9 3ebe a66b a43b 1250 a13d 8f2d 3b3e
00000240: fb5f b33d 3861 d63d f180 4fbe 860a 863d
00000250: 0356 243e 7b87 36be 76ff d13d 0d43 cd3d
00000260: 3c55 013c 1f39 a4bd 49db 283e add5 3f3e
00000270: b349 92bd cf3f e83d afbb 573d dc39 24be
00000280: ded4 b83d fbcd 0fbe ea96 563e 2a60 88bd
00000290: e119 bcbc ecbe fcbd 952c 3cbe c821 4abe
000002a0: 4c7d af3d 5708 d03d 0084 2cbe fbf8 cf3d
000002b0: 10d1 893c 5f47 233e 1445 39be 4497 43be
000002c0: 8c7d a13d 6211 143e 2f79 aabb 7988 85bd
000002d0: b14f 3b3e b9ba 0ebd 4844 5abc 84fc 9cbd
000002e0: ed49 e23d 13e0 803d 9fad cc3d 64fa e7bc
000002f0: e790 543e 6bcd f03a 7b09 7a3d 1f93 05be
00000300: 598a 71bd 9b8e fdbd b408 d23b da12 6cbd
00000310: e5d2 4f3e e56a 863d 72c9 6cbc 6bff 33be
00000320: 3fe2 39be 11cc 26be d462 333e 1ee5 8c3d
00000330: 84b9 59be b534 4d3e 5ba8 6bbd 46e8 13be
00000340: ba9d 8c3d 366c 23be a45c b6bd db57 bfbd
00000350: 2a08 bb3c 7ed8 2bbd 8bb6 57bd 7d1b dd3d
00000360: fab9 c7bd 3054 e03d 2971 ebbd b398 de3d
00000370: 1be8 1c3e 56b0 883d 260e 4e3c 77d3 043e
00000380: d1f8 ba3d 8d3f c93d 257c 95bd ae82 ddbd
00000390: 7944 4cbe 651e 503e 9b49 afbd 2b0a 5d3e
000003a0: 7936 bc3d c783 463d 7520 15bd 4e26 ee3d
000003b0: ab28 54be 96de 593e 59b6 10be c5a6 d33d
000003c0: d1a9 373c a5c4 a1bd 8ae4 373e 97ac f23d
000003d0: b994 2e3e ada4 52be 6a58 e4bd b051 00be
000003e0: 094e 89bd 3b77 353e 8c84 9a3d 419f 96bd
000003f0: e40e 08bd 49c4 373e ee5c c13c 93fe 36be

transformer.transformer_encoder.layers.0.self_attn.in_proj_bias f4 [96]
0.0 0.0 0.0 0.0 0.0 0.0 0.0 0.0
0.0 0.0 0.0 0.0 0.0 0.0 0.0 0.0
0.0 0.0 0.0 0.0 0.0 0.0 0.0 0.0
0.0 0.0 0.0 0.0 0.0 0.0 0.0 0.0
0.0 0.0 0.0 0.0 0.0 0.0 0.0 0.0
0.0 0.0 0.0 0.0 0.0 0.0 0.0 0.0
0.0 0.0 0.0 0.0 0.0 0.0 0.0 0.0
0.0 0.0 0.0 0.0 0.0 0.0 0.0 0.0
0.03510451 -0.060698725 -0.07199592 0.07110966 -0.081387505 -0.033394177 0.106858194 -0.002070003
0.033622243 -0.028978946 -0.06782337 0.063178666 -0.038003016 0.09073056 -0.019759329 0.035095688
0.005478001 -0.08672676 0.0048973453 -0.012567127 -0.05386559 0.03408432 -0.08696187 0.06435184
-0.08303787 0.11790484 -0.030583834 0.01908868 0.028721781 -0.04199844 -0.19850893 0.023143921
00000000: 0000 0000 0000 0000 0000 0000 0000 0000
00000010: 0000 0000 0000 0000 0000 0000 0000 0000
00000020: 0000 0000 0000 0000 0000 0000 0000 0000
00000030: 0000 0000 0000 0000 0000 0000 0000 0000
00000040: 0000 0000 0000 0000 0000 0000 0000 0000
00000050: 0000 0000 0000 0000 0000 0000 0000 0000
00000060: 0000 0000 0000 0000 0000 0000 0000 0000
00000070: 0000 0000 0000 0000 0000 0000 0000 0000
00000080: 0000 0000 0000 0000 0000 0000 0000 0000
00000090: 0000 0000 0000 0000 0000 0000 0000 0000
000000a0: 0000 0000 0000 0000 0000 0000 0000 0000
000000b0: 0000 0000 0000 0000 0000 0000 0000 0000
000000c0: 0000 0000 0000 0000 0000 0000 0000 0000
000000d0: 0000 0000 0000 0000 0000 0000 0000 0000
000000e0: 0000 0000 0000 0000 0000 0000 0000 0000
000000f0: 0000 0000 0000 0000 0000 0000 0000 0000
00000100: bfc9 0f3d 3a9f 78bd 9972 93bd f1a1 913d
00000110: 7eae a6bd 55c8 08bd 78d8 da3d e3a8 07bb
00000120: 7ab7 093d 4165 edbc fbe6 8abd d163 813d
00000130: 0da9 1bbd f2d0 b93d 51de a1bc 7fc0 0f3d
00000140: ce80 b33b cd9d b1bd e979 a03b 5ae6 4dbc
00000150: 2aa2 5cbd 009c 0b3d 1119 b2bd e6ca 833d
00000160: c20f aabd 1878 f13d f38a fabc dd5f 9c3c
00000170: f149 eb3c 8e06 2cbd ed45 4bbe 5298 bd3c

transformer.transformer_encoder.layers.0.self_attn.out_proj.weight f4 [32, 32]
-0.060728986 -0.14594653 -0.11542972 0.017713146 0.029292943 -0.0020821104 0.08196617 -0.009736216
0.10419894 0.03154673 0.17264082 0.07835734 -0.046628445 0.04581865 -0.0054820017 0.041934926
-0.04243599 0.021567965 -0.20065658 0.21323913 -0.048777852 -0.052766483 -0.1139225 0.11791979
-0.023200674 0.08217905 0.08920637 -0.0072881933 -0.02726164 -0.025660906 -0.14069042 -0.06745704
-0.043357648 0.031982265 -0.12258052 -0.052627716 -0.12697978 -0.015245237 -0.023327643 -0.036028296
-0.06585228 -0.053766973 0.254143 0.06303074 -0.06761563 0.025050784 -0.008155862 -0.05340953
0.047249906 0.035696104 -0.039435457 0.092021465 0.15781067 -0.025087213 -0.17742611 0.062068734
-0.01832032 -0.008530786 0.11942396 0.0035845963 0.0064967643 0.08836168 0.081092514 -0.044204548
-0.029052777 -0.0034946268 -0.1253087 0.017049002 0.020712618 0.053091202 -0.04664121 -0.064255096
0.03984405 -0.006591675 0.15361646 0.01015272 -0.03328412 0.41777536 0.043671165 -0.059028257
-0.014521444 -0.03199107 -0.058114577 -0.10017964 -0.034855265 -0.043995373 -0.02230578 0.046181295
0.030929103 0.3519629 0.037914596 0.017862434 0.0028353615 0.085714065 -0.15521891 0.011337228
-0.016272806 0.118426554 0.01320377 0.07018855 0.014109298 -0.030895552 0.05861624 0.020212341
-0.037822682 -0.015469333 0.020616118 -0.090233155 -0.0121048195 -0.029186869 0.035963677 0.058837574
0.10482006 -0.07095784 -0.0041830367 -0.13527013 0.052739367 -0.06837871 0.061001796 0.029482763
0.30778527 -0.18326068 0.025689952 -0.020761175 -0.0022416522 0.027852977 -0.042881608 0.062680945
-0.07450303 -0.102335066 0.10733068 0.103750445 0.11435104 0.02250278 -0.0116735445 -0.013559416
0.10294177 0.08186388 0.1373855 -0.0006709338 0.013300797 -0.14063933 0.039229043 0.024922743
-0.009505252 -0.033018183 0.009106061 0.15277793 0.01068666 -0.14033316 0.11122713 -0.14269958
-0.032948926 -0.1414571 0.030151725 0.13532865 0.081906706 0.04516204 -0.11851168 0.06941275
-0.162415 -0.14220427 0.14321831 -0.04017325 -0.09807073 -0.13036682 0.26293185 0.073296584
-0.019583242 -0.08942531 -0.13001415 0.084279105 -0.0638434 -0.29359728 -0.3994495 0.09924016
0.19504242 -0.26765501 -0.009762506 -0.07362216 -0.040167276 -0.0073143025 -0.10649066 0.027131008
0.08446815 0.051172126 -0.0011815113 0.005749807 -0.02826012 0.012945344 -0.26436576 -0.18344559
-0.01645867 -0.06124612 0.2681602 0.1318864 -0.013749664 0.054138392 -0.042484682 0.048425313
-0.081444986 -0.12742984 -0.43340376 -0.08387489 -0.061337218 -0.103973866 0.10848976 -0.0145395305
0.067158386 -0.19568358 0.11724762 -0.19500186 0.07135572 0.1653123 0.06807378 -0.08906325
0.14066339 0.06433961 -0.0030951381 0.077920355 0.02977707 0.1700175 -0.2017463 0.09465048
0.072285995 -0.011686689 -0.05859577 0.0014052112 -0.04130805 0.0047491714 0.03715887 -0.027781894
-0.05247457 -0.032012004 -0.053169843 -0.00078887097 -0.0390468 0.13402122 0.014257359 -0.001246952
-0.024983652 -0.046530817 -0.027521947 -0.0030779208 0.10728601 0.011853817 -0.0034029575 0.043329153
0.009976226 -0.13812445 0.026120026 -0.050733738 -0.04172965 0.010875828 -0.06438174 0.01614645
00000000: f5be 78bd 0273 15be 6b66 ecbd 291b 913c
00000010: c1f7 ef3c 0474 08bb e1dd a73d a684 1fbc
00000020: 4166 d53d 2537 013d c1c8 303e d079 a03d
00000030: 78fd 3ebd 56ac 3b3d 5da2 b3bb f5c3 2b3d
00000040: 5cd1 2dbd 4daf b03c eb78 4dbe 5c5b 5a3e
00000050: 49cb 47bd ab21 58bd 3350 e9bd ee7f f13d
00000060: 570f bebc 7d4d a83d d4b1 b63d ccd1 eebb
00000070: ce53 dfbc d236 d2bc 2611 10be eb26 8abd
00000080: ca97 31bd d6ff 023d 7f0b fbbd 2990 57bd
00000090: fd06 02be 29c7 79bc 9d19 bfbc 6892 13bd
000000a0: 8fdd 86bd c23a 5cbd 081f 823e 4316 813d
000000b0: 107a 8abd 4d37 cd3c 2aa0 05bc f4c3 5abd
000000c0: 1e89 413d 1436 123d 1387 21bd c075 bc3d
000000d0: 1f99 213e b383 cdbc 31af 35be c93b 7e3d
000000e0: 7f14 96bc b6c4 0bbc 8d94 f43d 8ceb 6a3b
000000f0: cfe2 d43b f8f6 b43d d513 a63d d40f 35bd
00000100: 1700 eebc 1c06 65bb ed50 00be 59aa 8b3c
00000110: 82ad a93c 2976 593d da0a 3fbd 2d98 83bd
00000120: 8433 233d fafe d7bb a24d 1d3e 9857 263c
00000130: ee54 08bd a7e6 d53e 89e0 323d 9dc7 71bd
00000140: 5aeb 6dbc 1109 03bd 8d09 6ebd fc2a cdbd
00000150: 65c4 0ebd 7e34 34bd 9cba b6bc 9928 3d3d
00000160: 085f fd3c 7b34 b43e 564c 1b3d 3d54 923c
00000170: 79d1 393b db8a af3d b5f1 1ebe c8bf 393c
00000180: 8c4e 85bc 9f89 f23d a054 583c 04bf 8f3d
00000190: af2a 673c ab18 fdbc 9517 703d 5a94 a53c
000001a0: f5eb 1abd 1673 7dbc 22e3 a83c 29cc b8bd
000001b0: 4b53 46bc 4d19 efbc a64e 133d abff 703d
000001c0: e6ab d63d 5852 91bd db11 89bb 4184 0abe
000001d0: 3c05 583d 230a 8cbd 05dd 793d d685 f13c
000001e0: 0896 9d3e b0a8 3bbe bc73 d23c 5713 aabc
000001f0: afe8 12bb ed2b e43c a0a4 2fbd de5e 803d
00000200: 0b95 98bd 0c95 d1bd 30d0 db3d 1d7b d43d
00000210: e130 ea3d c057 b83c 6542 3fbc 5028 5ebc
00000220: 22d3 d23d 40a8 a73d c9ae 0c3e 9be1 2fba
00000230: 96eb 593c c203 10be a2ae 203d c82a cc3c
00000240: ebbb 1bbc 133e 07bd 9731 153c d171 1c3e
00000250: 1a17 2f3c 7fb3 0fbe 0dcb e33d d71f 12be
00000260: 74f5 06bd 21da 10be c000 f73c 9893 0a3e
00000270: b4be a73d d5fb 383d 40b6 f2bd 4628 8e3d
00000280: 1e50 26be ff9d 11be d2a7 123e b58c 24bd
00000290: 4fd9 c8bd e17e 05be 019f 863e 851c 963d
000002a0: 096d a0bc 9e24 b7bd 6e22 05be 869a ac3d
000002b0: 54c0 82bd 6252 96be a584 ccbe 6d3e cb3d
000002c0: 33b9 473e 140a 89be ebf2 1fbc 37c7 96bd
000002d0: 7186 24bd d1ac efbb c617 dabd d941 de3c
000002e0: a3fd ac3d dd99 513d f1dc 9aba e168 bc3b
000002f0: c481 e7bc b518 543c f35a 87be 29d9 3bbe
00000300: 55d4 86bc 36dd 7abd 4b4c 893e 3a0d 073e
00000310: 4546 61bc 38c0 5d3d 6b04 2ebd 9f59 463d
00000320: a1cc a6bd f87c 02be 19e7 ddbe 99c6 abbd
00000330: bc3c 7bbd 40f0 d4bd e12f de3d 3637 6ebc
00000340: 568a 893d 4761 48be 851f f03d 91ae 47be
00000350: f322 923d a147 293e 446a 8b3d cb66 b6bd
00000360: 100a 103e 7cc4 833d cdd7 4abb b594 9f3d
00000370: 0bef f33c 1119 2e3e 9596 4ebe 1cd8 c13d
00000380: ae0a 943d 8779 3fbc 1e02 70bd 102f b83a
00000390: a132 29bd f09e 9b3b e633 183d db96 e3bc
000003a0: 93ef 56bd 051f 03bd 9fc8 59bd 3ccc 4eba
000003b0: 8aef 1fbd dc3c 093e b397 693c c470 a3ba
000003c0: 84aa ccbc 1997 3ebd b575 e1bc f1b6 49bb
000003d0: c5b8 db3d 8336 423c 2704 5fbb e979 313d
000003e0: 5373 233c 7f70 0dbe aaf9 d53c 2ece 4fbd
000003f0: b6ec 2abd 8730 323c 93da 83bd 8f45 843c

transformer.transformer_encoder.layers.0.self_attn.out_proj.bias f4 [32]
0.12723817 0.022933 -0.021066766 -0.0036885077 -0.050744887 0.05695203 -0.015395049 -0.015898254
0.011430866 -0.016202545 -0.036722127 0.060050037 0.038017705 -0.02170894 -0.0015804917 0.07103292
0.06266836 0.15828036 0.12947515 0.14055084 -0.008674424 0.008727997 -0.0026110192 -0.044861227
0.117970645 -0.0039801807 0.010751783 -0.0457409 -0.007101467 0.05048208 0.047272496 0.027785156
00000000: b94a 023e fddd bb3c 3694 acbc e4ba 71bb
00000010: dfd9 4fbd 8846 693d 843b 7cbc 0e3d 82bc
00000020: 8748 3b3c 33bb 84bc f169 16bd 07f7 753d
00000030: 74b8 1b3d f2d6 b1bc 8028 cfba b579 913d
00000040: 4558 803d 3f14 223e 2295 043e 8fec 0f3e
00000050: 2c1f 0ebc dfff 0e3c a21d 2bbb 68c0 37bd
00000060: 989a f13d 2d6c 82bb 3f28 303c cf5a 3bbd
00000070: 6cb3 e8bb 4cc6 4e3d cea0 413d b29d e33c

transformer.transformer_encoder.layers.0.linear1.weight f4 [64, 32]
-0.16148064 -0.28728074 -0.04557969 0.32469144 0.13840403 -0.12739547 0.06753049 0.51519483
0.4520246 -0.12113362 0.1472455 0.22347005 -0.40778238 0.7937678 -0.39653468 -0.065543905
0.09279127 -0.27734372 0.11634697 -0.1678596 -0.19798146 -0.27295828 -0.15274204 -0.8383571
-0.045496527 -0.011467742 0.098136306 -0.24420394 0.08312112 0.3914849 0.5647219 0.08487027
-0.21413682 -0.44773796 -0.10406112 -0.17739646 -0.34568837 0.34890938 0.3239601 -0.44667596
-0.14363344 -0.16100605 0.5109669 0.045632802 -0.20899384 0.2506943 0.22649549 -0.19820014
0.23398794 -0.17054841 -0.10755347 -0.073781006 -0.016231727 0.33520877 0.053864535 -0.8716664
0.0110228285 0.71697265 0.37389573 -0.17711583 0.2760825 -0.08088398 -0.1339651 0.08161331
-0.5462102 -0.4687721 0.72146547 0.15063532 0.087436 -0.18693 -0.008774631 0.52080774
0.44762823 0.18214762 0.04428531 0.093169846 -0.06424591 0.18362767 0.22419962 0.39515582
-0.06944907 -0.13146001 0.020877052 -0.18310551 0.05091844 -0.19816555 0.25171062 -0.003140813
-0.032503773 -0.30564648 0.16841283 -0.26816472 -0.09802559 -0.15959609 -0.09565649 -0.37217838
-0.017175749 -0.5668946 0.32414314 0.9354967 0.21290886 0.07520709 0.07610424 0.051788155
-0.121931344 0.5254414 0.016152568 -0.031146862 -0.18241681 -0.09143444 0.12956488 0.08912387
-0.18797798 0.19962676 -0.31516865 -0.2844771 0.13206337 0.07024672 0.10232761 -0.08044127
0.04815086 -0.4835907 0.09927828 0.13017891 0.15364678 -0.069146164 0.11482819 -0.5237563
-0.60525984 -0.6932937 0.6301499 0.1612096 0.26950714 -0.09271243 0.07315034 1.0120536
0.61686337 0.08555211 0.08406974 0.08156487 0.11594872 0.14907433 0.2679094 -0.1246785
-0.33463028 0.04458693 -0.04748289 0.104236305 0.00039728623 -0.23642772 -0.2775367 -0.37057987
-0.019306166 0.050655127 0.004892953 0.2463058 0.09481113 0.104188696 0.15410854 -0.7006977
-0.66130364 -0.162825 0.17493601 0.3515379 0.17280237 0.07302655 0.49621418 -0.20119926
0.042921405 -0.1989411 -0.45982242 -0.019628597 -0.06039867 0.54172176 -0.24507922 0.45981494
-0.3902239 0.2866859 -0.05098209 0.052250735 0.060008954 -0.47775456 0.3155263 0.15382497
0.10011572 0.62623066 -0.39097342 -0.35513008 0.33418489 0.0030220025 0.24438325 -0.50206953
0.069286786 0.11776618 0.3244135 -0.052485418 -0.3491175 -0.03832837 -0.0066411966 0.084634
0.38522285 -0.09547547 -0.5540316 0.22443418 0.10239223 -0.0044210725 -0.07493177 0.19292688
-0.041495778 0.09880327 0.13313662 0.14439884 -0.064879365 -0.11762683 -0.051410384 -0.054036688
0.015277295 -1.0017931 0.09624325 -0.50567055 0.10879078 0.09939495 0.09459615 0.16811444
-0.48676676 0.10940858 0.1011446 0.10797297 -0.3055065 -0.05743439 0.14641115 -0.112157166
0.041791104 -0.30872473 -0.14268932 0.31480074 -0.055655982 0.5036998 -0.15373674 0.1489189
-0.53945404 0.16654462 -0.19110599 0.13575973 -0.33955628 -0.28246936 0.14571956 0.06609324
-0.049703874 0.18380754 -0.2649347 -0.41030538 0.37692267 0.17355871 0.82795525 -0.2374077
00000000: 2e5b 25be 7616 93be c5b1 3abd f53d a63e
00000010: c9b9 0d3e f573 02be 6d4d 8a3d cfe3 033f
00000020: c56f e73e e714 f8bd 86c7 163e 55d5 643e
00000030: dac8 d0be 5e34 4b3f 9806 cbbe e23b 86bd
00000040: 5909 be3d ffff 8dbe 5247 ee3d 63e3 2bbe
00000050: a7bb 4abe 30c1 8bbe 6968 1cbe 929e 56bf
00000060: 915a 3abd 32e3 3bbc b0fb c83d 9910 7abe
00000070: 683b aa3d b570 c83e 9d91 103f 77d0 ad3d
00000080: af46 5bbe e93d e5be ff1d d5bd 6ba7 35be
00000090: 11fe b0be 40a4 b23e 19de a53e b6b2 e4be
000000a0: a514 13be c5de 24be bace 023f 76e9 3a3d
000000b0: 7b02 56be 015b 803e 6fee 673e faf4 4abe
000000c0: 899a 6f3e 3ea4 2ebe fe44 dcbd 7f1a 97bd
000000d0: 66f8 84bc 7ca0 ab3e 0fa1 5c3d 8725 5fbf
000000e0: 1899 343c 858b 373f 436f bf3e da5d 35be
000000f0: af5a 8d3e 80a6 a5bd 262e 09be e124 a73d
00000100: 6fd4 0bbf e602 f0be f6b1 383f 2540 1a3e
00000110: a511 b33d 946a 3fbe 78c3 0fbc a853 053f
00000120: 872f e53e e884 3a3e 8364 353d d5cf be3d
00000130: 5c93 83bd e408 3c3e 9694 653e dd51 ca3e
00000140: 503b 8ebd 749d 06be 5a06 ab3c 0380 3bbe
00000150: db8f 503d e9eb 4abe 37e0 803e 19d6 4dbb
00000160: ad22 05bd b27d 9cbe 6a74 2c3e e34c 89be
00000170: a4c1 c8bd 286d 23be 8de7 c3bd 2a8e bebe
00000180: 28b4 8cbc 0120 11bf 17f6 a53e b67c 6f3f
00000190: c804 5a3e 2d06 9a3d 8adc 9b3d d11f 543d
000001a0: 24b7 f9bd 5483 063f 6452 843c b427 ffbc
000001b0: 79cb 3abe fb41 bbbd a8ac 043e 9386 b63d
000001c0: 4d7d 40be f56a 4c3e c95d a1be fca6 91be
000001d0: 9f3b 073e 83dd 8f3d 2391 d13d 64be a4bd
000001e0: d639 453d 3399 f7be 6952 cb3d 9f4d 053e
000001f0: 9555 1d3e 819c 8dbd 0b2b eb3d e514 06bf
00000200: 4ff2 1abf b27b 31bf 8151 213f 2114 253e
00000210: d7fc 893e 04e0 bdbd d8cf 953d f98a 813f
00000220: c2ea 1d3f f235 af3d c12c ac3d 7c0b a73d
00000230: 8676 ed3d f1a6 183e 6c2b 893e 7157 ffbd
00000240: a954 abbe c9a0 363d 6b7d 42bd d879 d53d
00000250: db4a d039 1c1a 72be 4a19 8ebe a5bc bdbe
00000260: f727 9ebc c07b 4f3d 1155 a03b 9637 7c3e
00000270: 562c c23d e260 d53d a1ce 1d3e ed60 33bf
00000280: 324b 29bf 99bb 26be 6d22 333e c7fc b33e
00000290: 1bf3 303e f28e 953d c90f fe3e 2e07 4ebe
000002a0: 5bce 2f3d 37b7 4bbe d86d ebbe 27cc a0bc
000002b0: 9964 77bd 47ae 0a3f 0cf6 7abe dd6c eb3e
000002c0: 6dcb c7be 7fc8 923e 99d2 50bd de04 563d
000002d0: f3cb 753d 3f9c f4be aa8c a13e 4b84 1d3e
000002e0: 7809 cd3d a750 203f ab2d c8be 9cd3 b5be
000002f0: 481a ab3e ca0c 463b 9a3f 7a3e a187 00bf
00000300: 3be6 8d3d 652f f13d 8719 a63e f3fa 56bd
00000310: 87bf b2be 35fe 1cbd 659e d9bb 9754 ad3d
00000320: ee3b c53e a588 c3bd 04d5 0dbf 13d2 653e
00000330: 04b3 d13d a5de 90bb d475 99bd a08e 453e
00000340: 7af7 29bd 5e59 ca3d f754 083e 4add 133e
00000350: 79df 84bd 56e6 f0bd b293 52bd 9355 5dbd
00000360: 9f4d 7a3c c23a 80bf 2e1b c53d a073 01bf
00000370: b3cd de3d 948f cb3d a0bb c13d 3126 2c3e
00000380: 7e39 f9be 9b11 e03d e624 cf3d ef20 dd3d
00000390: 596b 9cbe 5340 6bbd ceec 153e a8b2 e5bd
000003a0: 262d 2b3d 2b11 9ebe 261d 12be 902d a13e
000003b0: 87f7 63bd 78f2 003f 2a6d 1dbe 327e 183e
000003c0: a919 0abf ac8a 2a3e 4ab1 43be 9904 0b3e
000003d0: 52da adbe d39f 90be 8237 153e e55b 873d
000003e0: 4a96 4bbd 0b38 3c3e 85a5 87be 8c13 d2be
000003f0: 02fc c03e 60b9 313e e0f4 533f 011b 73be

transformer.transformer_encoder.layers.0.linear1.bias f4 [64]
-0.2601033 -0.06770307 -0.19246154 -0.11262247 -0.07144688 0.020272925 0.0024498813 -0.22432174
-0.1473987 -0.21116671 -0.26061615 -0.31994048 -0.29434654 -0.15844862 -0.11828859 -0.2531289
-0.061428595 -0.34522188 -0.1332383 0.0007003701 -0.19431557 -0.16814485 -0.13706616 -0.18295543
-0.10238228 -0.341429 -0.20697601 -0.006084909 0.105382435 -0.29646063 -0.18456236 -0.17233343
-0.2793959 -0.018431121 -0.22051337 -0.23670144 -0.01688977 -0.034733966 -0.18729445 -0.32628897
-0.02857029 -0.19041486 -0.14437564 -0.06513881 -0.02386431 -0.008262049 -0.27420032 -0.13251828
-0.0973366 -0.3839021 -0.0069920463 -0.34581622 -0.36186475 -0.36120522 -0.030336212 -0.4282632
-0.055011105 -0.09426917 -0.015797308 0.043189406 -0.36963362 -0.069074325 -0.015473661 -0.026706256
00000000: 422c 85be e8a7 8abd a314 45be 9ca6 e6bd
00000010: be52 92bd 6813 a63c 308e 203b 99b4 65be
00000020: afef 16be 163c 58be 7b6f 85be 3dcf a3be
00000030: 97b4 96be 5b40 22be 4a41 f2bd 1c9a 81be
00000040: 8d9c 7bbd ecc0 b0be 9f6f 08be 0b99 373a
00000050: a9fa 46be 2a2e 2cbe 125b 0cbe ab58 3bbe
00000060: cdad d1bd c8cf aebe 85f1 53be eb63 c7bb
00000070: bfd2 d73d b0c9 97be eafd 3cbe 2d78 30be
00000080: fb0c 8fbe ddfc 96bc 42ce 61be dd61 72be
00000090: 6a5c 8abc 3445 0ebd 1eca 3fbe 590f a7be
000000a0: 3e0c eabc 1dfc 42be 35d7 13be 7f67 85bd
000000b0: 167f c3bc 8c5d 07bc fc63 8cbe dfb2 07be
000000c0: 6958 c7bd d18e c4be 891d e5bb d30e b1be
000000d0: 5646 b9be e4ef b8be a683 f8bc 5045 dbbe
000000e0: 5353 61bd 3210 c1bd 5b69 81bc 60e7 303d
000000f0: 9e40 bdbe d776 8dbd 3d85 7dbc 14c7 dabc

transformer.transformer_encoder.layers.0.linear2.weight f4 [32, 64]
0.027951527 0.30212244 -0.14830308 -0.49990973 -0.57911766 -0.26193443 -0.18083972 0.031743042
-0.3682964 0.7307848 0.087596625 0.16303322 -0.26689523 -0.007307804 -0.2353974 -0.15552932
-0.16869141 -0.17301768 -0.3203925 -0.12957354 0.3632681 -0.2566906 -0.31197104 -0.25667334
-0.1758695 0.0061444277 0.030881383 -0.03864042 -0.4660672 0.11934517 -0.15031572 -0.208949
-0.4355566 -0.1628667 -0.5119859 -0.074689984 -0.15871128 -0.34491298 -0.3407714 -0.16926792
-0.18530366 -0.37816313 -0.37918118 0.36367494 0.039030865 0.08684239 -0.30469698 -0.4236868
-0.40112096 0.16547309 -0.16061567 0.3393235 -0.55766296 0.4657154 0.40049794 0.17889799
-0.37777662 -0.25964564 -0.22355711 -0.04576719 -0.37770897 0.24075946 -0.42647058 0.39889747
0.21756274 -0.57177305 0.25919268 -0.27344704 -0.5212015 -0.4553068 0.02650643 -0.23495778
-0.48904753 -0.25434574 0.35849768 -0.35344544 0.035343226 -0.1499778 -0.102292284 -0.01611742
-0.46505532 0.24248824 -0.37726504 -0.14518204 -0.05460047 -0.025539136 -0.51840955 -0.12052844
-0.26932704 0.096366234 -0.13605644 -0.083511256 -0.028338315 0.26580998 -0.23120546 -0.17852753
-0.069177754 0.054689053 0.13781907 0.12168231 -0.026022382 0.0211741 0.2367835 0.008898883
-0.19743624 -1.0061765 -0.45387265 -0.25244427 0.577811 0.3081017 -0.101647645 -0.15446696
0.007030826 0.4954601 -0.6129202 -0.2725744 -0.12406707 -0.4499128 0.24475683 -0.03636333
-0.007238123 0.39560288 -0.38921282 -0.33269322 -0.32337812 -0.37549445 0.030256491 0.36474645
-0.29009607 0.1266097 -0.040155802 0.6840621 0.6202744 -0.0104600405 0.37862375 0.08497205
0.15026838 0.11362746 -0.0022565995 0.14955387 -0.12952365 0.06610241 -0.26606852 0.2023819
0.34430578 0.054255664 0.3034609 0.55573463 -0.08129955 0.06867895 0.15199372 0.13576274
0.34266457 -0.16784903 -0.14217006 -0.019766325 -0.13299485 0.1511665 0.08721407 0.5142011
0.8037551 0.046592668 0.22478372 -0.07201765 0.077909626 0.17478342 -0.5194636 -0.023844756
0.24191383 0.22969641 0.48715863 0.24105431 0.0559633 -0.022323325 0.039195042 0.09021937
-0.23678623 0.17814219 0.37988627 0.077309415 0.17124726 0.0998477 -0.052893538 0.13117255
0.115996964 -0.392556 0.8187544 0.12676592 0.25702578 0.39255595 0.12660411 -0.3695953
0.2677802 -0.40517455 0.3890615 -0.46948028 0.34283665 0.23272112 0.11409714 0.2807893
0.2696612 -0.4628747 -0.3182645 0.1684203 0.34917265 0.19796984 0.26399508 0.8938805
0.062429544 0.46104422 0.20275988 0.16712306 -0.1290082 0.21152133 0.47838092 0.6348176
-0.19621629 0.8679417 0.39682433 0.52371734 0.08071934 0.48415363 -0.3182956 -0.15894693
0.06214521 0.73258036 0.6854771 0.354809 -0.0520206 0.99638647 -0.7199494 0.29132453
0.15678151 -0.098894134 -0.066482015 -0.30619892 0.32712534 0.26743177 0.50912243 0.13568221
0.8550534 0.11560908 0.20267522 -0.19764689 -0.23875177 0.079163104 0.031639144 -0.010659891
-0.0039880434 0.41070178 0.5479986 0.27020046 0.38165477 -0.3691004 0.29222396 0.07152041
00000000: 9afa e43c cbaf 9a3e c3dc 17be 2bf4 ffbe
00000010: 0e41 14bf 451c 86be 0c2e 39be fe04 023d
00000020: 5991 bcbe b614 3b3f dc65 b33d 2ef2 263e
00000030: 7ea6 88be 4e76 efbb 040c 71be 1443 1fbe
00000040: 71bd 2cbe 8c2b 31be 7c0a a4be edae 04be
00000050: 47fe b93e f36c 83be abba 9fbe b06a 83be
00000060: 2217 34be 3257 c93b f4fa fc3c 6b45 1ebd
00000070: 5ca0 eebe 3e6b f43d 5dec 19be baf6 55be
00000080: 4601 dfbe 87c6 26be 8211 03bf 10f7 98bd
00000090: 3685 22be 6f98 b0be 9779 aebe 9254 2dbe
000000a0: 3ec0 3dbe 999e c1be 0924 c2be 9a33 ba3e
000000b0: d4de 1f3d 6cda b13d 3e01 9cbe 7aed d8be
000000c0: ba5f cdbe c771 293e 6f78 24be cfbb ad3e
000000d0: 00c3 0ebf 4072 ee3e 110e cd3e 0931 373e
000000e0: f06b c1be 46f0 84be 28ec 64be 6176 3bbd
000000f0: 1263 c1be a689 763e 5a5a dabe 4a3c cc3e
00000100: c4c8 5e3e b85f 12bf e7b4 843e 4001 8cbe
00000110: 766d 05bf f91d e9be 0324 d93c c698 70be
00000120: 7064 fabe 9b39 82be 028d b73e cdf6 b4be
00000130: 0fc4 103d c893 19be 9e7e d1bd ae08 84bc
00000140: bb1b eebe d64e 783e e228 c1be 9aaa 14be
00000150: bea4 5fbd 7337 d1bc 7db6 04bf 9dd7 f6bd
00000160: 3ce5 89be a95b c53d 6152 0bbe f307 abbd
00000170: c125 e8bc 3f18 883e 20c1 6cbe eccf 36be
00000180: 11ad 8dbd a101 603d 7120 0d3e 9334 f93d
00000190: e42c d5bc 4e75 ad3c 6077 723e 9fcc 113c
000001a0: ba2c 4abe 64ca 80bf ff61 e8be 6040 81be
000001b0: 6ceb 133f 82bf 9d3e a42c d0bd 962c 1ebe
000001c0: d862 e63b f2ac fd3e 57e8 1cbf df8e 8bbe
000001d0: e016 febd f85a e6be 89a1 7a3e b7f1 14bd
000001e0: c72d edbb 768c ca3e e746 c7be c456 aabe
000001f0: d191 a5be cf40 c0be 76dc f73c 0cc0 ba3e
00000200: 7987 94be f9a5 013e 697a 24bd b21e 2f3f
00000210: 4eca 1e3f 9760 2bbc f9da c13e d305 ae3d
00000220: f4df 193e 84b5 e83d 75e3 13bb a624 193e
00000230: d9a1 04be b360 873d 223a 88be 333d 4f3e
00000240: d948 b03e 303b 5e3d 3a5f 9b3e a044 0e3f
00000250: 6180 a6bd 8da7 8c3d 3ea4 1b3e 6305 0b3e
00000260: bb71 af3e 9ee0 2bbe 0795 11be fdec a1bc
00000270: cd2f 08be 64cb 1a3e 4a9d b23d afa2 033f
00000280: e5c2 4d3f f4d7 3e3d b42d 663e fd7d 93bd
00000290: 158f 9f3d 6dfa 323e 91fb 04bf 1456 c3bc
000002a0: 42b8 773e 8935 6b3e db6c f93e f1d6 763e
000002b0: c639 653d 68df b6bc fb8a 203d efc4 b83d
000002c0: 1778 72be e86a 363e 7480 c23e 6654 9e3d
000002d0: 715b 2f3e f37c cc3d e5a6 58bd 1952 063e
000002e0: d18f ed3d 1afd c8be e399 513f edce 013e
000002f0: e298 833e 18fd c83e 82a4 013e 983b bdbe
00000300: 7d1a 893e 0a73 cfbe 1233 c73e b85f f0be
00000310: 4988 af3e 724e 6e3e c3ab e93d 9dc3 8f3e
00000320: 0811 8a3e eafd ecbe 91f3 a2be 5f76 2c3e
00000330: c2c6 b23e 9bb8 4a3e 5d2a 873e 5ad5 643f
00000340: 1fb6 7f3d fd0d ec3e 49a0 4f3e 4f22 2b3e
00000350: ba1a 04be 0c99 583e 58ee f43e 6883 223f
00000360: ecec 48be 6d31 5e3f 8f2c cb3e 5712 063f
00000370: 2e50 a53d fce2 f73e a4f7 a2be fcc2 22be
00000380: fa8b 7e3d 638a 3b3f 6d7b 2f3f 86a9 b53e
00000390: 8d13 55bd 2f13 7f3f 9b4e 38bf 7d28 953e
000003a0: 558b 203e 0289 cabd b927 88bd 1bc6 9cbe
000003b0: f97c a73e d1ec 883e d955 023f 47f0 0a3e
000003c0: c8e4 5a3f 74c4 ec3d 188a 4f3e f263 4abe
000003d0: 587b 74be 4420 a23d 0c98 013d d3a6 2ebc
000003e0: 22ae 82bb 8147 d23e a349 0c3f b757 8a3e
000003f0: 4168 c33e bafa bcbe 619e 953e 4b79 923d

transformer.transformer_encoder.layers.0.linear2.bias f4 [32]
-0.16140658 -0.14468445 -0.038151495 0.09367611 0.1704896 -0.1290733 0.30716842 0.21557692
-0.16724217 -0.07273159 -0.03720269 0.24047524 0.033362217 0.024209373 0.0017616533 -0.008757558
-0.48525098 0.041367337 -0.20389293 -0.13406521 0.06309126 0.12638895 0.16666809 0.00599449
0.14098388 0.0011292619 -0.086354665 -0.1653792 0.19534644 -0.04935377 -0.022506533 -0.16911392
00000000: c447 25be 2928 14be be44 1cbd 43d9 bf3d
00000010: d394 2e3e cb2b 04be 2e45 9d3e 32c0 5c3e
00000020: 8841 2bbe 4df4 94bd d961 18bd 243f 763e
00000030: d2a6 083d bc52 c63c 47e7 e63a dc7b 0fbc
00000040: d172 f8be cc70 293d 4fc9 50be 6448 09be
00000050: fe35 813d 1b6c 013e 0aab 2a3e 6d6d c43b
00000060: 145e 103e be03 943a b7da b0bd 2a59 29be
00000070: e608 483e 2e27 4abd 9f5f b8bc 332c 2dbe

transformer.transformer_encoder.layers.0.norm1.weight f4 [32]
0.76811266 1.1770458 1.4634565 1.3247281 1.0128665 0.34858802 1.0122955 1.7561793
1.2805713 0.67644656 1.1564114 0.19777817 0.21744877 1.6890852 0.94432753 0.3728366
0.7369569 0.42545447 0.09594774 0.06952579 0.17309062 0.65257 0.70791346 1.2292758
0.03653275 1.9298693 1.0385433 1.0403323 0.80579484 0.44026956 0.81238514 1.3422245
00000000: 08a3 443f 70a9 963f 8b52 bb3f b190 a93f
00000010: 9ca5 813f 217a b23e e692 813f 7cca e03f
00000020: c3e9 a33f 9a2b 2d3f 4a05 943f 5c86 4a3e
00000030: e4aa 5e3e f233 d83f 73bf 713f 70e4 be3e
00000040: 35a9 3c3f 2bd5 d93e 4080 c43d 8a63 8e3d
00000050: ab3e 313e d40e 273f d139 353f e958 9d3f
00000060: 5da3 153d f505 f73f fdee 843f 9c29 853f
00000070: 9248 4e3f 036b e13e 79f8 4f3f 03ce ab3f

transformer.transformer_encoder.layers.0.norm1.bias f4 [32]
-0.11933777 -0.0380806 -0.009060698 -0.00834835 -0.17970543 -0.055350445 0.14462586 -0.040626097
0.14097652 0.28999627 -0.008232716 0.107611045 -0.20595372 -0.08999051 0.26030704 0.113488935
0.12639353 0.062620595 0.02189179 0.008184661 0.11558056 -0.24806564 0.262073 0.1414368
0.017628916 -0.10611489 0.30634937 0.037121385 0.064341694 0.22588435 0.26651722 -0.037366427
00000000: 5c67 f4bd 67fa 1bbd 5273 14bc 85c7 08bc
00000010: b304 38be 26b7 62bd cd18 143e 8d67 26bd
00000020: 265c 103e 647a 943e 83e2 06bc 2e63 dc3d
00000030: 88e5 52be f24c b8bd f746 853e e36c e83d
00000040: 4e6d 013e 3a3f 803d 6956 b33c f518 063c
00000050: 80b5 ec3d eb04 7ebe 6f2e 863e cfd4 103e
00000060: 846a 903c c352 d9bd d3d9 9c3e 980c 183d
00000070: 94c5 833d 3a4e 673e f274 883e 8a0d 19bd

transformer.transformer_encoder.layers.0.norm2.weight f4 [32]
0.4745592 1.0621848 1.224175 0.6908095 1.0718464 0.39765012 0.75139236 0.9455639
0.8325891 0.7351796 1.1872346 0.4475477 0.7074198 1.3004402 0.63941145 0.37136188
0.4932247 0.7181307 0.1907447 0.46762845 0.66903263 0.97700495 0.63167524 1.0433939
0.5191702 1.5594527 0.70272666 0.7441567 0.5795954 0.96360207 1.0761759 0.8922623
00000000: 6cf9 f23e acf5 873f c4b1 9c3f e4d8 303f
00000010: 4332 893f cc98 cb3e 405b 403f 7a10 723f
00000020: 8f24 553f bb34 3c3f 4ef7 973f f924 e53e
00000030: 7719 353f d374 a63f 78b0 233f 2523 be3e
00000040: f387 fc3e 6ad7 373f 9452 433e ff6c ef3e
00000050: b945 2b3f ff1c 7a3f 78b5 213f ee8d 853f
00000060: 57e8 043f 259c c73f e5e5 333f 0e81 3e3f
00000070: 5d60 143f a0ae 763f 22c0 893f 4d6b 643f

transformer.transformer_encoder.layers.0.norm2.bias f4 [32]
-0.14978634 -0.03713745 0.26393622 0.27003324 -0.08087728 0.043876477 0.0108670425 0.18434443
-0.1016651 0.11669399 -0.19841294 -0.088706374 0.07107542 -0.082164966 -0.10672001 -0.027275767
0.06170896 0.01977221 0.22945663 0.010410986 0.12931933 0.020429188 0.002723635 0.17337744
-0.01392198 -0.09901991 -0.15015666 0.11435353 0.19810611 0.016808864 -0.009129057 -0.25252286
00000000: 9761 19be 701d 18bd a622 873e cc41 8a3e
00000010: fda2 a5bd d2b7 333d ae0b 323c c9c4 3c3e
00000020: cb35 d0bd 42fd ee3d c32c 4bbe b0ab b5bd
00000030: fd8f 913d 1b46 a8bd 0590 dabd 6e71 dfbc
00000040: 89c2 7c3d 54f9 a13c aef6 6a3e d792 2a3c
00000050: 496c 043e 1d5b a73c 037f 323b db89 313e
00000060: 0419 64bc f3ca cabd abc2 19be 2f32 ea3d
00000070: 54dc 4a3e beb2 893c 0a92 15bc ad4a 81be

net.0.weight f4 [64, 32]
-0.12060311 -0.3383659 -0.22550794 0.26738134 -0.17283899 -0.23067515 0.510462 -0.022681834
-0.038563386 -0.17834567 -0.26844618 0.26970416 0.43638933 0.55558085 -0.20946865 0.2811064
-0.0069308537 -0.15096384 -0.0023283653 -0.2219611 0.29261816 -0.168666 0.3277975 0.24968505
-0.11188887 0.17966162 -0.11430584 -0.24619032 0.27784708 -0.110705584 0.104569934 -0.78599465
0.46343425 0.08272727 -0.6492174 0.032898784 0.56019646 0.122079 -0.06446805 -0.0995238
-0.056007832 -0.2293944 0.5307376 0.09676684 -0.36021692 0.31052855 -0.162979 -0.410212
-0.2801748 -0.20916054 -0.2979714 0.110817224 -0.22613508 0.2638221 -0.073702075 -0.2030763
0.21117659 0.9134341 -0.1068741 0.070702046 -0.242916 -0.20786157 -0.04950785 0.06308448
0.03760941 -0.13095665 -0.18261924 0.3546101 0.32117522 0.13899045 0.02427051 0.4010501
0.0293087 0.19983707 -0.29305094 0.28860208 -0.1284404 -0.02692764 -0.26427168 0.30192629
-0.11436998 0.22684781 -0.26988065 -0.10343842 -0.17620143 0.06269739 -0.0069652363 -0.19289517
-0.28158933 0.39063346 -0.30407944 0.028994264 -0.1120245 0.21501905 0.3036312 -0.34346047
0.3132856 -0.15698971 0.35017323 -0.14108431 -0.3114498 0.71217823 0.359903 -0.10502941
-0.30278426 -0.39105725 0.30839047 0.15713304 -0.0063247103 0.015554365 -0.30294225 0.066563144
0.4596907 -0.16141409 -0.09661082 0.39428478 -0.57781464 0.33354238 -0.03948798 -0.44734028
-0.5089627 -0.027730338 -0.074394934 0.02283539 -0.36262333 0.14192316 0.26169664 0.12492444
-0.13071613 -0.1813135 -0.06812708 -0.08030329 0.006644418 -0.20900911 0.26898563 -0.13232991
-0.051006712 -0.18293633 -0.22026302 0.1815333 0.4328029 0.42830694 -0.20879345 0.20437025
0.03468455 0.09041632 -0.07635437 -0.26918387 -0.028856121 -0.4339402 0.14295684 -0.088384435
-0.15647754 -0.048803616 -0.1481001 -0.26604486 0.50488096 0.31191528 0.059150178 -0.5588025
0.33064544 0.3086328 0.17651086 0.048917525 0.16987438 -0.16660547 -0.14381017 0.23660655
0.4278377 -0.08111406 -0.27573144 -0.20909184 -0.13194484 -0.120546065 0.31119174 0.0620114
-0.04914466 0.25783724 0.0035985792 -0.047014732 -0.44613326 -0.51015353 0.028324507 0.057645325
0.1168989 -0.37713468 0.07788892 -0.22827177 -0.42586267 0.37195206 0.71944743 0.30792692
0.04593414 -0.21230826 0.52667916 -0.1703344 -0.20827395 -0.020992963 0.13181028 -0.16186388
0.31190687 -0.18942444 -0.30726445 0.13277853 0.032662872 -0.34155086 0.23240335 0.10669083
0.16441432 0.20931451 0.22702944 0.013632708 -0.0662745 0.14379533 0.10956508 0.12542766
-0.025203252 -0.56019306 -0.040335663 -0.110214494 -0.1741869 0.28554356 0.039304532 0.0444814
0.21888646 -0.26880422 -0.035161223 0.21698254 0.21683267 0.36882976 0.24226542 -0.026408052
0.13230518 -0.124337964 -0.15673059 -0.2646015 0.11661203 0.054551076 0.018482333 0.34733182
-0.06668609 0.27128774 0.27373934 0.10359251 -0.20083965 0.000584648 0.03456231 -0.27506572
0.28439263 -0.016768577 0.048723698 -0.23426145 0.024105337 -0.020356778 -0.24888259 -0.26693818
00000000: c3fe f6bd 4c3e adbe 8eeb 66be 35e6 883e
00000010: b4fc 30be 1b36 6cbe a3ad 023f 41cf b9bc
00000020: a4f4 1dbd 3fa0 36be c771 89be aa16 8a3e
00000030: 6c6e df3e 8c3a 0e3f f37e 56be 2eed 8f3e
00000040: 371c e3bb 4496 1abe 7d97 18bb c549 63be
00000050: 0cd2 953e c8b6 2cbe 13d5 a73e 70ad 7f3e
00000060: fe25 e5bd 37f9 373e 2e19 eabd 5119 7cbe
00000070: f941 8e3e 9cb9 e2bd c328 d63d f236 49bf
00000080: 4147 ed3e ea6c a93d 1d33 26bf e0c0 063d
00000090: 0969 0f3f 8e04 fa3d d307 84bd 22d3 cbbd
000000a0: 7868 65bd 5ee6 6abe 6bde 073f b12d c63d
000000b0: 5a6e b8be 99fd 9e3e f8e3 26be 4f07 d2be
000000c0: 1273 8fbe 2e2e 56be b58f 98be 24f4 e23d
000000d0: f48f 67be b113 873e 1df1 96bd 3cf3 4fbe
000000e0: ad3e 583e d1d6 693f cfe0 dabd 3ccc 903d
000000f0: f9be 78be aad9 54be bec8 4abd 7032 813d
00000100: 530c 1a3d 8019 06be 8a00 3bbe 748f b53e
00000110: 1471 a43e 8353 0e3e f3d2 c63c 7056 cd3e
00000120: cc18 f03c 17a2 4c3e c60a 96be a7c3 933e
00000130: e185 03be 5b97 dcbc 9e4e 87be 1596 9a3e
00000140: cf3a eabd cb4a 683e cc2d 8abe 86d7 d3bd
00000150: 266e 34be 7d67 803d a33c e4bb 5086 45be
00000160: 7a2c 90be 1c01 c83e 4db0 9bbe 6185 ed3c
00000170: 1a6d e5bd f42d 5c3e 8c75 9b3e 0dda afbe
00000180: f866 a03e e9c1 20be e849 b33e 6878 10be
00000190: 5976 9fbe 5051 363f 3545 b83e a919 d7bd
000001a0: 8a06 9bbe a838 c8be 5be5 9d3e 7ce7 203e
000001b0: 843f cfbb bcd7 7e3c 3f1b 9bbe 4252 883d
000001c0: 945c eb3e bc49 25be e5db c5bd b2df c93e
000001d0: a9eb 13bf 11c6 aa3e 26be 21bd c909 e5be
000001e0: 614b 02bf bc2a e3bc 5f5c 98bd 4911 bb3c
000001f0: c4a9 b9be 4e54 113e 1afd 853e 63d8 ff3d
00000200: 73da 05be 3faa 39be 3686 8bbd 0d76 a4bd
00000210: 6bb9 d93b 7c06 56be 7cb8 893e 7e81 07be
00000220: 6aec 50bd a953 3bbe a18c 61be dee3 393e
00000230: 5798 dd3e 0c4b db3e f3cd 55be 6f46 513e
00000240: 6311 0e3d 312c b93d ae5f 9cbd 78d2 89be
00000250: ac63 ecbc 692d debe 4763 123e e602 b5bd
00000260: a63b 20be 4de6 47bd 8da7 17be 0837 88be
00000270: e13f 013f 5cb3 9f3e 7547 723d ae0d 0fbf
00000280: 5c4a a93e 1e05 9e3e 43bf 343e be5d 483d
00000290: 8df3 2d3e a09a 2abe f942 13be fd48 723e
000002a0: 8b0d db3e 211f a6bd ac2c 8dbe 2c1c 56be
000002b0: 8c1c 07be dbe0 f6bd 8654 9f3e aaff 7d3d
000002c0: e94b 49bd 3e03 843e 24d6 6b3b 8592 40bd
000002d0: 946b e4be 6c99 02bf cc08 e83c 811d 6c3d
000002e0: b168 ef3d cc17 c1be 3a84 9f3d 13c0 69be
000002f0: ac0a dabe 8070 be3e b52d 383f 99a8 9d3e
00000300: 7025 3c3d 5667 59be 72d4 063f 246c 2ebe
00000310: c445 55be 6ff9 abbc 46f9 063e a5bf 25be
00000320: 42b2 9f3e 7bf8 41be c451 9dbe 18f7 073e
00000330: 81c9 053d c1df aebe 25fb 6d3e b980 da3d
00000340: 3a5c 283e 8b56 563e 687a 683e b95b 5f3c
00000350: edba 87bd 153f 133e a863 e03d 1c70 003e
00000360: 0d77 cebc d068 0fbf 0237 25bd 23b8 e1bd
00000370: 0d5e 32be c432 923e cafd 203d 2132 363d
00000380: c623 603e b5a0 89be 3705 10bd ac30 5e3e
00000390: 6209 5e3e 41d7 bc3e 6d14 783e b355 d8bc
000003a0: 027b 073e e7a4 febd fc7d 20be d979 87be
000003b0: 4ad2 ee3d f370 5f3d 4368 973c 7ad5 b13e
000003c0: b792 88bd 3ae6 8a3e 9027 8c3e 4f28 d43d
000003d0: e9a8 4dbe 1043 193a 3591 0d3d 6ad5 8cbe
000003e0: e99b 913e 415e 89bc 8092 473d 3ce2 6fbe
000003f0: 8e78 c53c 42c3 a6bc 14db 7ebe 1fac 88be

net.0.bias f4 [64]
-0.1453537 -0.20940273 -0.052820258 -0.18814807 -0.35594463 -0.18729311 -0.026622124 -0.48654482
-0.1818889 -0.42949402 -0.30930242 -0.43272376 -0.61336994 -0.08192619 -0.19891319 -0.067924574
-0.22273979 -0.11500095 -0.43170086 -0.53859025 -0.20367736 0.02458823 -0.3850763 -0.32143605
-0.16281405 -0.21591645 -0.51500875 0.12999527 -0.18217897 -0.3888216 -0.33996588 -0.5603131
-0.2800612 -0.42093417 -0.25180066 -0.39825886 -0.13450453 -0.18334252 -0.007775381 -0.47457436
-0.6242455 -0.22499867 -0.016032726 -0.45550963 -0.2959645 -0.32354772 -0.22078374 -0.33468702
-0.149895 -0.33949736 0.08787773 0.1278444 -0.42267132 0.040850963 -0.5940684 -0.47763133
-0.15840821 -0.038017914 -0.22996572 -0.4422467 -0.47248885 -0.6014333 -0.17732239 -0.4403483
00000000: 9ad7 14be ab6d 56be 0e5a 58bd e3a9 40be
00000010: 603e b6be c4c9 3fbe a416 dabc 671c f9be
00000020: 1541 3abe a4e6 dbbe e35c 9ebe f88d ddbe
00000030: d005 1dbf ebc8 a7bd e6af 4bbe 0a1c 8bbd
00000040: e615 64be 9e85 ebbd e507 ddbe 0de1 09bf
00000050: cc90 50be 416d c93c b928 c5be 4493 a4be
00000060: bab8 26be 3419 5dbe 9dd7 03bf 7b1d 053e
00000070: 208d 3abe a013 c7be 0210 aebe ae70 0fbf
00000080: 2e64 8fbe af84 d7be 04ec 80be 96e8 cbbe
00000090: 8ebb 09be 24be 3bbe a0c8 febb 69fb f2be
000000a0: 8ece 1fbf 0d66 66be 1057 83bc 8f38 e9be
000000b0: a988 97be 0ca8 a5be 2215 62be 195c abbe
000000c0: 137e 19be 99d2 adbe 3df9 b33d a4e9 023e
000000d0: 6068 d8be 5753 273d de14 18bf 188c f4be
000000e0: c335 22be acb8 1bbd 227c 6bbe 296e e2be
000000f0: 0fea f1be 88f7 19bf 0094 35be 5575 e1be

net.2.weight f4 [1, 64]
0.15441911 -0.5304886 0.094930455 -0.04039468 0.18619566 -0.19122902 -0.13481861 -0.017961523
0.16519849 0.087680474 -0.33335218 -0.09913867 0.0035562932 0.20004745 0.054741323 0.12168147
0.09577203 0.17085166 -0.0064373612 -0.022755587 0.04258135 0.25129324 -0.15438177 -0.018973092
-0.27050307 -0.2819176 -0.10654559 0.16288239 0.3700657 -0.34603256 0.0396883 -0.015414693
-0.018426867 0.12600471 0.11832141 -0.813194 0.27217495 0.03641634 -0.09758444 0.10985273
-0.002502248 -0.11185395 -0.18198404 -0.22791721 0.044780344 -0.41311687 -0.39342755 -0.046271242
-0.068104014 -0.14482665 0.22740023 0.14808957 0.055049993 0.21394017 -0.41992432 0.14522907
-0.18020344 -0.19384564 0.18338574 0.016304422 -0.09780172 -0.08650017 -0.31169975 0.006364341
00000000: 0b20 1e3e 1ace 07bf e66a c23d e474 25bd
00000010: 13aa 3e3e 8ad1 43be e40d 0abe 0b24 93bc
00000020: cb29 293e d291 b33d 23ad aabe 3709 cbbd
00000030: b310 693b 3dd9 4c3e 7038 603d 2234 f93d
00000040: 2024 c43d bdf3 2e3e 80f0 d2bb ed69 babc
00000050: c869 2e3d 82a9 803e 4116 1ebe 756d 9bbc
00000060: 617f 8abe 8157 90be 9334 dabd a4ca 263e
00000070: 4079 bd3e 2e2b b1be 3390 223d e98d 7cbc
00000080: f1f3 96bc 6107 013e 7f52 f23d 7b2d 50bf
00000090: 845a 8b3e 4d29 153d 5ada c7bd 78fa e03d
000000a0: c1fc 23bb af13 e5bd 065a 3abe 2163 69be
000000b0: 986b 373d 0e84 d3be 566f c9be ea86 3dbd
000000c0: 1e7a 8bbd 704d 14be 9bdb 683e cba4 173e
000000d0: 1a7c 613d 2213 5b3e 5200 d7be eeb6 143e
000000e0: 4087 38be 797f 46be 79c9 3b3e da90 853c
000000f0: 454c c8bd 0027 b1bd 1c97 9fbe f68b d03b
