models/engine_hybrid_dnn_model.pt (torch, 51565 bytes, 17 tensors)

embedding.weight f4 [32, 5]
0	0x3e61cc87	0.22050677
1	0xbbf08c2e	-0.0073409295
2	0xbd9aecbc	-0.07564685
3	0xbdb23916	-0.087022945
4	0x3e1baff0	0.15203834
5	0xbe634695	-0.22194894
6	0xbede4184	-0.4340936
7	0xbeb8fd74	-0.3613087
8	0x3f147b3c	0.5800054
9	0x3eb7a417	0.35867378
10	0x3cbb22c4	0.022843726
11	0xbe9475da	-0.28996164
12	0x3f109ccd	0.5648926
13	0x3e7ed64e	0.24886438
14	0x3da3668a	0.07978542
15	0x3e23ba9f	0.15989159
16	0xbf0e3a94	-0.55558133
17	0x3e550107	0.20801173
18	0xbf0e8b6b	-0.55681485
19	0xbef1622e	-0.47145218
20	0xbbd69c68	-0.006549407
21	0xbbdd8a28	-0.0067608543
22	0x3c8a0159	0.016846346
23	0xbd1b56f1	-0.03792471
24	0xbdf52e87	-0.11971765
25	0x3f0aa8d1	0.54163843
26	0xbf02d89a	-0.5111176
27	0xbe0d867c	-0.13820833
28	0x3ec4abf2	0.38412434
29	0x3f2d190f	0.6761636
30	0x3b8b656b	0.0042540333
31	0x3c95a37d	0.018266434
32	0x3cdf79ad	0.0272797
33	0x3e678eb7	0.22613035
34	0x3da58940	0.08082819
35	0xbb601768	-0.0034193639
36	0x3b5cf024	0.003371247
37	0x3ce5ca0c	0.028050445
38	0x3ed2bb94	0.41158736
39	0x3d225244	0.039629236
40	0xbf005236	-0.50125444
41	0x3ee3c537	0.444864
42	0xbde30d29	-0.110864945
43	0xbdabc913	-0.08387961
44	0x3db40e5f	0.087918036
45	0xbf412624	-0.7544882
46	0x3ea0f969	0.31440285
47	0xbed8dc87	-0.4235575
48	0xbe09968f	-0.1343634
49	0xbead57eb	-0.3385614
50	0x3ec9d518	0.3942039
51	0x3f342ba3	0.70379084
52	0xbf0b910f	-0.54518217
53	0x3ef6df94	0.48217452
54	0x3e8e11b6	0.27747887
55	0xbe3e9807	-0.18612681
56	0x3e456b90	0.19279313
57	0x3dea959e	0.114543185
58	0xbd8714af	-0.06595742
59	0xbe9d40f9	-0.30713633
60	0xba040d53	-0.0005037386
61	0xbb8b5d25	-0.004253047
62	0x3c834fb7	0.016029222
63	0x3c94006d	0.01806661
64	0xbdcd9f10	-0.100401044
65	0x3eb107b1	0.3457618
66	0x3dfbf6c9	0.1230293
67	0x3f2b4067	0.66895145
68	0x3d31eb72	0.04343743
69	0x3e8a706a	0.2703889
70	0xbf245d16	-0.6420454
71	0xbe6736a3	-0.22579436
72	0x3e8e0567	0.27738497
73	0xbe464edb	-0.19366018
74	0x3a906c70	0.0011018645
75	0x3dff5f1e	0.12469314
76	0xbe27371a	-0.16329613
77	0xbdc9e64d	-0.098583795
78	0x3e02926d	0.1275117
79	0x3ee08dde	0.43858236
80	0xbece40b8	-0.4028375
81	0x3e547391	0.2074721
82	0x3e577c6b	0.21043555
83	0xbe91816a	-0.28419048
84	0xbeddd2c2	-0.43324858
85	0xbbb3d618	-0.0054881684
86	0xbc158900	-0.009126902
87	0x3c85b77e	0.016322847
88	0xbda1e7f9	-0.079055734
89	0xbe41c0cd	-0.18921204
90	0x3b5ad0d8	0.003338864
91	0x3b93052b	0.0044867
92	0x3c93286c	0.01796361
93	0xbe212875	-0.1573809
94	0x3ec0ce1c	0.3765725
95	0xbeeaf398	-0.45888972
96	0xbe99d40c	-0.3004459
97	0x3ee59144	0.4483739
98	0x3ccf8eca	0.025336642
99	0x3dd879d7	0.10570114
100	0x3e058bdc	0.13041633
101	0x3ed970c9	0.4246886
102	0xbccb033d	-0.024781818
103	0xbee57b27	-0.4482052
104	0x3e921619	0.28532484
105	0xbcb1b31d	-0.021691853
106	0xbb835fb6	-0.0040092124
107	0x3cb2c9a6	0.02182467
108	0xbddae082	-0.10687353
109	0xbe289672	-0.1646364
110	0xbbbc9e59	-0.005756181
111	0x3add3ab5	0.0016878458
112	0x3c853304	0.016259678
113	0xbb7f6746	-0.0038971468
114	0xbdd41a4b	-0.103565775
115	0x3b2f0701	0.0026707056
116	0xbe1b5b0d	-0.15171452
117	0xbeab1c48	-0.33420014
118	0x3f01dc66	0.50726926
119	0x3ea7018e	0.32618374
120	0x3ef20ce9	0.47275475
121	0xbefb674b	-0.49102244
122	0x3e8aaa52	0.2708307
123	0xbde6dc6e	-0.112725124
124	0xbedeaf1e	-0.4349298
125	0x3df4de03	0.11956408
126	0x3f3f24b1	0.7466536
127	0xbf47fdc2	-0.7812158
128	0xbe2ca6a0	-0.16860437
129	0x3ee456b9	0.44597414
130	0x3e688dee	0.22710392
131	0x3cc2c79a	0.023776818
132	0xbd768580	-0.06018591
133	0x3e8f4248	0.27980256
134	0xbe489fc7	-0.195922
135	0x3de77214	0.113010556
136	0x3e547b5d	0.20750184
137	0x3f21b3c4	0.63164926
138	0xbf1112be	-0.56669223
139	0xbe178e67	-0.14800416
140	0xbe53f341	-0.20698263
141	0x3ea964dd	0.33084765
142	0xbf113e0f	-0.5673532
143	0xbe95863c	-0.29203975
144	0xbebe10d2	-0.37122208
145	0x3b8225ed	0.0039718063
146	0x3c1642b1	0.009171174
147	0x3cbc88e0	0.023014486
148	0x3e496463	0.196672
149	0xbe98be37	-0.29832622
150	0x3f2b58e5	0.6693252
151	0x3edf43f7	0.4360654
152	0x3e801ec2	0.25023466
153	0x3ee3b752	0.444758
154	0x3ecc5b60	0.39913464
155	0xbb3aa413	-0.0028479144
156	0xbb646d45	-0.0034855169
157	0x3c2c4104	0.010513548
158	0x3e984b29	0.29744843
159	0xbe40f54f	-0.18843578

embedding.bias f4 [32]
0	0x3e8026d5	0.25029626
1	0x3f29675a	0.66173327
2	0xbeafab34	-0.34310305
3	0xbe9880f8	-0.29785895
4	0x3e10aec4	0.14129168
5	0x3c5bcf76	0.013416162
6	0xbe98b239	-0.29823473
7	0xbed5bd8c	-0.41746175
8	0xbf11a3ae	-0.5689038
9	0xbf00372a	-0.50084174
10	0x3e702081	0.234499
11	0xbda6df3e	-0.08148049
12	0x3dbafec6	0.091306254
13	0xbe0373a1	-0.12837078
14	0xbf03fe93	-0.51560324
15	0xbe9fa8f6	-0.31183594
16	0x3e0dc242	0.13843635
17	0x3e855fb0	0.26049566
18	0xbe4713d7	-0.19441162
19	0x3ef7744d	0.48330918
20	0xbecf9fb1	-0.40551522
21	0x3e8558dd	0.2604436
22	0x3e0142e2	0.1262317
23	0x3e855ed6	0.26048917
24	0xbecef738	-0.40422988
25	0x3f0c7a05	0.5487369
26	0x3d6c3ab7	0.057673182
27	0xbf1ec272	-0.6201545
28	0x3e8b2e9e	0.27184004
29	0x3e0e7c93	0.13914709
30	0xbdb2eb7f	-0.087363236
31	0xbdd48a14	-0.10377899

transformer.transformer_encoder.layers.0.self_attn.in_proj_weight f4 [96, 32]
0	0xbe0165b3	-0.12636451
1	0x3d66ed77	0.056378808
2	0x3d877b85	0.06615356
3	0xbe31bc6d	-0.17357035
4	0xbda1352e	-0.07871471
5	0xbe25fad8	-0.1620897
6	0x3e02b8ab	0.12765758
7	0xbd33c288	-0.04388669
8	0x3de2c49e	0.11072658
9	0xbe52db48	-0.20591462
10	0x3d9fc507	0.07801252
11	0x3cca6bc4	0.02470959
12	0x3db6f436	0.08933298
13	0xbdace159	-0.08441419
14	0x3e46cb44	0.19413477
15	0x3df0c60f	0.11756527
16	0x3e194f40	0.14971638
17	0x3e4e6b07	0.20158015
18	0xbdb61c31	-0.08892096
19	0xbd540a11	-0.051767413
20	0xbd8d901b	-0.069122516
21	0xbd651335	-0.05592652
22	0x3d7eb676	0.062185727
23	0x3d3b4faa	0.04573027
24	0x3e0438af	0.12912248
25	0x3e0b332a	0.13593736
26	0x3dd36416	0.10321824
27	0xbe2a6c7a	-0.16642943
28	0x3de78ca0	0.11306119
29	0x3c85a36a	0.016313273
30	0x3e58f5f5	0.21187575
31	0xbe031e57	-0.12804542
32	0xbd8faf97	-0.07015913
33	0xbe21776d	-0.15768214
34	0xbe2598cf	-0.16171573
35	0xbcf064cb	-0.029344937
36	0xbd0abb53	-0.033870053
37	0x3e45654b	0.19276921
38	0xbe06c29a	-0.13160172
39	0x3e25ee9d	0.16204305
40	0x3e2ab92b	0.16672198
41	0xbd321232	-0.043474384
42	0x3ceba553	0.028765356
43	0xbd4da11c	-0.050202474
44	0xbe1f0200	-0.15528107
45	0xbd41ba83	-0.047297012
46	0xbe0bae69	-0.13640751
47	0x3d9613d3	0.07328
48	0xbcc9c3d0	-0.024629503
49	0xbe47a256	-0.1949552
50	0x3dec1f08	0.11529356
51	0x3c0e4fbd	0.008686003
52	0xbdd56c42	-0.10421039
53	0x3e0d38a8	0.13791144
54	0x3d9fd9c2	0.07805206
55	0xbe2422a9	-0.16028847
56	0x3dbec132	0.09314193
57	0x3d0f123e	0.034929506
58	0xbe1d74b1	-0.15376545
59	0x3b88c114	0.0041734073
60	0xbd1a37be	-0.037650816
61	0xbd905bdc	-0.07048771
62	0xbdb8e4f5	-0.09028045
63	0xbd32acc1	-0.043621782
64	0xbd98fe79	-0.07470412
65	0x3e26e570	0.16298461
66	0x3e14f86e	0.14547893
67	0x3e354868	0.17703402
68	0xbe00e93e	-0.12588975
69	0xbd53fd4b	-0.05175523
70	0xbdf61407	-0.12015539
71	0x3dd4e6e3	0.10395601
72	0xbe2184cb	-0.15773313
73	0x3da0b37e	0.078467354
74	0x3e2114b5	0.15730555
75	0x3e2c0b2a	0.16801134
76	0xbe2e47ae	-0.17019531
77	0xbe31938e	-0.17341444
78	0x3c8855cc	0.016642474
79	0xbdbbda2c	-0.09172472
80	0xbd020633	-0.031744193
81	0xbe2ba494	-0.16762
82	0xbe017b7d	-0.12644763
83	0x3e175d50	0.1478169
84	0xbe056b4a	-0.13029209
85	0xbd0dd59a	-0.034627534
86	0xbd3d5bd3	-0.04623015
87	0x3d18215a	0.03714118
88	0x3e072f4d	0.13201638
89	0x3e3c4308	0.18384945
90	0x3e2f64ad	0.17128249
91	0xbdff709e	-0.12472652
92	0x3d974f31	0.073881514
93	0x3dbdb486	0.09262948
94	0x3e2e6ea8	0.170344
95	0xbdb57d3f	-0.088617794
96	0x3c4e090f	0.012575402
97	0x3e3186ea	0.17336622
98	0xbe49175b	-0.19637816
99	0xbe43dd2c	-0.19127339
100	0x3e18aab8	0.14908874
101	0xbd9052b7	-0.070470266
102	0x3e2e54b2	0.17024496
103	0xbdb1ff6a	-0.086912945
104	0x3da95938	0.0826897
105	0x3de86752	0.11347832
106	0xbce70fc1	-0.028205754
107	0x3dc6407f	0.096802704
108	0xbe01f8b0	-0.12692523
109	0xbdea20a5	-0.11432008
110	0xbe47d10b	-0.19513337
111	0xbd9ef19c	-0.07760927
112	0xbd8b3fbe	-0.06799267
113	0xbe16b0e2	-0.14715913
114	0xbdd5e9b5	-0.10444967
115	0xbe05e62a	-0.13076082
116	0xbe01630e	-0.12635443
117	0xbe272c6e	-0.16325542
118	0x3de02e1c	0.10946295
119	0x3ddbeba6	0.10738306
120	0x3e100dda	0.14067784
121	0x3bb006fb	0.005371926
122	0x3d2388fe	0.039925568
123	0x3b48d022	0.0030641635
124	0x3d910c0b	0.07082375
125	0x3de8c6ec	0.11366066
126	0x3e36b91a	0.17844048
127	0x3e524862	0.20535424
128	0x3d9c7564	0.07639578
129	0x3e385b84	0.1800366
130	0x3b86c449	0.0041127545
131	0x3e55d70e	0.20882818
132	0x3d55b6c6	0.05217626
133	0xbdbe9d68	-0.093073666
134	0x3dc4c1f2	0.09607305
135	0xbd735d38	-0.059415072
136	0xbe26fd9e	-0.16307685
137	0xbe4510db	-0.19244711
138	0x3d77e063	0.060516726
139	0x3e1035c3	0.14083008
140	0x3e4b373c	0.19845289
141	0xbe1cbe0e	-0.15306875
142	0x3de25e52	0.110531464
143	0xbdcd007a	-0.100098565
144	0xbd0981bd	-0.033570994
145	0xbe4341fa	-0.19068137
146	0xbe4fd403	-0.2029572
147	0xbe236392	-0.15955952
148	0x3df318a3	0.118699335
149	0x3e27fe8d	0.16405697
150	0xbd5f6851	-0.054542843
151	0xbe13ece7	-0.1444584
152	0xbe347b6e	-0.1762521
153	0xbe1b8bff	-0.15190123
154	0xbe1d8b8a	-0.15385261
155	0x3d42cf05	0.04756071
156	0xbd426371	-0.047458116
157	0x3e2913ba	0.16511431
158	0x3d9e9807	0.07743841
159	0x3dbb1554	0.091349274
160	0xbe1a5828	-0.15072691
161	0xbe167fbd	-0.14697166
162	0x3dfa7cc8	0.122308314
163	0xbd66c601	-0.056341175
164	0x3e4e115b	0.20123808
165	0x3de57d48	0.11205536
166	0xbe5a672b	-0.21328418
167	0xbd8618aa	-0.06547673
168	0x3e53ea6c	0.20694894
169	0x3d3e573e	0.04646992
170	0x3b705f6f	0.0036677977
171	0xbca2baf6	-0.01986454
172	0x3db958ec	0.090501636
173	0xbe5618c7	-0.2090789
174	0x3d630a06	0.05542948
175	0x3d77eb4b	0.060527127
176	0xbe0fab89	-0.14030279
177	0xbd628e20	-0.055311322
178	0x3c96d83c	0.018413655
179	0x3d9ed15d	0.077547766
180	0x3d460dc8	0.048352987
181	0xbdc7832c	-0.09741816
182	0xbd5adbeb	-0.053432386
183	0xbd9577e9	-0.07298262
184	0xbe238732	-0.15969542
185	0xbdb05a14	-0.08610931
186	0xbdbedc49	-0.0931936
187	0xbce804e4	-0.028322645
188	0xbe105a31	-0.14096905
189	0xbe0694bb	-0.13142674
190	0x3e2e27bf	0.1700735
191	0xbd495b4b	-0.04915933
192	0xbd473e8a	-0.048643626
193	0x3e461aa8	0.19346106
194	0xbe28ae78	-0.16472805
195	0x3e56e22a	0.20984712
196	0x3d434450	0.04767257
197	0x3dd790ab	0.1052564
198	0x3d5b19ec	0.053491518
199	0x3e0129da	0.12613621
200	0xbd898d3e	-0.06716393
201	0x3e1e623d	0.15467162
202	0xbdeedf1f	-0.11663651
203	0x3de1779e	0.11009143
204	0xbe3d2be9	-0.18473782
205	0xbe3757b9	-0.17904557
206	0x3d153f2c	0.0364372
207	0x3df6f167	0.120577626
208	0xbdc31782	-0.09525968
209	0xbcf1d520	-0.029520571
210	0x3e0c64c0	0.13710308
211	0x3e27bd88	0.16380894
212	0x3e5c2c20	0.21501207
213	0xbd453eaa	-0.048155464
214	0x3c889e62	0.016677085
215	0x3c42706f	0.011867627
216	0x3e5735a2	0.21016553
217	0x3e30ac74	0.17253286
218	0x3e0c8dea	0.13726011
219	0xbe14e05a	-0.14538708
220	0x3d2c60ad	0.042084385
221	0x3da86b1d	0.08223555
222	0xbe27214f	-0.163213
223	0xbe5045c6	-0.20339116
224	0x3df1ce51	0.1180693
225	0xbdb21486	-0.08695321
226	0x3df0ff53	0.11767449
227	0xbe148782	-0.14504817
228	0xbdc5017a	-0.09619422
229	0xbd297fbe	-0.04138159
230	0x3e48a01e	0.1959233
231	0xbcb6f7cc	-0.022334956
232	0x3e327965	0.17429121
233	0x3d452865	0.048134226
234	0xbe5acf38	-0.2136811
235	0xbdb5e4e6	-0.088815495
236	0x3daeb896	0.08531301
237	0x3e25f3eb	0.16206329
238	0xbe19469a	-0.14968339
239	0x3da92aaf	0.082600944
240	0xbcfa2198	-0.030533597
241	0x3c29eef2	0.01037191
242	0xbe0d7369	-0.13813557
243	0xbdf3cbaa	-0.1190408
244	0xbddf30eb	-0.10898002
245	0xbda8c153	-0.08239999
246	0xbe24ef87	-0.16106997
247	0xbe4700f2	-0.19433954
248	0xbcd1af2d	-0.025596226
249	0xbe30930a	-0.17243591
250	0xbe3a0732	-0.18166807
251	0xbda7760e	-0.08176814
252	0x3e53f2ea	0.20698133
253	0xbdfdffa3	-0.124022745
254	0x3afd7de1	0.0019339883
255	0xbdcaa3b8	-0.09894508

transformer.transformer_encoder.layers.0.self_attn.in_proj_bias f4 [96]
0	0x00000000	0.0
1	0x00000000	0.0
2	0x00000000	0.0
3	0x00000000	0.0
4	0x00000000	0.0
5	0x00000000	0.0
6	0x00000000	0.0
7	0x00000000	0.0
8	0x00000000	0.0
9	0x00000000	0.0
10	0x00000000	0.0
11	0x00000000	0.0
12	0x00000000	0.0
13	0x00000000	0.0
14	0x00000000	0.0
15	0x00000000	0.0
16	0x00000000	0.0
17	0x00000000	0.0
18	0x00000000	0.0
19	0x00000000	0.0
20	0x00000000	0.0
21	0x00000000	0.0
22	0x00000000	0.0
23	0x00000000	0.0
24	0x00000000	0.0
25	0x00000000	0.0
26	0x00000000	0.0
27	0x00000000	0.0
28	0x00000000	0.0
29	0x00000000	0.0
30	0x00000000	0.0
31	0x00000000	0.0
32	0x00000000	0.0
33	0x00000000	0.0
34	0x00000000	0.0
35	0x00000000	0.0
36	0x00000000	0.0
37	0x00000000	0.0
38	0x00000000	0.0
39	0x00000000	0.0
40	0x00000000	0.0
41	0x00000000	0.0
42	0x00000000	0.0
43	0x00000000	0.0
44	0x00000000	0.0
45	0x00000000	0.0
46	0x00000000	0.0
47	0x00000000	0.0
48	0x00000000	0.0
49	0x00000000	0.0
50	0x00000000	0.0
51	0x00000000	0.0
52	0x00000000	0.0
53	0x00000000	0.0
54	0x00000000	0.0
55	0x00000000	0.0
56	0x00000000	0.0
57	0x00000000	0.0
58	0x00000000	0.0
59	0x00000000	0.0
60	0x00000000	0.0
61	0x00000000	0.0
62	0x00000000	0.0
63	0x00000000	0.0
64	0x3bb41785	0.005495968
65	0xbc9ede70	-0.019393176
66	0xbceaef3c	-0.028678529
67	0x3c0af188	0.008480437
68	0xbc6760b5	-0.014122178
69	0xbd6051e5	-0.0547656
70	0x3d134478	0.03595397
71	0xbd463777	-0.04839274
72	0x3c7280cf	0.014801218
73	0x3d02d513	0.031941485
74	0xbd0ec7af	-0.034858402
75	0xbc593f72	-0.013259755
76	0xbbe48040	-0.0069732964
77	0xbd87e7f8	-0.066360414
78	0x3a697136	0.00089051144
79	0x3d28c3b4	0.041202262
80	0xbc479cb0	-0.012183353
81	0x3dc6e4e6	0.09711628
82	0x3d8f127b	0.06985947
83	0x3d7bec6e	0.061504774
84	0x3b0625c0	0.0020469278
85	0xbd309e75	-0.043119866
86	0xbd54e205	-0.05197336
87	0x3ce5db98	0.028058812
88	0xbc8c4454	-0.017122425
89	0xbb36247a	-0.0027792738
90	0x3da3cbb9	0.079978414
91	0xbc7f8cc6	-0.015597528
92	0x3beea38b	0.0072826794
93	0x3c606f44	0.013698403
94	0xbd471d71	-0.048612062
95	0x3c7056c6	0.014669126

transformer.transformer_encoder.layers.0.self_attn.out_proj.weight f4 [32, 32]
0	0x3d13040d	0.035892535
1	0xbcedc9a3	-0.029026812
2	0xb8fafe14	-0.00011968255
3	0xbd928a9e	-0.071553454
4	0x3d03c5d3	0.03217108
5	0x3cd82231	0.026383491
6	0x3d3eb6cb	0.046561044
7	0x39e76bcb	0.00044140065
8	0xbdc085ac	-0.09400496
9	0x3dadbaa7	0.08482867
10	0x3cd8e2d9	0.026475357
11	0x3d8239cb	0.063586794
12	0x3d9285de	0.071544394
13	0xbc850f99	-0.01624279
14	0x3e0abb4a	0.13548008
15	0xbda49a60	-0.08037257
16	0x3dbd3691	0.09238923
17	0xbd0a96fa	-0.03383539
18	0x3dbcfd04	0.092279464
19	0xbc4d308b	-0.012523781
20	0x3dcdec0b	0.10054787
21	0xba905e3b	-0.0011014411
22	0x3de94fcb	0.113921724
23	0xbcd8fdb7	-0.026488168
24	0xbc85a7e7	-0.016315414
25	0x3c663382	0.014050366
26	0x3d32ff56	0.04370054
27	0xbdb90fb9	-0.09036202
28	0x3ddc9ed1	0.10772479
29	0x3dfe1aab	0.1240743
30	0x3e1fc9a4	0.15604264
31	0xbd5117ab	-0.051047962
32	0x3c90d838	0.017681226
33	0xbbf49f82	-0.007465304
34	0x3b9dde73	0.004817778
35	0xbc6c06b6	-0.014405897
36	0xbc538d4f	-0.012912109
37	0x3cb83728	0.022487238
38	0xbbd5858b	-0.0065161637
39	0xbb0ec15a	-0.0021782727
40	0xbc958b12	-0.01825479
41	0x3bfedafc	0.00777757
42	0xbbfe86b1	-0.0077675213
43	0x3bc87b05	0.0061181807
44	0xbc88971d	-0.016673619
45	0x3cf00669	0.029299932
46	0xbb7ea18b	-0.0038853611
47	0xbb3e5a42	-0.0029045497
48	0xbba20697	-0.004944633
49	0xbc6be240	-0.014397204
50	0x3cb51393	0.02210406
51	0xbd072ae4	-0.032999888
52	0xbc06addd	-0.008220163
53	0x3c1e73c8	0.009671159
54	0xbc95c0cc	-0.01828041
55	0xbc88b481	-0.016687633
56	0x3b740c9b	0.0037238959
57	0xbc5fd40e	-0.013661398
58	0xbcae371a	-0.021266509
59	0xbcbbb5b5	-0.022913793
60	0x3c172968	0.009226181
61	0x3c906deb	0.017630538
62	0x3c3de3c6	0.01158995
63	0x3ca08948	0.01959671
64	0x3d2eb1ee	0.042650156
65	0x3b7097b0	0.0036711507
66	0x3da8d380	0.082434654
67	0x3d8d1445	0.06888632
68	0x3cf0d1b0	0.029396862
69	0xbcb5a11c	-0.02217155
70	0x3ced14d2	0.028940592
71	0xbc7f78ca	-0.015592763
72	0xbc4ef70b	-0.012632142
73	0xbc855a73	-0.016278481
74	0xbdde6066	-0.1085823
75	0x3c18f13e	0.00933486
76	0xbe0493a1	-0.12946941
77	0x3d4cccd0	0.050000012
78	0x3b8bffad	0.0042724223
79	0xbc7e5410	-0.015522972
80	0xbd5ba108	-0.05362037
81	0xbd9b6848	-0.075882494
82	0xbcad1ed9	-0.021132873
83	0xbcc99a20	-0.024609625
84	0xbd93e091	-0.07220567
85	0x3db561be	0.088565335
86	0xbc0f4f97	-0.008747003
87	0x3c1dde0e	0.0096354615
88	0x3c33dccd	0.010977936
89	0xbc2c850c	-0.010529768
90	0xbd314dcf	-0.043287095
91	0x3d5656d1	0.05232889
92	0xbd2e8b7d	-0.042613495
93	0xbdd4aa01	-0.10383988
94	0xbd93bbf5	-0.07213584
95	0x3d2ab679	0.041677926
96	0x3ce88219	0.028382348
97	0xbc132333	-0.00898056
98	0x3c42c9cb	0.0118889315
99	0x3caf5df5	0.021407107
100	0xbc315449	-0.010823318
101	0xbc938b9d	-0.018010909
102	0x3bb209f8	0.0054333173
103	0x3b35045a	0.0027621002
104	0xbbaa0622	-0.0051887194
105	0xbbc50809	-0.0060129208
106	0xbb0237af	-0.0019869616
107	0xbcdf1908	-0.027233616
108	0xbc040e79	-0.008060091
109	0x3c96cdfd	0.01840877
110	0xbc5ad92e	-0.013357444
111	0xbc87bc9b	-0.016569426
112	0xbc66fa8b	-0.01409782
113	0xbcc33d50	-0.023832947
114	0xbb1fcb00	-0.0024382472
115	0xbca104b9	-0.019655572
116	0xbcd91448	-0.026498929
117	0x3cbb08b9	0.022831308
118	0xbc9a2879	-0.018818127
119	0x3c440ad0	0.0119654685
120	0xbc324f25	-0.010883127
121	0xbbe0f086	-0.00686461
122	0xbbed33ee	-0.0072388565
123	0x3cf170d2	0.029472742
124	0x3b329f61	0.0027255642
125	0x3ccbd7dd	0.024883205
126	0x3b7d23a5	0.0038625982
127	0xbc9ffa20	-0.019528449
128	0xbd8a0918	-0.06740016
129	0x3d3fd290	0.046831667
130	0x3e1dc77d	0.1540813
131	0xbccd291f	-0.025044022
132	0x3cc27e43	0.023741847
133	0xbcfcbe87	-0.03085257
134	0x3a9d318c	0.0011992916
135	0xbe0e10d7	-0.13873611
136	0xbceb2b5b	-0.028707197
137	0xbcf54aeb	-0.02994295
138	0x3c86db6d	0.016462052
139	0x3d47aba2	0.048747666
140	0xbda64ef7	-0.0812053
141	0x3d8662cf	0.06561815
142	0x3d5a909a	0.05336056
143	0x3ce91e8d	0.02845695
144	0xbd593456	-0.053028427
145	0x3d44f42f	0.048084434
146	0x3c82437a	0.015901316
147	0xbe30fa2d	-0.17282934
148	0xbcece31c	-0.028916888
149	0xbd9b83af	-0.07593476
150	0xbd129ecd	-0.035795975
151	0xbe040c4e	-0.12895319
152	0x3d980f4d	0.074247934
153	0xbdbf1ae7	-0.09331303
154	0x3dd1f978	0.102526605
155	0xbcce9364	-0.025216766
156	0x3de00841	0.10939074
157	0xbe17d87b	-0.14828674
158	0x3e1bdde6	0.15221366
159	0xbdc2dfa1	-0.0951531
160	0x3c7b9d9e	0.015357403
161	0xbba82ea8	-0.005132515
162	0x3aa7aa9e	0.0012791937
163	0x3c05ac10	0.008158699
164	0xbc971cf1	-0.018446418
165	0x3d3f9392	0.046771593
166	0xbc903ae0	-0.017606199
167	0xbbbf4da1	-0.0058381115
168	0x3c7cf850	0.015440062
169	0x3c655398	0.013996981
170	0x3abf5e6f	0.0014600287
171	0x3d715bd3	0.05892546
172	0xbd0d75a2	-0.03453601
173	0xbb0fe2db	-0.0021955285
174	0x3cc528cc	0.024067305
175	0x3c62c565	0.013841008
176	0x3cfe7bc9	0.031064885
177	0x3ca0a014	0.019607581
178	0x3d0a0fd4	0.0337065
179	0xbccfc391	-0.025361808
180	0x3cb72f81	0.022361519
181	0xbbbb1e62	-0.005710409
182	0xba9144ad	-0.0011083089
183	0xbc99309f	-0.018699942
184	0x3c307739	0.010770612
185	0x3cd544e8	0.026033834
186	0x3b72ce02	0.003704906
187	0xbc8035eb	-0.01565071
188	0x3c1f862f	0.009736582
189	0xbcc9c2ba	-0.024628986
190	0x3da36b14	0.07979408
191	0xbc9eda60	-0.019391239
192	0x3db97c08	0.0905686
193	0x3c85870b	0.016299745
194	0x3e4a2349	0.19740023
195	0xbdaff5a5	-0.08591775
196	0xbb54323d	-0.0032378577
197	0xbe7efeaf	-0.24901842
198	0x3ce99ae0	0.028516233
199	0xbdc6d5ef	-0.09708773
200	0x3e20102a	0.15631166
201	0xbc1d2b4b	-0.009592841
202	0xbe27431c	-0.16334194
203	0xbe1231ae	-0.14276764
204	0x3b9d07f8	0.0047922097
205	0xbe1c6371	-0.15272309
206	0x3e134c5d	0.14384599
207	0xbe16b441	-0.14717199
208	0xbb3dfe8d	-0.0028990835
209	0x3d4e11f2	0.050310083
210	0xbd63d0d7	-0.055619087
211	0xbdd8387b	-0.10557648
212	0xbddfba0a	-0.10924156
213	0x3df5090c	0.11964616
214	0xbdb1cbc4	-0.08681443
215	0x3e06d7cf	0.13168262
216	0xbd704ec2	-0.05866886
217	0x3d4c68c3	0.049904596
218	0xbdb875dc	-0.09006855
219	0x3db3a2f4	0.08771315
220	0xbd150970	-0.036385953
221	0x3e2fc220	0.17163897
222	0xbbef840d	-0.007309443
223	0xbd031a5c	-0.03200756
224	0xbde0f42c	-0.10984072
225	0xbe0bc30d	-0.13648625
226	0x3d84237a	0.06452079
227	0xbe65469c	-0.22390217
228	0x3dbdc05a	0.09265204
229	0x3d5cda7b	0.053919297
230	0xbde2745e	-0.110573515
231	0x3dcaf50c	0.0991002
232	0x3d8ae160	0.06781268
233	0x3e626df0	0.2211225
234	0xbb46064e	-0.003021616
235	0xbc970b18	-0.018437907
236	0x3d9f4ccc	0.0777832
237	0x3e3e07dc	0.18557686
238	0xbddbbc1d	-0.10729239
239	0xbcbdce36	-0.023169618
240	0x3b922d32	0.004460954
241	0xbdd90ba6	-0.10597925
242	0xbdfeb41d	-0.12436698
243	0xbcd79714	-0.026317157
244	0xbe131b8a	-0.14365974
245	0x3e15dc4b	0.14634816
246	0x3d3af542	0.045644052
247	0x3d699b6e	0.057032995
248	0x3c276b16	0.010218402
249	0xbd148d0f	-0.036267336
250	0xbb96e915	-0.0046054223
251	0x3db8b857	0.09019535
252	0x3b2e68f9	0.0026612862
253	0x3d5d4757	0.054023113
254	0xbd57aecd	-0.052656937
255	0x3e49010b	0.19629304

transformer.transformer_encoder.layers.0.self_attn.out_proj.bias f4 [32]
0	0x3d9afa18	0.07567233
1	0x3d09b805	0.03362276
2	0x3d1d2f20	0.03837502
3	0xbc2b99f2	-0.010473715
4	0xbe091f86	-0.13390931
5	0xbc55359c	-0.01301327
6	0xbe26ef25	-0.16302164
7	0xbd99fd9f	-0.075190775
8	0xbca43e2e	-0.02004918
9	0xbc43f1da	-0.011959517
10	0x3c684f02	0.014178993
11	0xbdfb5d95	-0.12273709
12	0xbe0d5176	-0.13800606
13	0x3d0a67cc	0.033790395
14	0x3c7bf22e	0.015377564
15	0x3d9d0916	0.07667749
16	0xbd5a75d5	-0.05333503
17	0xbd9afaa7	-0.075673394
18	0xbde0c53f	-0.10975122
19	0x3ddcfdf8	0.10790628
20	0xbda57dd2	-0.08080639
21	0x3c9c212b	0.019058784
22	0xbc3d67e2	-0.011560412
23	0x3d37a34b	0.044833463
24	0x3bfc4bcd	0.007699466
25	0x3c899686	0.016795408
26	0x3c892873	0.01674292
27	0x3bbb1677	0.005709465
28	0xbcb6e886	-0.022327673
29	0xbd2cb7a7	-0.042167332
30	0x3d866d37	0.065638
31	0xbda81b22	-0.082083

transformer.transformer_encoder.layers.0.linear1.weight f4 [64, 32]
0	0x3ce0bd98	0.027434155
1	0xbd9f28a1	-0.07771421
2	0x3d4ca67b	0.049963456
3	0x3e1f747c	0.15571779
4	0xbcc260f4	-0.023727871
5	0xbd402aa4	-0.046915665
6	0x3d9d1917	0.07670801
7	0x3dc99292	0.09842409
8	0xbd8f63b8	-0.07001442
9	0x3e39366d	0.18087168
10	0x3de2ba78	0.11070722
11	0xbd1d348e	-0.0383802
12	0xbe092625	-0.13393457
13	0xbe1b34aa	-0.15156808
14	0x3e00e161	0.12585975
15	0x3d84c4d8	0.064828575
16	0x3dae2521	0.085031755
17	0x3b50af80	0.0031842887
18	0x3dae35d7	0.08506363
19	0xbb3bb469	-0.0028641468
20	0x3e065d40	0.1312151
21	0xbd4a689b	-0.049416166
22	0x3d4df119	0.050278757
23	0xbdaf0e63	-0.08547666
24	0x3d9fdbad	0.07805572
25	0xbe20523b	-0.15656368
26	0x3d648b05	0.05579664
27	0x3cc1d711	0.023662122
28	0xbbf88824	-0.0075845886
29	0xbe04dc84	-0.12974745
30	0x3c492049	0.012275764
31	0x3e149262	0.14508966
32	0xbe8beca5	-0.27328983
33	0xbd932cb3	-0.0718626
34	0xbde0e032	-0.10980262
35	0x3dfcd324	0.123449594
36	0x3d5a47ce	0.053291135
37	0xbf26b125	-0.6511405
38	0x3e1b29f1	0.15152718
39	0xbb87d20f	-0.004144914
40	0x3eb694b8	0.35660338
41	0x3f57ece7	0.8434586
42	0xbe494e2e	-0.1965873
43	0x3df9be05	0.121944465
44	0x3e2d6f92	0.16937092
45	0xbead8f04	-0.33898175
46	0x3f21ea3c	0.6324804
47	0xbc5d2b18	-0.013499044
48	0x3ed4dfee	0.41577095
49	0x3d7f8c7f	0.062389847
50	0xbce18d62	-0.027533237
51	0x3e70d6a3	0.23519377
52	0xbe47c0ff	-0.19507216
53	0x3db5c185	0.088748015
54	0x3e7237bf	0.23654078
55	0x3d88a0e9	0.06671316
56	0xbd03f098	-0.03221187
57	0x3d336b48	0.043803483
58	0xbe6d788c	-0.23190516
59	0xbdd6c299	-0.10486335
60	0x3e5f2fe8	0.21795619
61	0xbd164a01	-0.03669167
62	0xbf358980	-0.70912933
63	0x3e0c871c	0.13723415
64	0xbe17d921	-0.14828922
65	0xbd28508a	-0.041092433
66	0x3d0e8112	0.03479106
67	0x3f29e1b2	0.6636001
68	0x3db45440	0.08805132
69	0x3deddbad	0.116141655
70	0x3c63c36e	0.013901575
71	0xbd4e97ca	-0.050437726
72	0xbde7dafb	-0.11321064
73	0x3dbb4b32	0.09145202
74	0xbf3d022b	-0.73831433
75	0x3c36a974	0.011148799
76	0x3d8429e9	0.06453306
77	0xbe122e8d	-0.1427557
78	0x3e777c3c	0.24168485
79	0xbcb65f92	-0.022262368
80	0xbdd5a937	-0.10432666
81	0x3e21f4b8	0.15816009
82	0x3cbc7f6f	0.023009984
83	0x3dc192b1	0.09451807
84	0x3d9d3b95	0.0767738
85	0xbe8704bc	-0.263708
86	0x3d923026	0.0713809
87	0x3d18409f	0.037171002
88	0x3f0decfa	0.5543972
89	0xbf781045	-0.96899825
90	0xbe5cb372	-0.21552828
91	0x3e4d6764	0.20058972
92	0xbcbd9fae	-0.02314743
93	0xbcc210d4	-0.023689665
94	0xbeb84037	-0.35986492
95	0xbe193fe5	-0.1496578
96	0xbf138250	-0.57620716
97	0xbdc6defe	-0.09710501
98	0xbe8feb08	-0.28109002
99	0x3e3e3e0d	0.18578358
100	0x3d8b7b44	0.068106204
101	0xbf40c335	-0.7529786
102	0x3d133678	0.035940617
103	0xbd442f88	-0.04789689
104	0x3e7de371	0.24793793
105	0x3f1b9743	0.6077768
106	0x3d09a3d4	0.033603504
107	0x3ee55051	0.4478784
108	0x3e3b63bb	0.18299763
109	0xbec9db33	-0.39425048
110	0x3e71bd74	0.23607427
111	0xbe44e06e	-0.19226238
112	0x3f215843	0.630253
113	0xbe532c1d	-0.20622297
114	0x3e6f7ce1	0.23387481
115	0xbe9d7956	-0.30756634
116	0x3e56a9bf	0.2096319
117	0xbe784da7	-0.24248372
118	0xbe087928	-0.13327467
119	0xbe26601c	-0.162476
120	0x3d5a8d0f	0.05335718
121	0x3e1286d5	0.14309247
122	0xbe5bf976	-0.2148188
123	0x3cef536f	0.029214589
124	0x3eed265f	0.46318337
125	0x3d230b03	0.039805423
126	0xbeadd6df	-0.33952996
127	0xbe1c676c	-0.15273827
128	0xbe93bb5e	-0.28853887
129	0xbec1eb97	-0.37875053
130	0xbf0ba6b4	-0.54551244
131	0x3e01fd52	0.1269429
132	0xbb608028	-0.0034256075
133	0xbecc3a99	-0.39888456
134	0x3e084466	0.13307342
135	0xbbc92c7d	-0.0061393366
136	0x3efbd8fb	0.4918898
137	0x3e0a9a8d	0.13535519
138	0x3e40cb07	0.18827449
139	0x3ed0cc04	0.40780652
140	0xbd1c9a88	-0.03823331
141	0x3d72d584	0.059285656
142	0xbe806baf	-0.25082156
143	0xbeae1498	-0.34000087
144	0x3e4fc37e	0.20289418
145	0xbd122f37	-0.03568956
146	0x3d5422bb	0.051790934
147	0xbeb6aea7	-0.35680124
148	0x3f85bff5	1.0449206
149	0x3beac759	0.0071648774
150	0xbd4e3b74	-0.050349668
151	0xbe9bedbb	-0.3045481
152	0xbca23518	-0.019800708
153	0x3ead6d37	0.33872387
154	0xbd2373fb	-0.03990553
155	0x3eb2f453	0.3495203
156	0x3eba3f8d	0.3637661
157	0x3dc5ab49	0.09651811
158	0x3dd910b8	0.10598892
159	0xbc395b68	-0.011313297
160	0xbe6b0153	-0.22949724
161	0xbc05710d	-0.008144629
162	0x3d8cc41b	0.06873342
163	0x3e85e127	0.2614834
164	0x3ca891bf	0.02057731
165	0xbdfadbc2	-0.12248947
166	0xbd0d8bfa	-0.03455732
167	0x3dc0bdff	0.09411239
168	0x3db7f47d	0.08982179
169	0x3e12a0eb	0.14319198
170	0xbd295c83	-0.04134799
171	0x3e3f9e70	0.18712783
172	0x3e216397	0.15760647
173	0xbe4f959c	-0.20271915
174	0x3e8aa1b1	0.27076486
175	0xbd2358a3	-0.039879452
176	0x3cc32dda	0.023825575
177	0xbe46eff8	-0.19427478
178	0xbdb90bf0	-0.0903548
179	0x3d19155e	0.037373893
180	0x3e226518	0.15858877
181	0xbe907e02	-0.28221136
182	0xbe2ae209	-0.16687788
183	0xbda1a36f	-0.078925006
184	0x3e241033	0.16021805
185	0x3d6d7982	0.057977207
186	0xbe088493	-0.13331823
187	0x3d809487	0.06278329
188	0x3e708856	0.23489508
189	0xbe246a5a	-0.16056195
190	0xbd2a9190	-0.041642725
191	0xbcedc463	-0.029024309
192	0xbe0362e4	-0.12830693
193	0x3db2a907	0.08723646
194	0x3eb2fec3	0.34959993
195	0x3f33e76a	0.70274985
196	0xbd94816c	-0.07251248
197	0x3e0773ca	0.13227764
198	0xbde5f8d9	-0.112291045
199	0xbd100e3b	-0.03516982
200	0xbdb62a54	-0.08894792
201	0xbd6b3dd3	-0.057432007
202	0xbf217bfd	-0.63079816
203	0x3d7845a9	0.060613308
204	0x3e48800e	0.19580099
205	0x3d5e2153	0.054231
206	0x3ee7688a	0.45196944
207	0x3e2f86af	0.17141221
208	0x3e2f7408	0.17134106
209	0xbdf919bd	-0.12163112
210	0xbd231b2c	-0.039820835
211	0x3e5dc484	0.21656996
212	0xbdb6217f	-0.088931076
213	0xbc8024a1	-0.015642466
214	0xbd244f18	-0.040114492
215	0xbcbbc37f	-0.022920368
216	0x3f0933bb	0.5359456
217	0xbf8b4ae6	-1.0882232
218	0x3d7fdda1	0.06246722
219	0x3eba2590	0.36356783
220	0xbe7ec918	-0.24881399
221	0xbe9dbf85	-0.3081018
222	0xbdd5e72a	-0.10444482
223	0xbd84ecf2	-0.06490506
224	0xbe023d13	-0.1271861
225	0xbe21d041	-0.15802099
226	0xbd0493d4	-0.032367542
227	0x3d67ef99	0.056624983
228	0x3e2b578a	0.16732612
229	0x3d05ca8d	0.03266387
230	0x3e67e973	0.22647648
231	0xbd800ae1	-0.06252075
232	0x3e1655ad	0.1468112
233	0x3d8bdff4	0.06829825
234	0xbce9d4b9	-0.028543817
235	0xbe03e5d8	-0.12880647
236	0x3df8ab5f	0.121420614
237	0x3d7e7c9b	0.06213055
238	0xbd327e18	-0.043577284
239	0x3d90da4b	0.07072886
240	0x3cc92c5d	0.024557287
241	0x3d9571d5	0.07297102
242	0x3e22c6fa	0.15896216
243	0xbcbda714	-0.023150958
244	0xbba9922e	-0.0051748967
245	0x3c0fe916	0.008783599
246	0xbb45961a	-0.0030149282
247	0xbc5e4bb3	-0.013567853
248	0x3e63cf3c	0.22247022
249	0xbcb2bb55	-0.021817842
250	0xbdf11841	-0.11772204
251	0xbc9452fd	-0.018105978
252	0x3d620e71	0.055189554
253	0x3c9309ed	0.017949069
254	0xbcaabb86	-0.020841371
255	0x3e1fddbb	0.15611927

transformer.transformer_encoder.layers.0.linear1.bias f4 [64]
0	0x3dd07b76	0.10179798
1	0xbde61872	-0.11235131
2	0x3de842cd	0.11340866
3	0xbe26a068	-0.16272128
4	0xbd8ad5d1	-0.067790635
5	0xbe0fc10c	-0.14038485
6	0x3e23aac3	0.15983109
7	0xbcf06b3c	-0.029348008
8	0xbe056a83	-0.13028912
9	0xbe4479a9	-0.19187035
10	0xbe26a2ee	-0.1627309
11	0x3dc4db80	0.09612179
12	0x3bef46ed	0.007302156
13	0x3e6f674e	0.23379251
14	0xbdbac5df	-0.09119772
15	0xbe756abb	-0.23966496
16	0xbb3cb9b5	-0.0028797213
17	0xbeb402b0	-0.351583
18	0xbe4f0464	-0.20216519
19	0xbe89a164	-0.26880944
20	0x3d966016	0.07342546
21	0x3daf3630	0.08555257
22	0x3ce3a147	0.027786864
23	0x3e7d81f0	0.24756598
24	0x3d0529f9	0.03251073
25	0xbdbf0762	-0.0932758
26	0xbe89d75e	-0.26922125
27	0xbd8ccae8	-0.06874639
28	0xbe63f1c5	-0.22260197
29	0xbe972347	-0.29519102
30	0xbd274a2a	-0.040842213
31	0xbe9fc70a	-0.31206542
32	0x3e367304	0.17817312
33	0xbe2127d1	-0.15737845
34	0xbed8b341	-0.4232426
35	0xbe4957b1	-0.19662358
36	0xbe090b1f	-0.13383149
37	0x3d97e635	0.074169554
38	0xbde56282	-0.112004295
39	0xbe06a264	-0.13147885
40	0xbe58c073	-0.21167164
41	0xbe7bb762	-0.24581674
42	0xbcb4fdb7	-0.022093637
43	0xbe302b09	-0.17203917
44	0xbcd52c41	-0.026022078
45	0x3e469f83	0.19396786
46	0xbe34362e	-0.17598793
47	0xbd91d792	-0.07121195
48	0xbe916f89	-0.28405407
49	0xbe532560	-0.20619726
50	0xbc3ae152	-0.01140626
51	0xbe3bd480	-0.18342781
52	0xbe1f34f3	-0.15547542
53	0xbec8d473	-0.39224586
54	0xbe92a597	-0.2864196
55	0xbe45d729	-0.19320358
56	0xbe51c213	-0.2048419
57	0xbdf9597f	-0.12175273
58	0xbd7aceba	-0.061232306
59	0xbe63560f	-0.22200797
60	0xbe5dfb67	-0.21677934
61	0xbeb7d14e	-0.35901874
62	0xbeb5c02c	-0.35498178
63	0x3da70ee8	0.0815714

transformer.transformer_encoder.layers.0.linear2.weight f4 [32, 64]
0	0xbdaaff69	-0.08349497
1	0x3cff76a0	0.031184494
2	0xbe39deaf	-0.18151353
3	0xbd9c75e3	-0.076396726
4	0x3df22fac	0.11825499
5	0xbda01517	-0.078165226
6	0xbef22903	-0.47296914
7	0x3c408831	0.011751221
8	0xbef83aba	-0.48482305
9	0xbecfab07	-0.4056017
10	0xbeea24c3	-0.45731172
11	0xbec4ccc3	-0.3843747
12	0xbeba5134	-0.36390078
13	0x3da98c4d	0.082787134
14	0x3bff4c49	0.0077910763
15	0xbe71e178	-0.23621166
16	0xbefbfcea	-0.49216396
17	0x3d20d087	0.039261367
18	0xbda48faa	-0.08035214
19	0x3ded8b99	0.11598892
20	0xbe867853	-0.26263675
21	0xbf4a0ce5	-0.78925925
22	0xbf321e80	-0.6957779
23	0xbd1bd919	-0.038048837
24	0xbe1ad4b6	-0.15120205
25	0x3cc87231	0.024468513
26	0xbde5a88d	-0.11213789
27	0x3e3d9ba4	0.18516403
28	0xbdcf7e93	-0.10131564
29	0x3e133fbb	0.1437978
30	0x3cee3d91	0.029082092
31	0x3e3e3f3f	0.18578814
32	0x3e6d523d	0.23175903
33	0xbdc01628	-0.09379226
34	0xbdd06510	-0.10175526
35	0xbe1cfeff	-0.15331648
36	0x3bff05b4	0.0077826623
37	0xbf1dfbf6	-0.61712587
38	0xbf7931d0	-0.9734163
39	0xbed40b02	-0.41414648
40	0x3e02a65d	0.12758775
41	0xbd963007	-0.07333379
42	0x3e7212df	0.23640011
43	0x3d144a5e	0.036203735
44	0xbe24c159	-0.16089381
45	0xbe98adef	-0.298202
46	0xbeb8216c	-0.35963
47	0xbf63e2eb	-0.89018124
48	0xbc953af3	-0.018216586
49	0xbee16563	-0.44022664
50	0x3e2bdd68	0.16783679
51	0xbde2fa47	-0.11082893
52	0xbc53a8a0	-0.012918621
53	0xbe27d815	-0.16391023
54	0xbea92d71	-0.33042482
55	0xbe280477	-0.16407953
56	0xbdccd08e	-0.10000716
57	0xbe0c084f	-0.13675044
58	0xbf42474d	-0.75890046
59	0xbda58920	-0.08082795
60	0xbef070a5	-0.4696094
61	0xbc1219cf	-0.008917286
62	0xbdf8f61d	-0.121563174
63	0xbed138fe	-0.40863794
64	0x3d92c76c	0.07166943
65	0x3e092c1b	0.13395731
66	0xbdf3776b	-0.118880115
67	0xbef127d9	-0.47100714
68	0xbe1ec810	-0.15506005
69	0x3c706d77	0.014674536
70	0x3ded0c11	0.11574567
71	0xbd064e33	-0.03278942
72	0xbf0d2927	-0.5514092
73	0xbf1dc25d	-0.616247
74	0xbe6fccbc	-0.23417944
75	0xbdffbf30	-0.12487638
76	0xbed42732	-0.41436154
77	0x3dcd1bd8	0.100150764
78	0xbd0d9993	-0.034570288
79	0xbef5c32a	-0.4800046
80	0xbea79a42	-0.32734877
81	0xbded0ea1	-0.11575056
82	0x3d2d6d48	0.042340547
83	0x39c5962f	0.00037686664
84	0xbe0e7352	-0.13911179
85	0xbf0179ff	-0.50576776
86	0xbeb394ad	-0.35074368
87	0x3d298c48	0.04139355
88	0xbda1b531	-0.07895888
89	0x3d488f79	0.04896495
90	0xbd16e15b	-0.03683601
91	0xbdba4a39	-0.09096188
92	0x3ccdacc3	0.025106793
93	0x3e90aea1	0.2825823
94	0xbd0d0f56	-0.034438454
95	0x3cc33ef6	0.023833733
96	0xbe8420d3	-0.25806293
97	0xbe30db88	-0.17271245
98	0x3d2cec32	0.04221744
99	0xbd29c9ff	-0.041452404
100	0x3dac2421	0.084053285
101	0xbf113a51	-0.5672961
102	0xbefff197	-0.49989006
103	0xbd60137c	-0.05470608
104	0xbe11ce28	-0.14238799
105	0xbea00d06	-0.31259936
106	0x3e98b194	0.2982298
107	0xbe188878	-0.14895809
108	0x3cd077fb	0.025447836
109	0xbd8d52d8	-0.06900567
110	0xbe709ff0	-0.23498511
111	0xbeda05bb	-0.42582497
112	0x3ba0941e	0.0049004694
113	0xbf4128a1	-0.7545262
114	0xbef9cd99	-0.4878967
115	0xbe4e80bf	-0.201663
116	0x3dd58fa9	0.104277916
117	0x3e7bb119	0.24579276
118	0xbc44315f	-0.011974662
119	0xbc7bd4d5	-0.015370567
120	0xbe83bf03	-0.25731668
121	0xbdbc6d95	-0.092005886
122	0xbe9fa67f	-0.31181714
123	0xbb012966	-0.0019708513
124	0xbe9821b7	-0.29713222
125	0x3e1f91bd	0.15582938
126	0x3e0736d6	0.13204512
127	0xbe2dc4a0	-0.16969538
128	0x3c6ace6c	0.014331441
129	0xbf2fc403	-0.68658465
130	0x3d083f33	0.033263396
131	0x3e4cae85	0.19988449
132	0x3ed139dd	0.4086446
133	0xbd60e099	-0.054901693
134	0xbb69a958	-0.0035653915
135	0xbdc8af19	-0.09799022
136	0xbe3fde57	-0.1873716
137	0x3f914929	1.1350452
138	0x3f5ade69	0.8549562
139	0x3fa9bbc0	1.3260422
140	0x3f73563b	0.9505345
141	0x3ec138ba	0.3773859
142	0xbe107e23	-0.14110617
143	0xbe0de8ce	-0.13858339
144	0x3f9c1500	1.2193909
145	0x3ea196a8	0.31560254
146	0xbf4de2fe	-0.8042449
147	0xbdbfea2c	-0.093708366
148	0xbf3beac9	-0.7340513
149	0x3f60c30a	0.87797606
150	0x3f73bdc1	0.95211416
151	0x3e85cb79	0.261318
152	0xbf05adcd	-0.52218324
153	0x3dd90c57	0.10598057
154	0xbf3e09a2	-0.7423345
155	0x3dcefed9	0.10107202
156	0xbd976bd7	-0.07393616
157	0x3d0419d4	0.032251194
158	0x3dc3c753	0.095595025
159	0x3e5428f3	0.20718746
160	0xbdd5379b	-0.104109965
161	0xbe019909	-0.12656035
162	0x3f6300e4	0.88673234
163	0xbdde0bb9	-0.1084208
164	0x3c81f61a	0.01586442
165	0x3f2ff9c2	0.68740475
166	0x3f0b3792	0.5438167
167	0xbd82b1c4	-0.06381562
168	0x3f2af866	0.66785276
169	0x3dac2bd0	0.08406794
170	0x3d14c04e	0.03631621
171	0xbdaa181e	-0.08305381
172	0x3de72b55	0.11287562
173	0x3df86d71	0.12130249
174	0x3f489f6f	0.78368276
175	0x3f2b9354	0.6702168
176	0x3e28ce7a	0.16485015
177	0x3fb97c2b	1.4491018
178	0x3d26e09d	0.04074155
179	0x3f21b98d	0.63173753
180	0x3d85be82	0.06530477
181	0x3eadaa76	0.33919114
182	0x3efa089e	0.488347
183	0xbf28c08b	-0.659188
184	0xbc9f18c8	-0.019420996
185	0x3eab7c7a	0.33493406
186	0xbeb2e1cb	-0.3493789
187	0x3e8e9411	0.2784734
188	0x3c24f0cf	0.010067179
189	0x3f17fb45	0.5936778
190	0xbee21725	-0.44158283
191	0xbe665bcb	-0.22495954
192	0x3d40f440	0.047107935
193	0xbe291b12	-0.16514233
194	0xbda6dc9b	-0.08147546
195	0xbe471cda	-0.194446
196	0x3f907cfe	1.1288145
197	0xbe578fb8	-0.21050918
198	0xbe189590	-0.14900804
199	0x3e65eb55	0.22453053
200	0x3ee11cb0	0.439672
201	0x3f112cb6	0.5670885
202	0x3f3888cc	0.72083735
203	0x3e4cfa5d	0.20017381
204	0x3ebee90e	0.37287182
205	0xbe0a8c52	-0.1353009
206	0x3e3d5c47	0.18492232
207	0x3f15ffca	0.5859343
208	0x3e8d3059	0.2757595
209	0x3e278677	0.16359888
210	0xbe2ea096	-0.17053446
211	0x3c29109d	0.010318902
212	0xbdff8074	-0.12475672
213	0x3ed6ef54	0.41979468
214	0x3f1be651	0.6089831
215	0x3d0a0e71	0.03370518
216	0x3dd429be	0.10359524
217	0x3ca48469	0.02008267
218	0xbe70720d	-0.23481007
219	0x3e003a6b	0.12522285
220	0x3ddf1385	0.10892395
221	0x3ebccca0	0.36874866
222	0xbd84e091	-0.06488145
223	0x3f1a89f2	0.6036674
224	0xbcfa0fef	-0.030525176
225	0x3e37801b	0.17919962
226	0x3ed03596	0.40665883
227	0x3e489641	0.19588567
228	0x3e079424	0.13240105
229	0x3e25e900	0.16202164
230	0x3e97d219	0.2965248
231	0xbebedcde	-0.37277883
232	0x3ea4a225	0.32154956
233	0x3e9c64df	0.3054571
234	0x3e4f7a0a	0.20261398
235	0xbe350d43	-0.1768084
236	0xbe062d51	-0.13103224
237	0xbca8b8bc	-0.0205959
238	0x3ea95d73	0.3307911
239	0x3e9f47a7	0.31109354
240	0x3d83bb36	0.06432192
241	0x3f4d9b15	0.8031476
242	0x3f1b3ac6	0.60636556
243	0x3eecfd4c	0.46287
244	0x3e3112e6	0.17292365
245	0x3eca0251	0.39454892
246	0x3e742cfc	0.23845285
247	0xbe8deabe	-0.27718157
248	0xbeb3a5f6	-0.35087556
249	0x3df42d9a	0.1192276
250	0x3e943710	0.2894826
251	0x3d846a34	0.06465569
252	0x3e0feb64	0.14054638
253	0x3e33bf7d	0.17553516
254	0xbd12c3c3	-0.035831224
255	0xbe8f58b7	-0.27997372

transformer.transformer_encoder.layers.0.linear2.bias f4 [32]
0	0xbd9bdceb	-0.07610496
1	0x3e9ca312	0.30593163
2	0x3da0c136	0.07849352
3	0x3d6524f6	0.05594345
4	0xbdba4e14	-0.090969235
5	0x3cb946a7	0.022616697
6	0x3c2cda6a	0.010550121
7	0x3e48cfb6	0.19610485
8	0x3c588201	0.013214589
9	0x3dc2d3bd	0.09513042
10	0x3dee79a9	0.116442986
11	0x3ec10ae6	0.37703627
12	0xbe480e90	-0.19536805
13	0xbddec900	-0.108781815
14	0xbe28afc1	-0.16473295
15	0xbde51d83	-0.111872695
16	0x3c488039	0.012237602
17	0x3d787c29	0.060665283
18	0x3d8fec38	0.07027477
19	0x3d08a382	0.03335906
20	0x3dc34f78	0.09536642
21	0xbd8e109b	-0.06936761
22	0x3c90a287	0.017655624
23	0x3d9cd092	0.07656969
24	0xbd0815a9	-0.03322378
25	0x3d88fac2	0.06688453
26	0xbd7be590	-0.061498225
27	0xbe0be7ce	-0.13662645
28	0x3eb71bea	0.35763484
29	0x3cf92840	0.0304147
30	0x3e0e0bbd	0.13871665
31	0xbe17dbf8	-0.14830005

transformer.transformer_encoder.layers.0.norm1.weight f4 [32]
0	0x3eff4659	0.49858359
1	0x3fba54a0	1.4557076
2	0x3f727ce8	0.9472184
3	0x3fac3983	1.3455051
4	0x3e4fd900	0.20297623
5	0x3faf5015	1.3696314
6	0x3e3b2033	0.18274002
7	0x3deca37a	0.11554618
8	0x3f5e6939	0.8687931
9	0x3fa381d0	1.2773991
10	0x3fb35075	1.4008929
11	0x3ecb43d5	0.3970019
12	0x3e08a78b	0.13345163
13	0x3f7ecfef	0.9953603
14	0x3f8e3750	1.111063
15	0x3f0f7906	0.5604404
16	0x3f336f31	0.7009154
17	0x3e17f684	0.14840132
18	0x3e2fb95b	0.17160551
19	0x3f8e073d	1.1095959
20	0x3f34f1a0	0.7068119
21	0x3e544aba	0.20731631
22	0x3d41348d	0.047169257
23	0x3f6591c3	0.8967554
24	0x3f999bae	1.2000635
25	0x3ff723c5	1.9307791
26	0x3e972e06	0.295273
27	0x3fb27ad1	1.394373
28	0x3f6eb057	0.93237823
29	0x3d944dc3	0.07241394
30	0x3f932ce1	1.1498071
31	0x3e0655c0	0.13118649

transformer.transformer_encoder.layers.0.norm1.bias f4 [32]
0	0xbdcd650c	-0.10029039
1	0xbddb8f65	-0.1072071
2	0x3dedcbbc	0.11611125
3	0x3e4f99a0	0.20273447
4	0x3c57cd2d	0.013171476
5	0x3d17a6d4	0.037024334
6	0x3d34b14c	0.044114396
7	0x3ca66602	0.020312313
8	0xbdf4e832	-0.1195835
9	0x3d457fc8	0.048217565
10	0xbe74f5d1	-0.23921897
11	0x3d4baeb9	0.049727175
12	0x3c955c41	0.018232467
13	0x3dd356c6	0.10319285
14	0x3daaadca	0.08333929
15	0x3b22100b	0.00247288
16	0xbca2b5d1	-0.019862087
17	0x3c83cc8e	0.01608875
18	0x3d04511a	0.032303907
19	0xbe0d9c77	-0.13829218
20	0x3de47265	0.111546315
21	0xbbcf71c7	-0.006330702
22	0x3c6f99f0	0.014624104
23	0xbe5f7044	-0.2182017
24	0x3e837ae8	0.25679708
25	0xbe11b8c1	-0.14230634
26	0x3d73f47e	0.059559338
27	0x3e2a8f40	0.16656208
28	0x3cb00f01	0.02149153
29	0x3cb1f661	0.021723928
30	0xbdd45804	-0.1036835
31	0xbb8f1c70	-0.0043674037

transformer.transformer_encoder.layers.0.norm2.weight f4 [32]
0	0x3f4b07b0	0.79308605
1	0x3f9a4d10	1.2054768
2	0x3f3fe1fd	0.74954206
3	0x3f83f714	1.0309777
4	0x3eecdc2d	0.4626173
5	0x3f8929e2	1.0715907
6	0x3f40af93	0.75267905
7	0x3f763ffb	0.96191376
8	0x3f58d187	0.84694713
9	0x3f59995c	0.8499963
10	0x3f8a7d91	1.081957
11	0x3f54c12f	0.83107275
12	0x3f0897aa	0.5335642
13	0x3f79aca5	0.9752906
14	0x3f88626b	1.0655035
15	0x3f755289	0.95829064
16	0x3f4cdc1b	0.80023354
17	0x3f40fa98	0.75382376
18	0x3f383cde	0.71967876
19	0x3f9e0e90	1.2348194
20	0x3f4f4788	0.80968523
21	0x3f13a261	0.57669646
22	0x3f7a5a05	0.9779361
23	0x3f3c6870	0.7359686
24	0x3f6bc641	0.92099386
25	0x3f1da1e8	0.61575174
26	0x3f2774db	0.6541268
27	0x3f870038	1.0546942
28	0x3e9fa756	0.31182355
29	0x3f84ff5e	1.0390432
30	0x3f86e806	1.0539558
31	0x3f2c6839	0.6734653

transformer.transformer_encoder.layers.0.norm2.bias f4 [32]
0	0xbe3d1f0a	-0.18468872
1	0xbe0a231d	-0.13489957
2	0xbbd1e421	-0.006405369
3	0x3db36942	0.08760311
4	0xbcda907c	-0.026680224
5	0xbe21a921	-0.15787174
6	0x3e5c3789	0.2150556
7	0x3e6e9cc3	0.23301987
8	0x3dee32df	0.11630797
9	0x3e05c2c6	0.13062581
10	0xbdb4eb8f	-0.08833992
11	0x3d06da5c	0.032923087
12	0xbcd2248c	-0.025652193
13	0x3e4124c2	0.18861678
14	0x3e49f495	0.19722207
15	0xbdfdb2ff	-0.123876564
16	0x3e6b4729	0.22976364
17	0xbe15ceb4	-0.14629632
18	0x3e740748	0.23830903
19	0xbd83a8ea	-0.06428702
20	0x3d6fbe18	0.058530897
21	0xbd913489	-0.070900984
22	0x3c6cc775	0.014451851
23	0xbdf4ffa3	-0.11962821
24	0x3e631780	0.22176933
25	0xbe3efb26	-0.18650493
26	0xbe6962f7	-0.22791658
27	0x3e3d321f	0.18476151
28	0x3cc8f31a	0.024529982
29	0x3e698d97	0.22807918
30	0xbe9d0e01	-0.30674747
31	0x3e4e61b7	0.20154463

net.0.weight f4 [64, 32]
0	0x3d6c344c	0.05766706
1	0xbeafcdd8	-0.34336734
2	0x3d26f4a9	0.04076067
3	0x3e0c782f	0.13717721
4	0x3da7dad4	0.08196035
5	0xbc2de74d	-0.010614228
6	0xbe3bc955	-0.18338521
7	0x3e14d869	0.14535679
8	0x3cdb5dc7	0.026778115
9	0x3e8288d6	0.25495023
10	0x3db0843e	0.08618973
11	0xbd42b839	-0.04753897
12	0xbe301cfd	-0.17198558
13	0x3e216c84	0.15764052
14	0x3e030955	0.12796529
15	0x3da1aa8a	0.07893856
16	0xbe30a663	-0.17250971
17	0x3d8ed593	0.0697433
18	0xbe5af0ac	-0.21380872
19	0xbc522b6b	-0.012827734
20	0xbe3c2fe0	-0.18377638
21	0xbe57737b	-0.21040146
22	0x3e51c833	0.20486526
23	0xbe7492e2	-0.23884156
24	0xbda8994e	-0.082323655
25	0x3e5c359f	0.2150483
26	0xbd2f3c46	-0.04278209
27	0x3ec40484	0.38284695
28	0xbcec428c	-0.028840326
29	0xbe1e413b	-0.15454571
30	0xbd144f54	-0.036208466
31	0xbe1e6f48	-0.15472138
32	0xbe20eea6	-0.15716037
33	0x3e77ba27	0.24192105
34	0x3e614011	0.21997096
35	0xbe1da972	-0.1539667
36	0xbdd949dc	-0.10609791
37	0xbda585ee	-0.08082186
38	0xbdae7eaa	-0.08520253
39	0x3c9f408c	0.019439958
40	0xbe8316ca	-0.25603324
41	0xbdcea28c	-0.10089597
42	0x3e85a060	0.2609892
43	0x3e885a5f	0.26631448
44	0xbde81ca0	-0.11333585
45	0x3d228698	0.03967914
46	0xbf1686e5	-0.5879958
47	0xba66401f	-0.00087833585
48	0xbec1a4ec	-0.37821138
49	0x3f03ec12	0.5153209
50	0xbe2019d6	-0.15634856
51	0x3ec3d889	0.3825114
52	0x3e3363d7	0.17518555
53	0xbd4c01e4	-0.04980649
54	0x3e83ff4b	0.2578071
55	0x3da187e3	0.078872465
56	0xbf00ab3e	-0.50261295
57	0x3eccaf2b	0.39977393
58	0x3e1d69a6	0.15372333
59	0xbeb625e4	-0.35575783
60	0xbda8a2df	-0.0823419
61	0xbe906308	-0.28200555
62	0x3ed334d8	0.41251254
63	0xbf00f2c1	-0.50370413
64	0x3e37a3ff	0.17933653
65	0xbbbf67f7	-0.005841251
66	0xbd39e178	-0.04538104
67	0x3ce756ec	0.02823969
68	0xbe1f9906	-0.15585718
69	0xbc6fd584	-0.014638308
70	0xbec6aac5	-0.38802162
71	0xbe8201ad	-0.25391904
72	0x3da26284	0.079289466
73	0x3d8a690f	0.067583196
74	0x3cd6803e	0.026184198
75	0xbbb34fe1	-0.005472169
76	0x3e77a35d	0.24183412
77	0xbe8719bf	-0.2638683
78	0xbe455a83	-0.19272809
79	0x3e15496e	0.14578792
80	0xbe4c8a97	-0.19974743
81	0x3e61f775	0.22067054
82	0xbe9d35c7	-0.3070509
83	0xbd7c2656	-0.061559997
84	0x3e5209ef	0.20511602
85	0x3ea23706	0.31682605
86	0x3ca7f7e4	0.020503946
87	0x3e6ea118	0.2330364
88	0xbe0d276f	-0.13784574
89	0x3d21172b	0.039328735
90	0x3e4583e6	0.19288597
91	0xbd5c8735	-0.05383988
92	0x3e1dd5bd	0.15413566
93	0xbe26d3e4	-0.16291767
94	0xbd41204e	-0.04714995
95	0xbd855ac2	-0.06511451
96	0xbeade4ed	-0.3396372
97	0xbe1f4a82	-0.15555766
98	0xbecf6057	-0.4050319
99	0x3e4da25e	0.2008147
100	0x3ee58f71	0.44836
101	0xbe176ad2	-0.14786842
102	0xbdc68084	-0.09692481
103	0xbdefb396	-0.11704175
104	0xbdbe3920	-0.092882395
105	0x3e71a7e2	0.23599198
106	0xbe7bcbe0	-0.24589491
107	0x3e1ff214	0.15619689
108	0x3f0867c1	0.53283316
109	0xbf2e1871	-0.68006045
110	0xbd7fce32	-0.062452503
111	0xbd64fd4e	-0.055905633
112	0xbe162f70	-0.14666533
113	0x3f2983f2	0.6621696
114	0x3ea08608	0.31352258
115	0x3dd361d5	0.10321394
116	0x3f0272f3	0.5095665
117	0xbcd87beb	-0.026426276
118	0xbd4b68ae	-0.049660377
119	0xbe014a9e	-0.1262612
120	0xbe1f313b	-0.15546124
121	0xbd03b5d9	-0.032155845
122	0x3f3796c9	0.71714455
123	0xbd9ed987	-0.07756334
124	0x3f0adca7	0.5424294
125	0xbe9095a8	-0.2823918
126	0xbeed872b	-0.46392187
127	0xbe629aba	-0.22129336
128	0x3ea718f6	0.3263623
129	0x3c532ec0	0.012889564
130	0xbe575783	-0.21029477
131	0x3e102710	0.14077401
132	0xbe1d40c5	-0.15356739
133	0xbdc0db11	-0.094167836
134	0xbe7ed155	-0.24884541
135	0xbf8a9eae	-1.0829675
136	0x3cd3642e	0.025804605
137	0x3eeb0931	0.4590545
138	0xbe93828f	-0.28810546
139	0xbe5207ab	-0.20510738
140	0x3ecc5df8	0.39915442
141	0xbf0748b8	-0.52845335
142	0x3e7187eb	0.23587005
143	0x3ef8df2e	0.48607773
144	0xbd798a0f	-0.06092268
145	0xbe1fca28	-0.1560446
146	0xbe3abc6e	-0.18235943
147	0xbdf96bde	-0.12178777
148	0xbe0ae9cc	-0.13565749
149	0x3e67f933	0.22653656
150	0x3f56d164	0.83913255
151	0x3e3869db	0.1800913
152	0x3e2562af	0.16150926
153	0xbea474b8	-0.321203
154	0x3d8ff2aa	0.07028706
155	0xbdc415ee	-0.09574495
156	0x3e5026d1	0.20327307
157	0x3d84bfc7	0.06481891
158	0x3d352fd1	0.044235054
159	0x3d82bb34	0.063833624
160	0xbdfabf86	-0.122435614
161	0xbdaf3ef8	-0.08556932
162	0x3c8a4762	0.016879741
163	0x3db71dff	0.08941268
164	0x3e856ff8	0.26061988
165	0xbe0c6f49	-0.13714327
166	0xbd2df32d	-0.04246824
167	0x3e76f98d	0.24118634
168	0xbe2cbc0a	-0.16868606
169	0x3ef02d33	0.46909484
170	0xbea14be7	-0.3150322
171	0x3ddf0ef7	0.10891526
172	0x3e308161	0.17236854
173	0xbe95c67e	-0.29253
174	0x3dabfec4	0.08398202
175	0xbced0e1c	-0.028937392
176	0xbc99b0dc	-0.018761091
177	0x3ee8d47c	0.45474613
178	0x3e7ce8e1	0.24698211
179	0xbe3409ac	-0.17581815
180	0x3ecfc370	0.40578794
181	0xbd498843	-0.049202215
182	0xbe12b662	-0.14327386
183	0xbdaa0d59	-0.08303327
184	0xbe13b26b	-0.1442353
185	0x3e29c009	0.16577162
186	0x3e2a52d5	0.1663316
187	0xbd0e3b18	-0.034724325
188	0x3ec92e31	0.39293054
189	0xbec76e23	-0.38951215
190	0xbeefe107	-0.4685137
191	0xbde5cd6e	-0.11220823
192	0x3d272760	0.040809035
193	0x3e85d9e2	0.26142794
194	0x3dd45225	0.1036723
195	0x3dd8f2b7	0.10593169
196	0xbdb7992f	-0.08964764
197	0x3db5453e	0.088510975
198	0xbe9b36b0	-0.3031516
199	0x3e1ac84a	0.15115467
200	0xbd163727	-0.03667369
201	0xbc47a81d	-0.012186077
202	0x3eb6041e	0.35550016
203	0x3e9cae48	0.30601716
204	0xbdacb158	-0.08432263
205	0x3d677dac	0.056516334
206	0xbecc11af	-0.39857242
207	0xbce66853	-0.028125918
208	0xbec58e73	-0.38585243
209	0x3ef429af	0.47688052
210	0xbea59f61	-0.3234816
211	0x3ee2117f	0.44153973
212	0x3e53dd80	0.20689964
213	0xbc515550	-0.012776688
214	0x3e3820aa	0.1798121
215	0x3e58b898	0.21164167
216	0xbebee05a	-0.37280542
217	0x3e1aad3e	0.15105149
218	0x3e4c1b38	0.19932258
219	0xbe03d3e9	-0.12873806
220	0x3cbf5f13	0.023360765
221	0xbf24dcc0	-0.6439934
222	0x3e6b2e7f	0.22966956
223	0xbf113137	-0.5671572
224	0x3e8207a7	0.25396463
225	0xbf186988	-0.5953603
226	0xbbdee6e5	-0.006802427
227	0x3ebb9609	0.36637905
228	0xbe2a3fe9	-0.16625942
229	0xbda01f01	-0.078184135
230	0xbf193c05	-0.5985721
231	0xbe938443	-0.28811845
232	0xbd9919c2	-0.07475616
233	0x3c0966a3	0.008386287
234	0x3d051804	0.032493606
235	0x3e06e56d	0.13173456
236	0x3e11c380	0.14234734
237	0xbea1882d	-0.31549206
238	0xbd2f5523	-0.042805802
239	0x3dd8eefc	0.10592458
240	0xbeb6f53c	-0.35733974
241	0x3e87f8cd	0.26557007
242	0xbf2b13ef	-0.6682729
243	0x3e43cd4f	0.19121288
244	0xbe805cfd	-0.25070944
245	0x3e765a6f	0.24057935
246	0x3e9a8ae7	0.301841
247	0xbea753c2	-0.3268109
248	0xbc6bb7ff	-0.01438713
249	0xbd8a9bde	-0.067680106
250	0x3ec98f12	0.39366966
251	0x3e41fe58	0.1894468
252	0xbe7f32d4	-0.24921733
253	0xbea1546b	-0.31509718
254	0x3ebc98e2	0.3683539
255	0xbdedbdbe	-0.11608456

net.0.bias f4 [64]
0	0xbe301dc6	-0.17198858
1	0xbd5ea3c9	-0.054355416
2	0xbf11e974	-0.56996846
3	0xbe49735a	-0.1967291
4	0xbec3e91c	-0.38263786
5	0xbd95ea60	-0.07320094
6	0xbcdf7c35	-0.027280906
7	0xbe788625	-0.24269922
8	0x3e27ce45	0.1638728
9	0xbf06378b	-0.524285
10	0xbecbe2cd	-0.39821473
11	0xbdd7c0bb	-0.10534807
12	0xbe5b288e	-0.21402189
13	0xbef53ae4	-0.47896492
14	0xbf2f6b48	-0.68523073
15	0xbd472ce3	-0.04862679
16	0x3ba00e30	0.004884504
17	0xbe5bd47c	-0.21467775
18	0xbe7a7a89	-0.24460806
19	0xbef475b8	-0.47746062
20	0xbe04da1d	-0.12973829
21	0xbf0b4db1	-0.5441542
22	0xbe93afe6	-0.28845137
23	0x3e93c0e1	0.28858092
24	0xbed4d9f0	-0.41572523
25	0xbe4ac956	-0.19803366
26	0xbe9bb837	-0.30413982
27	0xbea0c4b4	-0.31400073
28	0xbef004d2	-0.46878678
29	0xbda7da6e	-0.08195959
30	0xbe94c0d3	-0.29053363
31	0x3e4f19da	0.20224705
32	0xbe50c35a	-0.2038702
33	0xbe987a3c	-0.29780757
34	0xbeca8acd	-0.39559022
35	0xbf0cd0f6	-0.5500635
36	0xbea338c8	-0.31879258
37	0xbeb50904	-0.3535844
38	0xbeae00de	-0.33985037
39	0xbd1eefac	-0.038802788
40	0xbe431176	-0.1904963
41	0xbd6cecd6	-0.05784305
42	0xbdfd475c	-0.12367126
43	0xbea4dc0f	-0.3219914
44	0xbeae721a	-0.34071428
45	0xbe530137	-0.20605932
46	0xbd1b174f	-0.037864026
47	0xbecae9e7	-0.39631578
48	0x3d26e57d	0.0407462
49	0x3e79c973	0.24393253
50	0xbeeef80f	-0.4667363
51	0xbef64ee2	-0.48107058
52	0xbe63a728	-0.22231734
53	0xbf53b587	-0.82698864
54	0xbef2b67e	-0.47404855
55	0xbe033e8d	-0.1281683
56	0x3dced498	0.10099143
57	0xbe0f2b71	-0.13981415
58	0xbed135f3	-0.40861472
59	0xbf2b14d3	-0.6682865
60	0xbdc8152b	-0.097696625
61	0xbe893e8b	-0.2680553
62	0xbe875fae	-0.26440185
63	0xbeedde0f	-0.4645848
