models/engine_hybrid_gru_model.pt (torch, 64775 bytes, 19 tensors)

gru.weight_ih_l0 f4 [96, 1]
0	0x3e28e21a	0.16492501
1	0x3dd4fe03	0.104000114
2	0xbed0b095	-0.4075972
3	0xbf1da46e	-0.61579025
4	0x3f3ee8f7	0.74574226
5	0x3dbaa46d	0.09113393
6	0x3f06b870	0.5262518
7	0xbd3c46e8	-0.04596606
8	0xbef24cf3	-0.47324333
9	0x3ee788a5	0.4522144
10	0x3eecda50	0.4626031
11	0xbf0e04bc	-0.55475974
12	0x3f22bdf9	0.63571125
13	0x3f3f3120	0.74684334
14	0x3e8159a7	0.25263712
15	0x3dcef3b8	0.101050794
16	0x3f845cc0	1.0340805
17	0xbf1fc482	-0.6240922
18	0x3c4313cd	0.011906576
19	0x3e4d6789	0.20059027
20	0xbe145241	-0.14484502
21	0xbc4b0cdb	-0.012393202
22	0xbe08ed92	-0.13371876
23	0x3ef2adea	0.4739831
24	0xbf10bc61	-0.56537443
25	0xbf6a4635	-0.9151338
26	0xbef2f8aa	-0.4745534
27	0xbf466bc1	-0.7750817
28	0xbe8f9ffc	-0.28051746
29	0xbe9344df	-0.28763482
30	0xbf4cbb55	-0.79973346
31	0x3eec6531	0.46170953
32	0xbe1f34b3	-0.15547447
33	0xbe351968	-0.17685473
34	0x3dcdc398	0.10047072
35	0x3ee3e1cb	0.44508204
36	0x3f5f149a	0.8714081
37	0x3ec494a2	0.38394648
38	0x3f2d0f61	0.6760159
39	0xbe1cd8c0	-0.15317059
40	0xbfad4734	-1.3537354
41	0x3f0a6f46	0.5407604
42	0xbf45c976	-0.7726053
43	0x3e120fca	0.14263836
44	0xbc2345cf	-0.009965374
45	0x3f2b1890	0.66834354
46	0x3e9ca08c	0.30591238
47	0x3ea55a29	0.3229535
48	0xbf0d5de8	-0.55221415
49	0xbfa8a32b	-1.3174795
50	0x3e9bba41	0.30415538
51	0x3e9d7942	0.30756575
52	0xbe1e1442	-0.15437415
53	0x3f2d5312	0.6770488
54	0x3eb2f479	0.34952143
55	0xbd9e2dd4	-0.07723585
56	0xbf585237	-0.8450045
57	0x3dc6d617	0.09708803
58	0x3e587e12	0.21141842
59	0xbf65bfc3	-0.8974573
60	0xbe0be7dc	-0.13662666
61	0x3c854994	0.016270436
62	0xbe3e8622	-0.18605855
63	0x3f10cc3d	0.5656164
64	0x3ed114ca	0.40836173
65	0x3d7d54cf	0.061848458
66	0xbeaab9a2	-0.33344752
67	0xbe6f1d60	-0.2335105
68	0xbf0741d2	-0.5283481
69	0x3e66b8cb	0.2253143
70	0x3e636871	0.2220781
71	0xbeff24ca	-0.49832755
72	0xbeedd828	-0.46453977
73	0xbeb5375b	-0.35393795
74	0xbe177ca6	-0.14793643
75	0xbef013dd	-0.46890154
76	0x3ef05a67	0.46943972
77	0x3ed38cc9	0.41318348
78	0x3e794d92	0.24345997
79	0x3ee47122	0.44617563
80	0xbe527e02	-0.2055588
81	0x3eccd9b9	0.4000986
82	0x3e3606f8	0.17776096
83	0x3ef8e06b	0.48608717
84	0x3e180aad	0.14847822
85	0x3e05cf23	0.13067298
86	0x3ea0e0cf	0.31421515
87	0x3ed829c9	0.4221938
88	0xbed18c89	-0.40927532
89	0x3e35b1a1	0.17743541
90	0x3e390d9d	0.180716
91	0xbebb5ceb	-0.36594328
92	0x3ec5379a	0.38518983
93	0x3e9fba43	0.31196794
94	0xbe44ef7a	-0.19231978
95	0x3eb9d44f	0.3629479

gru.weight_hh_l0 f4 [96, 32]
0	0x3fc5b65b	1.5446275
1	0x3e711214	0.23542053
2	0xbf7ff35a	-0.999807
3	0xbecc3c06	-0.39889544
4	0xbf014361	-0.5049344
5	0x3f38510d	0.71998674
6	0x3f1cbc6e	0.6122502
7	0xbebbf036	-0.36706704
8	0xbf8250a8	-1.0180864
9	0x3ea9207e	0.33032602
10	0xbe776fee	-0.24163792
11	0xbf09ac75	-0.53778774
12	0x3f0cfbdf	0.55071825
13	0xbf02726f	-0.5095586
14	0x3f841a3e	1.0320508
15	0x3e8d4d83	0.275982
16	0xbe14dd2d	-0.14537497
17	0x3f8986b1	1.074423
18	0x3e4a2284	0.19739729
19	0x3f42ae88	0.76047564
20	0xbd5b3be5	-0.053523917
21	0x3eb40c95	0.3516585
22	0x3f84a1ff	1.0361937
23	0xbf57fddc	-0.84371734
24	0xbe557e90	-0.20849061
25	0xbdd12272	-0.10211648
26	0x3f05f4fd	0.5232695
27	0xbf4368ed	-0.7633198
28	0x3f8b0801	1.0861818
29	0xbd7b7395	-0.061389524
30	0xbecbf3fc	-0.39834583
31	0x3de36745	0.111036815
32	0x3efb835a	0.4912365
33	0xbe5bb661	-0.21456291
34	0xbe0c9971	-0.13730408
35	0x3ed1e5e6	0.4099571
36	0xbede457b	-0.43412384
37	0xbd841f6f	-0.06451308
38	0x3dc28701	0.09498406
39	0xbeffeb60	-0.49984264
40	0xbf145390	-0.57940006
41	0xbed618e1	-0.41815856
42	0xbe826edf	-0.25475213
43	0xbf22e0bd	-0.63624173
44	0x3e934cd3	0.2876955
45	0x3e2c9e95	0.16857369
46	0xbd962d28	-0.073328316
47	0xbdcd83c3	-0.10034897
48	0x3e0deb75	0.13859351
49	0x3f05f625	0.5232871
50	0xbec8c74c	-0.3921455
51	0x3d901f12	0.07037176
52	0xbf006d13	-0.50166434
53	0xbd6262df	-0.055270072
54	0xbe5cc866	-0.21560821
55	0x3de4b5f8	0.1116752
56	0xbf1c5593	-0.61068076
57	0x3d7bafd5	0.061446983
58	0x3ddd4deb	0.10805877
59	0xbed12102	-0.40845495
60	0x3e2e8eea	0.17046705
61	0xbd9ed48b	-0.07755383
62	0xbef75aa4	-0.4831134
63	0xbd46654e	-0.048436455
64	0x3f5639dd	0.8368204
65	0x3e4b784d	0.1987011
66	0xbf26a2da	-0.6509224
67	0x3e47e3f1	0.19520546
68	0xbf365fdf	-0.7124004
69	0x3e5df0f5	0.21673949
70	0x3e8f091f	0.27936646
71	0xbc896868	-0.016773418
72	0xbf2cf2da	-0.6755806
73	0xbe977e52	-0.29588562
74	0x3e65b650	0.22432828
75	0x3ea5bd5a	0.32371026
76	0x3ef0afb4	0.4700905
77	0xbd2f6705	-0.042822856
78	0xbd6e8a23	-0.058237206
79	0x3f1d1910	0.6136637
80	0x3eb1d3d0	0.34731913
81	0x3f1e5354	0.618459
82	0x3eb4aed4	0.35289633
83	0x3efdd487	0.49576208
84	0x3f148d46	0.58028066
85	0x3e2e18bd	0.17001624
86	0x3efaa90d	0.489571
87	0xbec323d0	-0.3811326
88	0x3e79bdf9	0.24388875
89	0xbc86681b	-0.016407063
90	0x3f0bffbe	0.54687107
91	0xbf2d2f37	-0.6765017
92	0x3ef1f2ea	0.4725564
93	0x3ea4fcda	0.3222416
94	0xbe028a4f	-0.12748073
95	0x3f342d95	0.7038205
96	0xbf10b80c	-0.56530833
97	0xbf0dfd0d	-0.5546425
98	0x3f2c8a1a	0.67398226
99	0x3ebd7b7a	0.37008268
100	0x3e3e7e56	0.18602881
101	0xbd1dd4a0	-0.038532853
102	0xbefc8772	-0.49322087
103	0xbdde27f4	-0.10847464
104	0x3db809ae	0.08986221
105	0xbf118226	-0.56839216
106	0x3e1e31d5	0.15448697
107	0xbf01b376	-0.5066446
108	0x3d97e534	0.07416764
109	0x3f020a79	0.5079723
110	0xbf1dc167	-0.61623234
111	0xbe1fadd1	-0.1559365
112	0x3ee85740	0.45379066
113	0xbee61419	-0.44937208
114	0xbc730e2f	-0.014834925
115	0xbda4304f	-0.08017027
116	0xbe0a149e	-0.13484427
117	0xbe8b6a77	-0.27229664
118	0xbe37df3d	-0.17956252
119	0x3f902c27	1.1263474
120	0xbe3e103b	-0.18560879
121	0xbdf7ed1a	-0.121057704
122	0xbdf379a2	-0.11888434
123	0x3d6ea4c8	0.058262616
124	0xbdfe4308	-0.12415129
125	0xbe80c531	-0.25150445
126	0xbe7cdfba	-0.2469472
127	0xbe30c620	-0.17263079
128	0xbef5555a	-0.4791668
129	0xbea9b87c	-0.33148563
130	0x3f16d683	0.5892107
131	0x3f456e27	0.77121204
132	0x3f6e42ca	0.9307066
133	0xbf496ebb	-0.78684586
134	0xbf987edd	-1.1913716
135	0xbec851dc	-0.39124954
136	0x3d8573a8	0.065162
137	0x3ecac33d	0.3960208
138	0xbf474976	-0.7784647
139	0x3ed5dfa3	0.41772184
140	0x3f03ff7c	0.51561713
141	0xbf47e3d0	-0.7808199
142	0xbfb34a15	-1.4006983
143	0xbec11099	-0.37707976
144	0x3ee7599d	0.45185557
145	0xbf8ec8b8	-1.1155005
146	0xbf5a73a5	-0.8533271
147	0xbe4c991a	-0.19980279
148	0xbfa556d1	-1.2917119
149	0xbf74e001	-0.956543
150	0xbf1c5aea	-0.61076224
151	0xbea2dcb0	-0.31808996
152	0xbe519f28	-0.2047087
153	0xbf97d290	-1.1861134
154	0xbecc9466	-0.3995697
155	0x3f23a92a	0.6393
156	0xbe9a1e2a	-0.30101138
157	0xbf1f871c	-0.62315536
158	0xbdafd862	-0.085861936
159	0xbf6f9aee	-0.9359578
160	0x3f1b0084	0.6054766
161	0x3f1a7312	0.60331833
162	0x3e04aafc	0.1295585
163	0xbf2c7c40	-0.6737709
164	0x3d9a2449	0.07526452
165	0xbd4f00ea	-0.05053798
166	0x3e8566e7	0.2605507
167	0xbe74562a	-0.23860994
168	0xbee9a04a	-0.45630103
169	0x3f4f8831	0.81067187
170	0xbf198138	-0.599628
171	0xbeacfb85	-0.33785644
172	0x3f09f201	0.53884894
173	0xbec7313f	-0.3890476
174	0x3e9b00de	0.302741
175	0xbe2d9881	-0.16952707
176	0xbf0ab22f	-0.54178137
177	0x3edb481c	0.42828453
178	0x3e9a8fdf	0.3018789
179	0xbed1035b	-0.40822873
180	0xbc70a66d	-0.0146881165
181	0x3df6f0d3	0.12057652
182	0xbe9ee7fd	-0.31036368
183	0xbf8c4eb5	-1.096152
184	0xbf296f30	-0.66185284
185	0xbedf32fa	-0.4359358
186	0x3f19dda2	0.6010381
187	0xbe0b6d1d	-0.13615842
188	0x3ca850fa	0.020546425
189	0x3e749348	0.23884308
190	0xbef36e49	-0.47545078
191	0xbef59e94	-0.47972548
192	0xbe447757	-0.1918615
193	0x3e4cb033	0.1998909
194	0x3e82fd8b	0.25584063
195	0x3ea0bd29	0.31394318
196	0xbea3575e	-0.31902593
197	0xbc950dbc	-0.018195026
198	0xbdd4b15d	-0.10385392
199	0x3e454302	0.19263843
200	0xbe8ba63d	-0.27275267
201	0xbe363b56	-0.17796072
202	0xbdad0b74	-0.0844945
203	0x3e40028f	0.18750976
204	0xbd89781f	-0.067123644
205	0xbd97dda5	-0.07415322
206	0x3c9afe96	0.018920224
207	0xbe861069	-0.26184395
208	0xbee57530	-0.4481597
209	0x3ed7ee61	0.42174056
210	0x3e26c06a	0.16284338
211	0xbe17050a	-0.14748016
212	0xbe302eba	-0.17205325
213	0xbc59658c	-0.01326884
214	0xbe6b59e7	-0.22983514
215	0xbe405066	-0.1878067
216	0xbac3687c	-0.0014908458
217	0xbd8b7dbd	-0.06811092
218	0x3f0bb3ff	0.5457153
219	0xbea1f973	-0.31635627
220	0x3d07d3a4	0.03316082
221	0xbeed05d6	-0.46293515
222	0x3e2c5219	0.16828193
223	0xbdccf23f	-0.10007142
224	0xbf4807a4	-0.7813666
225	0x3d2500ff	0.040284153
226	0x3d184f00	0.037184715
227	0xbdb8cb8d	-0.09023199
228	0x3f6d4829	0.9268823
229	0xbdc92ff1	-0.09823597
230	0xbdedff33	-0.11620941
231	0xbe64a80d	-0.22329731
232	0xbe5618a5	-0.20907839
233	0x3f7d9637	0.99057335
234	0xbe269f50	-0.1627171
235	0x3e57efeb	0.21087615
236	0x3ba3760e	0.0049884384
237	0xbe1cd0ce	-0.15314028
238	0x3ececba2	0.40389735
239	0xbdebfa48	-0.11522347
240	0xbc7ab51c	-0.015301969
241	0xbdb4d18f	-0.08829033
242	0xbe823187	-0.2542841
243	0x3f2a281e	0.66467464
244	0xbe8b7e49	-0.27244785
245	0xbc0470b1	-0.008083508
246	0xbe4b03fe	-0.19825742
247	0x3e2b73f6	0.16743454
248	0x3e821475	0.25406232
249	0xbe9de298	-0.3083694
250	0xbe8575c8	-0.26066422
251	0xbd879ac4	-0.06621316
252	0x3db24bb3	0.08705845
253	0x3edefa59	0.43550375
254	0x3e49a423	0.1969152
255	0xbf09aea5	-0.5378211

gru.bias_ih_l0 f4 [96]
0	0x3e21d6a0	0.15804529
1	0xbe04113c	-0.128972
2	0xbe8d2b77	-0.27572224
3	0xbea2b170	-0.31776
4	0xbe814d67	-0.25254366
5	0xbc2b8f6c	-0.010471206
6	0xbed20a1b	-0.41023335
7	0xbda42001	-0.08013917
8	0xbe0a0912	-0.13480023
9	0x3e790f71	0.24322297
10	0xbc535eef	-0.012901052
11	0x3ec992a1	0.3936968
12	0xbd2c8480	-0.04211855
13	0xbd4a437d	-0.049380768
14	0xbe78881a	-0.24270669
15	0xbe8d274f	-0.27569053
16	0x3ed9c52c	0.42533243
17	0xbe372531	-0.17885281
18	0xbf83f0dc	-1.030788
19	0x3d297067	0.04136696
20	0xbe2537fb	-0.16134636
21	0xbe862495	-0.26199785
22	0xbf161536	-0.58626115
23	0xbe479b9c	-0.19492954
24	0xbe52e979	-0.20596875
25	0xbe8b6ab1	-0.27229837
26	0xbe27fecb	-0.1640579
27	0xbee138db	-0.4398869
28	0xbcb938f1	-0.02261016
29	0x3e63ca34	0.22245103
30	0xbe224e9b	-0.15850298
31	0xbd820acb	-0.06349715
32	0x3d232b92	0.039836474
33	0xbe24f4e7	-0.16109048
34	0x3dd1af07	0.10238462
35	0x3d98a67c	0.074536294
36	0xbd86e211	-0.065860875
37	0x3d8e72a6	0.06955461
38	0x3f0dca02	0.55386364
39	0xbdd13739	-0.10215611
40	0x3ec2603d	0.3796405
41	0xbe57cd30	-0.21074367
42	0x3ddd3212	0.10800566
43	0xbe92c495	-0.28665605
44	0xbe0c7f44	-0.13720423
45	0xbe621c7f	-0.22081183
46	0xbd7d5448	-0.061847955
47	0xbe4a4807	-0.19754039
48	0xbe8d0e60	-0.2755003
49	0x3e753751	0.23946883
50	0x3f2003ad	0.6250561
51	0xbe66980f	-0.22518943
52	0x3eac43db	0.3364552
53	0x3f008c05	0.5021365
54	0x3e807688	0.25090432
55	0xbdf7cb88	-0.120993674
56	0xbd88e1c7	-0.066836886
57	0x3de56558	0.112009704
58	0x3ea3c61a	0.31987077
59	0x3e246858	0.16055429
60	0x3e4b2c0a	0.19841018
61	0xbdfcb648	-0.12339455
62	0x3e3c48da	0.18387166
63	0xbcdc9c59	-0.026930021
64	0xbda7a007	-0.0818482
65	0xbe5e65db	-0.21718542
66	0xbe8f18d1	-0.2794862
67	0xbbf443b2	-0.007454359
68	0xbe23f9ea	-0.16013303
69	0xbdd56d31	-0.10421217
70	0x3dfed324	0.12442616
71	0x3d925eee	0.07147013
72	0x3eb85884	0.36005032
73	0xbe1d1b52	-0.15342453
74	0x3ec74c8c	0.38925588
75	0x3e237c96	0.15965495
76	0xbedb3d6c	-0.428203
77	0x3e920164	0.28516686
78	0x3e8e0d25	0.27744403
79	0x3ef1403d	0.47119322
80	0x3dc35479	0.09537596
81	0xbed6709f	-0.41882798
82	0xbdadad40	-0.084803104
83	0x3e9f2f02	0.31090552
84	0x3cb23586	0.021754038
85	0x3e0c49cc	0.13700026
86	0x3e890e62	0.26768786
87	0x3edc84d0	0.43070078
88	0x3ee08417	0.43850777
89	0x3ea74d2b	0.32676062
90	0xbe89efdd	-0.26940814
91	0x3e936bde	0.28793234
92	0x3d2eaaa9	0.042643223
93	0x3e6d4b4e	0.23173258
94	0x3e17ba52	0.1481717
95	0x3e7bb684	0.24581343

gru.bias_hh_l0 f4 [96]
0	0xbd5cb210	-0.05388075
1	0xbc401294	-0.011723179
2	0xbd1ebc5a	-0.038753845
3	0xbd594d65	-0.053052325
4	0x3d72b0d7	0.05925068
5	0xbe01b976	-0.12668404
6	0xbefa9b2e	-0.48946518
7	0xbd843928	-0.06456214
8	0x3d839d2f	0.06426465
9	0x3eb90938	0.36139846
10	0x3dbc096b	0.09181484
11	0x3e953f3e	0.29149812
12	0xbda2f5df	-0.079570524
13	0x3d1229d7	0.035684433
14	0x3c2f21ad	0.010689181
15	0xbea853e3	-0.328765
16	0x3f0d430e	0.5518044
17	0xbe59327c	-0.21210665
18	0xbf8a4463	-1.080212
19	0xbe1937da	-0.14962712
20	0xbd7338c0	-0.059380293
21	0xbea998ea	-0.33124477
22	0xbf1a8dc9	-0.60372597
23	0xbe59b54e	-0.21260568
24	0xbe2432d1	-0.1603501
25	0xbe32fba1	-0.17478801
26	0xbe56dde5	-0.20983084
27	0xbee32391	-0.44363073
28	0xbdb82d09	-0.08992965
29	0x3e1c172c	0.15243214
30	0xbe08b72e	-0.13351128
31	0xbe0275a4	-0.12740189
32	0x3db4419e	0.08801578
33	0xbe878f57	-0.26476547
34	0xbe5bb02d	-0.21453924
35	0x3d6b21aa	0.05740515
36	0xbe67cf1f	-0.22637604
37	0x3ea0b55c	0.31388366
38	0x3eff3a58	0.498492
39	0xbeaa37bd	-0.3324565
40	0x3ecc47a0	0.39898396
41	0xbe51e08e	-0.20495817
42	0xbe186a42	-0.14884284
43	0xbec3c056	-0.38232678
44	0xbe51e69a	-0.20498124
45	0xbe5240cc	-0.2053253
46	0x3e4ffe08	0.20311749
47	0xbf0353d8	-0.5129981
48	0xbe09d9ec	-0.13462037
49	0x3ed7b9d3	0.4213396
50	0x3ed9fd40	0.42576027
51	0xbe9e9ea6	-0.30980414
52	0x3e6a65ba	0.22890368
53	0x3f283ac6	0.6571468
54	0x3dd4c0a9	0.103883095
55	0xbc85ec6e	-0.01634809
56	0x3abcb570	0.0014397334
57	0x3eb3cd53	0.35117587
58	0x3e9d1a83	0.3068429
59	0x3e0ea3b8	0.13929641
60	0x3d060dbf	0.032727953
61	0xbecd8d85	-0.40147033
62	0x3e95ee7b	0.2928351
63	0x3ddffa7b	0.10936447
64	0xbe3e7df9	-0.18602742
65	0x3d50ef03	0.05100919
66	0xbde645fe	-0.11243819
67	0x3c1115e3	0.008855316
68	0xbe860221	-0.261735
69	0x3ecd2038	0.40063643
70	0x3e0660cd	0.13122864
71	0x3e994d2b	0.29941687
72	0x3edf630d	0.43630257
73	0xbe8808d9	-0.2656925
74	0x3d78e7bf	0.060767885
75	0x3ce92f1f	0.028464852
76	0xbe227680	-0.15865517
77	0x3e844b04	0.25838482
78	0x3cf4986f	0.029857842
79	0x3e7f4eb4	0.24932367
80	0x3e595fc9	0.21227945
81	0xbef9ebfe	-0.4881286
82	0x3d0e85eb	0.034795683
83	0x3f023b3e	0.50871646
84	0xbdf12089	-0.11773784
85	0x3dd1912a	0.10232766
86	0x3e2f5ba6	0.17124805
87	0x3e87219c	0.2639283
88	0x3ec2d0dd	0.38049975
89	0x3e596c54	0.2123273
90	0xbe7ebee8	-0.24877512
91	0x3ec53c26	0.38522452
92	0x3d4af79d	0.04955255
93	0xbcb0a8a3	-0.021564787
94	0x3e70fde8	0.23534358
95	0x3e87c36c	0.26516283

transformer.transformer_encoder.layers.0.self_attn.in_proj_weight f4 [96, 32]
0	0xbd5f4ce0	-0.054516673
1	0x3a889af9	0.0010422162
2	0xbd1b69e2	-0.037942775
3	0xbdd4f6ae	-0.10398613
4	0xbe2faf4e	-0.17156717
5	0x3d492c42	0.049114473
6	0xba903255	-0.0011001328
7	0xbe34573b	-0.17611401
8	0x3dea6833	0.11445656
9	0x3dd5851d	0.1042578
10	0x3dd46a47	0.10371833
11	0xbdc26c7f	-0.0949335
12	0x3b1678cf	0.002296019
13	0x3e06c124	0.13159615
14	0x3dccde41	0.10003329
15	0xbe382169	-0.17981495
16	0xbe1e12b0	-0.15436816
17	0xbe20ecbf	-0.15715311
18	0xbda9b905	-0.08287243
19	0xbe2a984f	-0.16659664
20	0xbd9474ba	-0.07248826
21	0xbc4b679e	-0.012414841
22	0x3d86db1a	0.06584759
23	0x3dc66bc9	0.09688527
24	0x3d3f95f1	0.046773855
25	0xbd2b84c9	-0.04187468
26	0xbe5b5b23	-0.21421485
27	0x3e1ffe32	0.15624312
28	0x3e1dcac1	0.15409376
29	0x3c0ea15d	0.008705464
30	0x3c347c4b	0.011015962
31	0xbe518b64	-0.2046333
32	0x3e4e6a5c	0.2015776
33	0x3ce88ff2	0.028388951
34	0x3d493b69	0.049128924
35	0x3d9553c5	0.072913684
36	0x3c066d93	0.0082048355
37	0x3d9da94d	0.07698307
38	0xbe203d39	-0.15648355
39	0xba94efa2	-0.001136292
40	0x3dd4c458	0.10389012
41	0x3e118fc3	0.14214997
42	0x3d510db1	0.051038448
43	0xbdc69454	-0.0969626
44	0xbe04bd84	-0.1296292
45	0xbe3c96d1	-0.18416907
46	0x3e3bfdc8	0.18358529
47	0x3e3c3e0f	0.18383048
48	0xbdea7f61	-0.11450077
49	0xbdfe29bf	-0.12410306
50	0x3d8a379b	0.06748887
51	0x3dd62e50	0.10458052
52	0x3dee4ad4	0.11635366
53	0xbe307b76	-0.17234597
54	0x3d670de3	0.056409728
55	0x3e098bca	0.13432232
56	0x3de44fbb	0.1114802
57	0x3d42e6e4	0.047583476
58	0xbe084984	-0.13309294
59	0xbcd5231e	-0.026017722
60	0xbe00c08a	-0.12573448
61	0xbdc5e5b7	-0.09662955
62	0x3dd2205e	0.1026008
63	0xbdb9aa88	-0.090657294
64	0x3e0f322e	0.13983986
65	0xbcd5e04a	-0.026107926
66	0x3be1f2b4	0.0068953875
67	0x3ceea86a	0.02913304
68	0x3d0a3c65	0.033749003
69	0xbdddcb7e	-0.10829829
70	0x3db2f83f	0.087387554
71	0xbe49a680	-0.19692421
72	0x3e0a4246	0.13501844
73	0xbe37e954	-0.17960101
74	0x3d81a044	0.06329396
75	0x3dd5e6f3	0.10444441
76	0xbced5124	-0.028969355
77	0xbe05bb69	-0.13059773
78	0xbe3af049	-0.18255724
79	0xbe5a0337	-0.21290289
80	0x3d185e30	0.0371992
81	0xbe3cf3c4	-0.18452364
82	0xbd964c55	-0.07338778
83	0x3dddfc08	0.10839087
84	0xbe5764a4	-0.21034485
85	0x3d14c764	0.036322966
86	0x3e572177	0.2100886
87	0x3e061cd5	0.13096936
88	0x3e1c7c93	0.15281896
89	0x3e55d787	0.20882998
90	0xbe3efcc3	-0.18651108
91	0x3e57921c	0.2105183
92	0xbbc28631	-0.005936407
93	0xbd101fb6	-0.035186492
94	0x3dc9f4a6	0.09861116
95	0x3d3a1653	0.045431446
96	0x3de19a6c	0.11015782
97	0x3e4d7232	0.20063093
98	0x3e32d4a5	0.1746393
99	0x3d7077fb	0.058708172
100	0xbe191ebd	-0.14953132
101	0xbd8a8961	-0.06764484
102	0xbd933063	-0.071869634
103	0xbe501f4d	-0.2032444
104	0xbd8cb11e	-0.0686972
105	0xbe0aafa3	-0.13543563
106	0x3e37ec97	0.17961346
107	0x3d1df259	0.0385612
108	0xbe4326c4	-0.19057757
109	0x3e48dcff	0.19615553
110	0xbdadc19f	-0.08484196
111	0x3e0a2be6	0.13493308
112	0xbd9140c3	-0.070924304
113	0x3c92491a	0.017857123
114	0x3e259ece	0.1617386
115	0xbdaa3d10	-0.08312428
116	0xbe07ddc0	-0.13268185
117	0x3d3d63f2	0.046237893
118	0xbe04a562	-0.12953714
119	0x3dec5a4c	0.1154066
120	0xbd60a202	-0.054842003
121	0xbc76d30d	-0.015064967
122	0x3d59ef40	0.053206682
123	0xbe1ae915	-0.15127976
124	0x3e224569	0.1584679
125	0x3c4ab5dd	0.012372461
126	0x3dca50ad	0.09878669
127	0xbc0aefe1	-0.008480043
128	0x3de52874	0.111893564
129	0xbe14f05f	-0.1454482
130	0xbe58d85b	-0.21176283
131	0xbe024a87	-0.12723742
132	0xbd82f7d6	-0.06394927
133	0x3e4edbdb	0.20201056
134	0x3d003e13	0.0313092
135	0xbd94d8f8	-0.07267946
136	0xbd61a4de	-0.05508887
137	0xbe4d7844	-0.20065409
138	0xbe5d12b8	-0.21589172
139	0xbd6800dc	-0.056641445
140	0xbd89d3a2	-0.06729819
141	0x3e3450d3	0.17608957
142	0xbdb8d657	-0.09025257
143	0xbcca4355	-0.02469031
144	0xbe1f20c4	-0.15539843
145	0xbda0d21a	-0.07852574
146	0x3e53244b	0.20619313
147	0x3e51c730	0.2048614
148	0xbde70aa7	-0.11281329
149	0x3e15659f	0.14589547
150	0xbe4a280c	-0.19741839
151	0x3e0717d5	0.13192685
152	0xbe4cc9d6	-0.1999887
153	0x3e06cd79	0.13164319
154	0xbda9f2e5	-0.082982816
155	0x3d79d886	0.06099751
156	0x3deedc22	0.11663081
157	0x3d0e70dd	0.034775604
158	0xbe3a87a2	-0.18215802
159	0xbd2a2eb5	-0.04154845
160	0xbd9e4af7	-0.07729142
161	0xbe461381	-0.19343378
162	0xbd9ce4ee	-0.076608524
163	0xbce35f07	-0.027755274
164	0x3c3e5a7e	0.011618255
165	0x3e4b9a00	0.19882965
166	0xbe04c33f	-0.12965105
167	0xbc000dfc	-0.007815834
168	0x3a0429e1	0.0005041641
169	0x3dd98040	0.10620165
170	0x3d3e1087	0.04640248
171	0x3d9f399f	0.07774662
172	0xbe4aff7c	-0.19824022
173	0xbd94a922	-0.07258822
174	0x3e3f7b00	0.18699265
175	0xbe459ed6	-0.19298872
176	0xbe455abd	-0.19272895
177	0xbe2cb265	-0.16864927
178	0x3d6878fe	0.056756012
179	0x3d91ca3b	0.071186505
180	0x3d0f1f51	0.034941975
181	0x3e50b482	0.20381358
182	0xbbc206ab	-0.005921205
183	0xbd0395bc	-0.03212522
184	0x3b8dc86c	0.0043268707
185	0xbe0ba9e1	-0.13639022
186	0xbe44ba42	-0.19211677
187	0xbcc93cb6	-0.024565082
188	0xbe1fa3f8	-0.15589893
189	0xbd6eb07a	-0.05827377
190	0xbdc98f98	-0.098418415
191	0x3e3a495f	0.18192051
192	0xbdb10093	-0.08642688
193	0x3e441daa	0.19151941
194	0xbe4a410a	-0.19751373
195	0xbdeb7e3f	-0.11498689
196	0xbc6a9dad	-0.014319819
197	0xbc971b76	-0.018445712
198	0xbd7ea9be	-0.062173598
199	0x3dfbfcc5	0.12304071
200	0xbdab51e8	-0.08365232
201	0x3d14a644	0.036291376
202	0x3e4e5f21	0.20153476
203	0x3d6692e2	0.056292422
204	0xbd83926f	-0.06424414
205	0x3e37ef5b	0.179624
206	0x3e5c49a9	0.21512474
207	0xbe37d129	-0.17950882
208	0xbe0bedf8	-0.13664997
209	0xbc62fcae	-0.013854189
210	0xbdb848bf	-0.0899825
211	0x3e52afe6	0.20574912
212	0x3e224795	0.15847619
213	0xbe156bd7	-0.14591919
214	0xbe5189d8	-0.2046274
215	0x3cd6cdcc	0.026221178
216	0xbd7aaa8f	-0.061197814
217	0xbd09164c	-0.03346853
218	0xbe17cec1	-0.14824964
219	0x3d3d1267	0.046160128
220	0xbe3b2af5	-0.18278106
221	0x3c5dfc5f	0.0135489395
222	0x3de5fb7e	0.11229609
223	0x3e58e3af	0.21180604
224	0x3e33a1ec	0.17542237
225	0x3df4b599	0.119486995
226	0xbe317749	-0.1733066
227	0xbd0435e5	-0.03227796
228	0xbc7af503	-0.015317204
229	0xbd70024f	-0.05859595
230	0x3dc913af	0.098182075
231	0x3e19c7a6	0.15017566
232	0xbd98ef39	-0.07467503
233	0xbd3b4cb7	-0.045727458
234	0x3cd00b7b	0.0253961
235	0xbe1a42a3	-0.15064482
236	0x3d6b86e1	0.057501677
237	0xbe38deb1	-0.180537
238	0xbdf95ab1	-0.12175501
239	0x3d844f8d	0.064604856
240	0xbe02852d	-0.12746115
241	0x3db2fd83	0.0873976
242	0xbce51983	-0.027966266
243	0xbc974bcb	-0.018468758
244	0xbb16446a	-0.0022928962
245	0x3d826c1b	0.06368276
246	0x3bdd76c9	0.006758545
247	0x3e11f7a6	0.14254627
248	0x3dc3e9f4	0.095661074
249	0x3e40532d	0.18781729
250	0x3e0db3cf	0.13838123
251	0xbe0b367e	-0.13595006
252	0xbe1ace20	-0.15117693
253	0xbc8ed491	-0.017435344
254	0xbdcc4224	-0.09973553
255	0xbdc39175	-0.09549228

transformer.transformer_encoder.layers.0.self_attn.in_proj_bias f4 [96]
0	0x00000000	0.0
1	0x00000000	0.0
2	0x00000000	0.0
3	0x00000000	0.0
4	0x00000000	0.0
5	0x00000000	0.0
6	0x00000000	0.0
7	0x00000000	0.0
8	0x00000000	0.0
9	0x00000000	0.0
10	0x00000000	0.0
11	0x00000000	0.0
12	0x00000000	0.0
13	0x00000000	0.0
14	0x00000000	0.0
15	0x00000000	0.0
16	0x00000000	0.0
17	0x00000000	0.0
18	0x00000000	0.0
19	0x00000000	0.0
20	0x00000000	0.0
21	0x00000000	0.0
22	0x00000000	0.0
23	0x00000000	0.0
24	0x00000000	0.0
25	0x00000000	0.0
26	0x00000000	0.0
27	0x00000000	0.0
28	0x00000000	0.0
29	0x00000000	0.0
30	0x00000000	0.0
31	0x00000000	0.0
32	0x00000000	0.0
33	0x00000000	0.0
34	0x00000000	0.0
35	0x00000000	0.0
36	0x00000000	0.0
37	0x00000000	0.0
38	0x00000000	0.0
39	0x00000000	0.0
40	0x00000000	0.0
41	0x00000000	0.0
42	0x00000000	0.0
43	0x00000000	0.0
44	0x00000000	0.0
45	0x00000000	0.0
46	0x00000000	0.0
47	0x00000000	0.0
48	0x00000000	0.0
49	0x00000000	0.0
50	0x00000000	0.0
51	0x00000000	0.0
52	0x00000000	0.0
53	0x00000000	0.0
54	0x00000000	0.0
55	0x00000000	0.0
56	0x00000000	0.0
57	0x00000000	0.0
58	0x00000000	0.0
59	0x00000000	0.0
60	0x00000000	0.0
61	0x00000000	0.0
62	0x00000000	0.0
63	0x00000000	0.0
64	0x3c8d6fd7	0.017265243
65	0xbd692e52	-0.05692894
66	0x3d934ed4	0.0719277
67	0xbcb3d496	-0.021951955
68	0xbcef5fcd	-0.029220486
69	0xbc65ec79	-0.01403343
70	0xba87bcee	-0.0010355988
71	0x3d0df833	0.03466053
72	0x3dbe650f	0.09296619
73	0xbd24fb83	-0.040278923
74	0xbc29f9f2	-0.010374533
75	0xbcc0fd61	-0.02355832
76	0x3d1b843e	0.037967913
77	0xbd1bbb05	-0.038020153
78	0xbc155fb3	-0.009117055
79	0x3cbdabbd	0.02315318
80	0x3d665080	0.056229115
81	0xbd8dae7e	-0.06918047
82	0xbcb65aad	-0.022260034
83	0xbbd5aff0	-0.0065212175
84	0xbd0ac21f	-0.033876535
85	0xbd027e81	-0.031858925
86	0x3d9d9db2	0.076960936
87	0x3deb6926	0.11494665
88	0xbcc8f568	-0.024531081
89	0xbb100cef	-0.0021980365
90	0xbc356fe6	-0.011074042
91	0x3b476d2c	0.0030430062
92	0xbcf11f9d	-0.02943402
93	0xbcbcb562	-0.023035709
94	0x3d4af347	0.049548414
95	0xbd2df060	-0.042465568

transformer.transformer_encoder.layers.0.self_attn.out_proj.weight f4 [32, 32]
0	0xbd275e32	-0.040861316
1	0x3e6cc183	0.23120694
2	0xbd73005d	-0.05932652
3	0xbe61f5cb	-0.22066419
4	0xbe0c92c6	-0.13727865
5	0x3c363ce2	0.011122914
6	0xbcfd48c4	-0.030918486
7	0xbd309084	-0.04310657
8	0x3be7c41e	0.0070729395
9	0x3e30b206	0.1725541
10	0x3ac2cadd	0.0014861483
11	0xbd88ac8e	-0.06673537
12	0x3df3836b	0.118903
13	0x3df794e5	0.12088946
14	0xbe0ab6f2	-0.1354635
15	0xbd9bdd71	-0.07610596
16	0xbe70eac5	-0.23527057
17	0x3eb0dd31	0.34543756
18	0x3d8a460f	0.06751644
19	0x3df963fb	0.12177273
20	0xbebe9ec6	-0.3723051
21	0xbe07c13c	-0.13257307
22	0xbd05c6a6	-0.03266015
23	0x3d250b4a	0.04029397
24	0xbd13b0e6	-0.036057375
25	0x3da4ef10	0.0805341
26	0xbe01f52d	-0.12691183
27	0x3df768a6	0.12080507
28	0x3d7051e1	0.058671836
29	0x3ca01719	0.019542264
30	0xbe017ff7	-0.12646471
31	0xbe2b7d7d	-0.16747089
32	0x3e222303	0.15833668
33	0xbd45e84d	-0.048317242
34	0xbe6af451	-0.22944762
35	0x378de8a8	1.6916849e-05
36	0x3e0d0d7f	0.1377468
37	0x3e151f87	0.14562808
38	0xbc27ea8b	-0.0102487905
39	0x3c59d699	0.013295793
40	0x3ca7ab86	0.020467531
41	0x3dcde145	0.100527324
42	0x3e0a398d	0.13498516
43	0x3e1a1d0b	0.15050142
44	0xbbcb3b6c	-0.006202152
45	0xbcb88eab	-0.022528967
46	0x3e1a8627	0.15090238
47	0xbd1d4cdf	-0.038403388
48	0xbe064ea5	-0.13115938
49	0x3e0ea369	0.13929524
50	0x3e0edc70	0.13951278
51	0x3989d487	0.00026289021
52	0x3dd1fe3b	0.10253569
53	0x3d91ea87	0.07124811
54	0x3c4399a9	0.011938491
55	0x3d91b510	0.07114613
56	0xbdb07abf	-0.08617162
57	0x3d843474	0.06455317
58	0x3dd56202	0.10419084
59	0x3d1501bb	0.036378603
60	0xbc25ec77	-0.010127178
61	0xbdb04960	-0.08607745
62	0x3d5c1f13	0.053740572
63	0xbd091b11	-0.03347308
64	0x3c38b069	0.011272528
65	0xbe1006c5	-0.14065082
66	0x3e29eeff	0.16595076
67	0x3df75fbf	0.12078809
68	0xbe13f6b2	-0.14449576
69	0x3cebbaf1	0.028775664
70	0xbcd9dee8	-0.026595548
71	0x3dc825e0	0.09772849
72	0xbe25c750	-0.16189313
73	0xbdacf5d4	-0.084453255
74	0xbda88f94	-0.0823051
75	0xbd454df2	-0.048170038
76	0x3d2118b2	0.039330192
77	0x3da5901b	0.080841266
78	0x3d48ab4d	0.04899149
79	0xbce0eb14	-0.027455844
80	0x3dc6d8f4	0.09709349
81	0x3e50dcea	0.20396772
82	0xbe1f0aaf	-0.15531419
83	0xbd4b8203	-0.049684536
84	0x3c622071	0.01380168
85	0x3cbf49c7	0.02335061
86	0x3de1d76c	0.110274166
87	0xbe038004	-0.12841803
88	0xbc788e07	-0.015170581
89	0xbd9941b4	-0.07483235
90	0x3d8c8e50	0.068630815
91	0xbce07e58	-0.027403995
92	0xbdec428a	-0.11536129
93	0x3c86397e	0.016384836
94	0x3e16bb05	0.1471978
95	0x3d8f01bb	0.06982752
96	0xbbd545a0	-0.006508544
97	0xbdcd8057	-0.100342445
98	0xbe24be40	-0.160882
99	0x3ddb294b	0.107012354
100	0x3e0e15c0	0.13875484
101	0x3d0eb2b7	0.034838405
102	0x3d870af8	0.06593889
103	0x3e659781	0.22421075
104	0x3da88ba1	0.08229757
105	0x3e114aad	0.14188643
106	0x3d5dd3cf	0.054157075
107	0x3d1f0873	0.038826417
108	0xbd347092	-0.044052668
109	0x3c01b051	0.007915572
110	0xbc7545f3	-0.0149702905
111	0x3e7dd227	0.24787198
112	0xbdfd08cb	-0.12355193
113	0x3e2835c1	0.16426755
114	0x3d62a4d6	0.05533298
115	0xbd5e37e2	-0.054252513
116	0x3c31e301	0.010857345
117	0x3e73792c	0.23776692
118	0x3e0f2dad	0.13982268
119	0xbebdc252	-0.37062317
120	0xbd53b1b2	-0.051683135
121	0xbcc08d0f	-0.023504762
122	0xbc0fe6ac	-0.008783024
123	0x3df3032a	0.11865838
124	0xbd529108	-0.051407844
125	0x3ccaffdd	0.024780208
126	0x3d8a61ac	0.06756911
127	0xbe5e8d7b	-0.21733658
128	0xbd8bc0d3	-0.06823888
129	0xbd810013	-0.06298842
130	0xbe04a765	-0.12954481
131	0xbd915a97	-0.07097357
132	0xbe92ae48	-0.2864859
133	0xbd18365e	-0.037161224
134	0xbe127ef3	-0.1430624
135	0xbd9a51ca	-0.07535131
136	0x3d5cb936	0.05388757
137	0x3e33b0d5	0.17547925
138	0x3d4ca09d	0.04995786
139	0x3e2058e6	0.15658912
140	0x3d4d8753	0.050177883
141	0xbd88ab9c	-0.06673357
142	0x3e696549	0.22792543
143	0xbdbf723b	-0.093479596
144	0x3cd2eace	0.02574673
145	0xbe7fe7f0	-0.24990821
146	0x3dadcb5f	0.084860556
147	0x3e1e6e29	0.1547171
148	0xbe9afdbb	-0.30271706
149	0xbeb72ea0	-0.3577776
150	0xbb894ac5	-0.0041898214
151	0xbe4ee6f5	-0.2020529
152	0x3e609e15	0.21935304
153	0xbe8881ea	-0.26661617
154	0x3e6755b6	0.2259129
155	0x3d86f4e3	0.06589677
156	0x3da4e126	0.08050756
157	0xbd39632b	-0.04526059
158	0x3e9a1cc1	0.30100062
159	0x3e40dc13	0.18833952
160	0x3c5d9228	0.013523616
161	0x3d85892e	0.065203056
162	0x3dbcce3d	0.09219024
163	0x3e53fa65	0.20700987
164	0xbe34cca2	-0.17656186
165	0x3ba7c51c	0.005119933
166	0xbc8b84bc	-0.017031066
167	0xbd039ae7	-0.03213015
168	0x3b3d3c0a	0.0028874897
169	0x3e329175	0.174383
170	0x3e63bde6	0.2224041
171	0x3dcbd188	0.09952074
172	0x3e2586c8	0.16164696
173	0xbd93d144	-0.072176486
174	0x3d9da1cf	0.07696878
175	0x3d75b984	0.059991375
176	0x3e68c83b	0.22732632
177	0x3cfd0b63	0.030889219
178	0xbe59d336	-0.21271977
179	0x3e14d240	0.14533329
180	0x3d366008	0.044525176
181	0x3b6ca27a	0.0036107586
182	0x3e577d46	0.21043882
183	0xbe93fb4a	-0.28902656
184	0x3e16741a	0.14692727
185	0xbdcf0ffb	-0.1011047
186	0xbe386865	-0.18008573
187	0x3d762d6a	0.060101904
188	0xbde6f201	-0.11276627
189	0x3e799a4b	0.24375264
190	0x3e1c9857	0.15292488
191	0xbddcabaf	-0.107749335
192	0xbd97221c	-0.07379553
193	0x3be33b45	0.0069345557
194	0xbbd2dbaf	-0.0064348797
195	0xbdc86579	-0.097849794
196	0xbebe0a21	-0.37117103
197	0xbcbe2150	-0.023209244
198	0x3cec2742	0.028827313
199	0x3c64fbb6	0.013976028
200	0xbe0f6763	-0.14004283
201	0x3e1e7e37	0.15477835
202	0x3d94fd20	0.07274842
203	0xbd239e7e	-0.03994607
204	0xbe6147a0	-0.21999979
205	0x3cc908ff	0.024540422
206	0x3c29fd1e	0.010375289
207	0x3d062ef9	0.03275964
208	0x3ad44551	0.0016194974
209	0x3e7de4d9	0.2479433
210	0x3d48fde2	0.049070247
211	0x3c3b42ad	0.011429471
212	0xbe598e4c	-0.21245688
213	0xbde8503f	-0.11343431
214	0x3d031436	0.032001697
215	0x3ebe4aa3	0.37166318
216	0x3dfd48ce	0.12367402
217	0x3daa4e72	0.083157435
218	0xbe595707	-0.21224605
219	0x3e2798ed	0.1636693
220	0x3e1374bb	0.14399998
221	0xbd595571	-0.05306
222	0x3be19fd4	0.006885508
223	0xbc78752a	-0.015164653
224	0xbea7e92b	-0.3279508
225	0xbd5f7986	-0.054559253
226	0x3d14314d	0.03617983
227	0x3d00ed94	0.031476572
228	0x3e1e1f16	0.15441546
229	0xbc3e6b72	-0.011622297
230	0xbc1aba73	-0.009443867
231	0xbd0b9cbf	-0.03408503
232	0xbd8568a9	-0.06514103
233	0x3c996c95	0.018728534
234	0x3c9b09dd	0.018925602
235	0x3d6fd908	0.058556587
236	0xbc758f41	-0.014987768
237	0x3d1a5d73	0.037686776
238	0xbc375435	-0.01118951
239	0x3b13f585	0.002257676
240	0x3d51ed69	0.051251803
241	0x3d37dce2	0.044888385
242	0x3caea174	0.021317221
243	0xbd94c56e	-0.07264219
244	0xbd7b433f	-0.061343428
245	0x3cbbac7d	0.022909397
246	0x3d65968b	0.056051772
247	0x3d6042be	0.05475115
248	0xbd0f5913	-0.034997057
249	0xbc410bba	-0.011782581
250	0xbc2e5c3a	-0.010642106
251	0x3c101b0d	0.008795512
252	0xbd6c3362	-0.05766619
253	0x3c232721	0.0099580595
254	0x3de6a853	0.11262574
255	0xbcd1d5cc	-0.025614642

transformer.transformer_encoder.layers.0.self_attn.out_proj.bias f4 [32]
0	0x3ca68da8	0.020331219
1	0xbe2a8260	-0.16651297
2	0xbd86d6e7	-0.06583958
3	0x3dcf79f7	0.10130685
4	0x3bc80165	0.006103682
5	0x3d88d860	0.06681895
6	0xbd0a9c5a	-0.033840515
7	0xbda9e997	-0.08296507
8	0x3e0b0a3b	0.13578121
9	0xbe802eab	-0.25035605
10	0xbc223d27	-0.009902275
11	0x3cd75e8f	0.026290206
12	0xbda976f7	-0.08274644
13	0x3e3a6056	0.18200812
14	0x3da17695	0.07883946
15	0x3e11f8fa	0.14255133
16	0xbc3fc47c	-0.01170456
17	0xbe99ff88	-0.30077767
18	0xbc3cfd66	-0.011535024
19	0x3ddc39bf	0.10753202
20	0x3d363d1b	0.04449187
21	0xbd1b3434	-0.03789158
22	0x3e1464d5	0.1449159
23	0x3cdf3bda	0.02725022
24	0x3c987520	0.018610537
25	0x3e040d38	0.12895668
26	0xbe28bff8	-0.1647948
27	0x3e06a17d	0.1314754
28	0x3e62e010	0.22155786
29	0xbcf90d1e	-0.030401763
30	0x3e05c156	0.13062033
31	0x3dc5c15d	0.09656022

transformer.transformer_encoder.layers.0.linear1.weight f4 [64, 32]
0	0xbe828339	-0.2549074
1	0x3d69ca23	0.05707754
2	0x3ebf3869	0.37347725
3	0x3e9366c7	0.2878935
4	0xbe04fcb6	-0.12987027
5	0x3dc270ff	0.094942085
6	0x3d9476e6	0.072492406
7	0xbd3dc190	-0.046327174
8	0x3dc02461	0.09381939
9	0x3ea5455d	0.32279482
10	0x3d446c7a	0.047955014
11	0x3de69a20	0.11259866
12	0xbdcf5685	-0.10123924
13	0xbe6f348d	-0.2335989
14	0x3eaacad4	0.3335787
15	0xbf607829	-0.8768335
16	0xbdccef89	-0.10006625
17	0xbd4f02b0	-0.050539672
18	0x3e2d0c0b	0.16899125
19	0xbe62e8bf	-0.22159098
20	0x3e89a2c0	0.2688198
21	0xbd8543b5	-0.06507055
22	0xbd6d6cd8	-0.05796513
23	0xbe8a495f	-0.27009103
24	0x3e6abefc	0.22924417
25	0x3ea08204	0.31349194
26	0x3f117691	0.5682154
27	0xbe95e980	-0.2927971
28	0x3dd1cf29	0.10244591
29	0xbe35c841	-0.17752172
30	0xbe386a17	-0.1800922
31	0xbec083eb	-0.37600645
32	0x3ef64f18	0.4810722
33	0x3f00c010	0.50293064
34	0x3d949dc4	0.07256654
35	0x3d658469	0.05603448
36	0xbcddbf55	-0.027068773
37	0x3e36b7fc	0.17843622
38	0x3d4b3c02	0.049617775
39	0xbe480d6f	-0.19536375
40	0x3ce907b5	0.028446058
41	0x3c3a4ebe	0.011371313
42	0x3ddfe82f	0.109329574
43	0x3c80c10a	0.015717048
44	0xbe4f5b37	-0.2024964
45	0xbee8907d	-0.45422736
46	0x3e373142	0.17889884
47	0xbf1fc094	-0.62403226
48	0xbe3b3773	-0.18282871
49	0x3e514db5	0.20439799
50	0x3d0baeb9	0.034102175
51	0xbe879b2e	-0.2648558
52	0xbc3658a6	-0.011129534
53	0x3e4e71ec	0.20160645
54	0x3e1e4da6	0.15459308
55	0xbefaa00b	-0.48950228
56	0x3e95c850	0.2925439
57	0x3e295f93	0.16540365
58	0x3eb96003	0.36206064
59	0x3ea37ad9	0.31929663
60	0x3e69e2ba	0.22840396
61	0xbef437d3	-0.4769884
62	0x3e8cc8f6	0.2749707
63	0x3db595c4	0.08866456
64	0xbd561ca7	-0.05227342
65	0x3e1ef972	0.15524843
66	0xbd313575	-0.04326387
67	0xbe99fb04	-0.30074322
68	0x3d65b589	0.05608133
69	0xbdc7d853	-0.097580574
70	0xbaa5e1af	-0.001265576
71	0x3e9c09a6	0.3047611
72	0x3e905752	0.2819162
73	0x3ebbcfe4	0.36682045
74	0x3e69fa7f	0.22849463
75	0x3d36d90a	0.04464058
76	0xbefdfd04	-0.49607098
77	0xbc8bcb3b	-0.017064681
78	0xbd8cca75	-0.06874553
79	0xbf2e838c	-0.68169475
80	0xbdcbb962	-0.09947468
81	0xbdc8c083	-0.09802344
82	0xbedf749f	-0.43643662
83	0xbe57c1d4	-0.21070033
84	0x3ea34ee8	0.31896138
85	0x3e8b3578	0.2718923
86	0xbf3ea24f	-0.74466413
87	0xbdb84893	-0.089982174
88	0x3e09cf67	0.13458024
89	0x3eb0292e	0.34406418
90	0x3e9aab7b	0.30208954
91	0xbd458873	-0.04822583
92	0x3da5621e	0.08075355
93	0x3e841591	0.25797704
94	0xbf0851f6	-0.5325006
95	0xbebf526d	-0.37367573
96	0x3ef68e62	0.48155504
97	0xbd1d17b3	-0.03835268
98	0x3ed0520f	0.40687606
99	0xbe93ec6d	-0.28891316
100	0x3c5e952d	0.013585371
101	0x3c7028f4	0.0146582015
102	0xbdf1f2da	-0.118138984
103	0xbca39b29	-0.019971447
104	0x3e3d6eab	0.18499248
105	0xbe990370	-0.29885435
106	0xbec79ac0	-0.38985252
107	0xbcbf03b8	-0.023317203
108	0xbcc07c79	-0.023496853
109	0xbe1aeed4	-0.15130168
110	0xbe1020a5	-0.14074953
111	0xbf39fa8b	-0.72647923
112	0x3d4d04d3	0.05005343
113	0xbd0bc269	-0.03412095
114	0x3e220330	0.15821528
115	0x3eca5bf7	0.3952329
116	0xbe379ad1	-0.17930152
117	0x3e9d4b10	0.3072133
118	0x3e3b43b7	0.1828755
119	0x3ea6fc15	0.32614198
120	0xbee15a0a	-0.44014007
121	0x3e98ca92	0.2984205
122	0x3f0eb969	0.55751663
123	0x3daaa250	0.0833174
124	0x3d9da650	0.07697737
125	0x3d714285	0.05890133
126	0x3e405eb7	0.18786131
127	0xbb9c57c3	-0.004771204
128	0xbe611cff	-0.21983717
129	0x3eba9d2c	0.36448038
130	0x3eb8757e	0.3602714
131	0xbedf1a1e	-0.43574613
132	0xbd8000f2	-0.0625018
133	0xbe1f2ab3	-0.15543632
134	0x3e396462	0.18104699
135	0xbe59162a	-0.21199861
136	0xbe1907a9	-0.14944328
137	0x3ef00c71	0.46884492
138	0x3e82fdfe	0.25584406
139	0xbed6cd0a	-0.41953307
140	0xbe2b31d5	-0.16718228
141	0x3e2d54cd	0.1692688
142	0x3e9ffdd1	0.31248334
143	0xbdfbc084	-0.12292579
144	0xbea553b5	-0.32290426
145	0x3e29444e	0.16529962
146	0x3e2e8953	0.17044573
147	0xbd20b443	-0.03923441
148	0x3e899e9b	0.2687882
149	0x3e9394c2	0.2882443
150	0xbf7bb5f1	-0.98324496
151	0x3e7de8eb	0.24795882
152	0xbe0ad64d	-0.13558312
153	0x3cf27775	0.029597977
154	0x3e3489da	0.17630711
155	0xbe1af61f	-0.1513295
156	0x3e5e5799	0.21713103
157	0x3e81cb88	0.25350595
158	0xbee2b525	-0.44278827
159	0xbf809a0f	-1.0047015
160	0xbddc7810	-0.107650876
161	0xbe1e240d	-0.1544344
162	0x3e21d9ee	0.1580579
163	0x3ddcef5f	0.10787844
164	0x3e5c616e	0.21521541
165	0xbdab74a6	-0.08371858
166	0x3e5bf8f0	0.21481681
167	0x3e83cf13	0.25743923
168	0x3e10c5be	0.14137933
169	0x3f2587b7	0.6466021
170	0xbe7b7eff	-0.24560164
171	0xbe0f9040	-0.14019871
172	0xbe445b24	-0.19175392
173	0xbd00a76d	-0.03140967
174	0x3bdb2c58	0.006688636
175	0xbeda1326	-0.42592734
176	0x3e2945d8	0.1653055
177	0xbcd91e27	-0.026503636
178	0x3d28dfc1	0.041229013
179	0xbf13b88d	-0.5770348
180	0xbe1b324f	-0.1515591
181	0x3e0378aa	0.12838998
182	0xbecaeff0	-0.39636183
183	0x3ef2cd0b	0.4742206
184	0x3e238925	0.15970285
185	0x3ea0fe58	0.3144405
186	0x3de37f52	0.11108269
187	0xbd395fbb	-0.04525731
188	0x3e3eb888	0.1862508
189	0xbe62f985	-0.22165497
190	0xbe3ae2ba	-0.18250552
191	0xbebfced0	-0.37462473
192	0xbe78a4ff	-0.24281691
193	0x3f1a3bee	0.60247695
194	0x3cd42262	0.025895301
195	0xbdcd99da	-0.100391105
196	0x3e12e4fd	0.14345165
197	0xbd99d892	-0.07512011
198	0xbd86aeda	-0.06576319
199	0x3c5e904a	0.013584206
200	0xbe001e92	-0.12511662
201	0x3eb586e7	0.35454485
202	0xbd842958	-0.06453198
203	0x3c259f33	0.010108757
204	0x3e0cd272	0.13752154
205	0xbe294bc7	-0.16532813
206	0xbe28578e	-0.1643965
207	0xbf2bffcc	-0.6718719
208	0x3e951d55	0.2912394
209	0x3df14f7e	0.1178274
210	0xbf0a9232	-0.54129326
211	0x3eacc77d	0.33745947
212	0x3e861361	0.2618666
213	0xbc243fbc	-0.010024961
214	0xbf24de34	-0.64401555
215	0xbdb3e1d7	-0.0878331
216	0x3e808c30	0.25106955
217	0xbe1e996c	-0.15488213
218	0x3f2de429	0.6792627
219	0xbdcf8918	-0.101335704
220	0xbe11ecfb	-0.14250557
221	0x3c8664f6	0.016405564
222	0xbdb6b3f1	-0.0892104
223	0xbda89a79	-0.08232588
224	0x3e5b7dc0	0.21434689
225	0x3e61eab8	0.22062194
226	0x3c8b172a	0.016978819
227	0x3ee22f51	0.44176725
228	0xbe491175	-0.19635566
229	0xbdc08184	-0.09399703
230	0xbe395cbb	-0.1810178
231	0xbd40b5a3	-0.047048222
232	0xbe8de341	-0.27712443
233	0x3ef7d561	0.48404983
234	0xbf01c2f9	-0.5068813
235	0xbe26be64	-0.16283566
236	0x3d49ffe3	0.0493163
237	0x3d337650	0.043814003
238	0xbdcf5ae0	-0.10124755
239	0xbe248a3e	-0.1606836
240	0x3f67eb52	0.90593445
241	0x3e66f683	0.22554974
242	0x3e270172	0.16309145
243	0xbe11dc57	-0.14244209
244	0xbef57321	-0.479394
245	0x3dbf4eaf	0.093411796
246	0xbe7b90d4	-0.24566966
247	0x3ee77db3	0.45213088
248	0xbe6e3bcb	-0.23264997
249	0xbdd1ee8d	-0.10250578
250	0x3e6f29c6	0.23355779
251	0xbe998dfb	-0.29991135
252	0x3e80cecc	0.25157773
253	0x3c45ff68	0.012084819
254	0xbe210a26	-0.15726528
255	0xbe42a92d	-0.19009848

transformer.transformer_encoder.layers.0.linear1.bias f4 [64]
0	0xbdef0996	-0.1167175
1	0x3d5c0eff	0.05372524
2	0xbc028f57	-0.007968745
3	0xbe45906c	-0.19293374
4	0x3e71d93f	0.23618029
5	0xbd8036bd	-0.062604405
6	0xbe8b7a71	-0.27241853
7	0xbd8fe010	-0.070251584
8	0xbebfaa01	-0.3743439
9	0xbcc6e422	-0.024278704
10	0x3d9e73f8	0.07736963
11	0xbd89b06a	-0.067231014
12	0xbe570af3	-0.2100027
13	0xbeb4d153	-0.35315952
14	0xbe04958e	-0.12947676
15	0xbe8ff639	-0.2811754
16	0xbdcf7b1b	-0.101309024
17	0xbe479d91	-0.194937
18	0xbdb92d2b	-0.09041818
19	0xbe4a4eca	-0.19756618
20	0xbd675d6e	-0.056485586
21	0xbe831e6e	-0.25609154
22	0xbe565cbb	-0.20933811
23	0xbe13d9ec	-0.144386
24	0xbecdb5c9	-0.40177754
25	0xbdc5f51e	-0.09665893
26	0xbbba171e	-0.0056790253
27	0xbeb8acca	-0.36069328
28	0xbe54fd26	-0.20799693
29	0xbe079b87	-0.13242923
30	0x3dc3639a	0.09540482
31	0xbe963701	-0.2933884
32	0xbe9caa80	-0.3059883
33	0xbdfcf7b8	-0.12351936
34	0xbcd86618	-0.02641587
35	0xbeb7c105	-0.3588945
36	0xbe918c04	-0.28427136
37	0xbe74326e	-0.23847362
38	0xbecee4ff	-0.40409085
39	0xbe94bbb2	-0.2904945
40	0xbe81f629	-0.25383118
41	0xbe01b4ee	-0.12666675
42	0xbeae195e	-0.3400373
43	0xbe601196	-0.21881709
44	0xbecf41e1	-0.4047995
45	0xbdece6d7	-0.11567467
46	0xbef40248	-0.4765799
47	0xbdcb59b6	-0.099292204
48	0xbe39ff5a	-0.18163815
49	0xbe0dea82	-0.13858989
50	0xbe92997e	-0.2863273
51	0xbe36791a	-0.17819634
52	0xbe21eb03	-0.15812306
53	0xbea2e178	-0.31812644
54	0xbe9993cc	-0.29995573
55	0xbe8bae97	-0.2728164
56	0xbaa64bd5	-0.0012687395
57	0xbdf96c98	-0.12178916
58	0x3b728c99	0.0037010072
59	0xbe2f15c5	-0.17098148
60	0xbe4885eb	-0.19582336
61	0xbd75151c	-0.059834585
62	0xbe0db30a	-0.13837829
63	0xbe879e94	-0.26488173

transformer.transformer_encoder.layers.0.linear2.weight f4 [32, 64]
0	0x3d6db9bf	0.05803847
1	0x3da82211	0.08209623
2	0x3d215eeb	0.03939716
3	0x3d7d5922	0.06185258
4	0xbd73dcd6	-0.059536777
5	0xbb2ed03a	-0.0026674406
6	0xbdce4193	-0.10071101
7	0x3b6c41b7	0.0036049911
8	0x3d15bf88	0.03655961
9	0xbd9500bf	-0.07275533
10	0xbda1f427	-0.079078965
11	0x3e73eaba	0.2382001
12	0x3c10b34d	0.008831811
13	0x3e9c2e72	0.30504185
14	0x3de540af	0.11193978
15	0xbec16f34	-0.37780154
16	0x3e100fa1	0.14068462
17	0x3e110927	0.14163648
18	0xbd985242	-0.074375644
19	0x3ea0118b	0.31263384
20	0x3eb347a1	0.35015586
21	0xbd0a7881	-0.033806328
22	0xbe727647	-0.23677932
23	0x3c87ef8e	0.01659372
24	0x3e39ad6e	0.18132564
25	0x3d3add34	0.045621112
26	0xbd758fb2	-0.05995149
27	0x3df8f3c5	0.1215587
28	0xbe456313	-0.19276075
29	0xbcf6e875	-0.030140141
30	0x3f059beb	0.52191037
31	0xbe7563b2	-0.23963812
32	0x3e7184ca	0.23585811
33	0xbca2c62f	-0.019869892
34	0x3e819682	0.2531014
35	0x3e360918	0.17776906
36	0x3dfad1e0	0.12247062
37	0x3dae102f	0.084991805
38	0xbe3357e0	-0.1751399
39	0xbd87193f	-0.06596612
40	0x3ecf12f8	0.4044416
41	0x3dcccc9e	0.09999965
42	0x3f0105d7	0.50399536
43	0x3d95157f	0.07279491
44	0xbeaf4117	-0.34229347
45	0xbec6b26b	-0.38807997
46	0x3e5542cb	0.20826261
47	0xbcb98ff2	-0.022651646
48	0xbcb6e907	-0.022327913
49	0x3d38cb36	0.045115672
50	0xbbbf8605	-0.005844834
51	0x3d831959	0.06401319
52	0xbe89bdac	-0.2690252
53	0xbe214f49	-0.15752901
54	0x3cbe092f	0.023197738
55	0xbe76fbcc	-0.2411949
56	0xbc1e2f06	-0.009654766
57	0x3f25b982	0.6473619
58	0xbe40dd7c	-0.1883449
59	0x3e20f46d	0.15718241
60	0xbd0b69f8	-0.034036607
61	0xbe3722a9	-0.17884316
62	0xbe85602e	-0.26049942
63	0xbc842659	-0.016131567
64	0x3e600b31	0.21879269
65	0xbca92f03	-0.0206523
66	0xbea15e9e	-0.315175
67	0xbdc01063	-0.093781255
68	0xbe0ddd02	-0.13853839
69	0x3daeffa4	0.08544853
70	0x3e16ef3e	0.14739701
71	0xbe7401b8	-0.2382878
72	0xbdc78870	-0.0974282
73	0x3c9116f6	0.017711144
74	0xbd0c600c	-0.034271285
75	0xbe145df7	-0.1448897
76	0x3e1581bd	0.14600272
77	0x3e067c03	0.13133244
78	0x3e0d1131	0.13776089
79	0x3d87ee0f	0.06637203
80	0x3e83db38	0.25753188
81	0x3e9e82ab	0.30959067
82	0x3f067826	0.5252708
83	0x3ee9705c	0.45593536
84	0x3ef89e86	0.48558444
85	0xbd0a6b5b	-0.03379379
86	0x3e316969	0.17325367
87	0x3d3e9c64	0.046535864
88	0xbeb2e1e0	-0.34937954
89	0xbe97c66d	-0.29643574
90	0xbe732460	-0.23744345
91	0xbd267fa7	-0.040649083
92	0xbf04d600	-0.5188904
93	0x3e0b5256	0.13605627
94	0x3e5e9e41	0.21740057
95	0x3d065062	0.032791503
96	0x3f24da42	0.64395535
97	0x3e7b6ffa	0.24554434
98	0x3ee96dcf	0.4559159
99	0x3e2f6915	0.1712993
100	0xbc9d993e	-0.01923811
101	0x3cd5e74f	0.026111273
102	0xbd5108c6	-0.051033758
103	0xbedfe5b8	-0.4372995
104	0x3f452f33	0.77025145
105	0x3f0e5496	0.5559782
106	0x3ed19606	0.4093477
107	0xbcb767a9	-0.022388296
108	0xbeadcbeb	-0.3394464
109	0x3e3fa746	0.18716154
110	0x3ec35f33	0.3815857
111	0xbcff5746	-0.031169545
112	0x3e8f329c	0.279683
113	0x3c559353	0.013035613
114	0x3e1c239e	0.15247962
115	0xbb0948e0	-0.0020947978
116	0x3e81ffb4	0.25390399
117	0x3ed59a33	0.41719207
118	0x3edd5503	0.4322892
119	0x3cbfd792	0.023418222
120	0x3e888bea	0.26669246
121	0xbec3d0d5	-0.38245264
122	0x3f19e89d	0.60120565
123	0x3e47a9a0	0.194983
124	0x3f61c07a	0.8818432
125	0x3d0bdd67	0.034146693
126	0x3eb8b30d	0.36074105
127	0xbe6a0be3	-0.22856097
128	0x3e3d2195	0.18469842
129	0x3ebef42f	0.37295672
130	0xbe2368a5	-0.15957887
131	0x3cbd10d6	0.023079317
132	0xbe854485	-0.2602884
133	0x3e68ea4a	0.22745624
134	0x3e9dc636	0.30815285
135	0x3eb3af89	0.3509486
136	0x3f1b063b	0.6055638
137	0x3ea3d445	0.31997886
138	0x3d766c16	0.060161673
139	0x3dcade01	0.09905625
140	0x3eb2b4a2	0.34903437
141	0x3e7dd244	0.24787241
142	0xbb647495	-0.0034859527
143	0x3e4c7add	0.19968744
144	0x3dd5bc7e	0.10436343
145	0x3e672dfe	0.22576138
146	0x3ed6845a	0.4189785
147	0xbec32253	-0.38112125
148	0x3d60c943	0.054879438
149	0x3e5f0704	0.2178002
150	0x3de02821	0.10945154
151	0xbbca35f7	-0.006170984
152	0xbf2d374f	-0.6766252
153	0x3cc87314	0.024468936
154	0x3e847c74	0.258762
155	0x3ea3c941	0.31989482
156	0xbda2bf42	-0.07946636
157	0x3e398cba	0.18120089
158	0x3de16c1d	0.11006949
159	0x3e99e77b	0.30059418
160	0x3f026724	0.5093863
161	0x3f0668a0	0.52503395
162	0x3f0ca53f	0.54939646
163	0xbe42b85e	-0.19015643
164	0x3df6694e	0.12031804
165	0x3e1262ef	0.14295553
166	0x3ede6dba	0.4344309
167	0xbd5d5e04	-0.05404474
168	0x3ec31ad4	0.38106406
169	0x3eec1870	0.46112394
170	0x3f5b16f4	0.855819
171	0x3db49239	0.08816952
172	0x3f25bd61	0.64742094
173	0x3effaf4e	0.49938434
174	0x3e0e9aef	0.1392629
175	0x3f1203d8	0.57037115
176	0xbe43d973	-0.19125919
177	0x3e427b46	0.18992338
178	0xbea59ac4	-0.3234464
179	0x3f1b0096	0.6054777
180	0x3e10ade8	0.1412884
181	0x3db7d525	0.08976201
182	0x3e817e42	0.2529164
183	0x3ea6f284	0.326069
184	0x3e1bbd7c	0.15209001
185	0xbcb03985	-0.021511802
186	0x3e8e61a6	0.27808875
187	0xbe83c3d1	-0.25735334
188	0xbc28b0b3	-0.010296035
189	0x3dcb0db7	0.09914725
190	0xbd74828b	-0.059694808
191	0x3d125397	0.03572425
192	0x3d49f0a8	0.049301773
193	0xbe6c7fa1	-0.23095562
194	0x3e19ed5b	0.1503195
195	0xbdffaf40	-0.12484598
196	0xbf1ca167	-0.6118378
197	0x3d9ff3e2	0.07810189
198	0x3da4bf5f	0.08044314
199	0x3ebb4663	0.36577138
200	0x3e857c51	0.26071408
201	0x3bc2c28d	0.0059436024
202	0x3e107d5f	0.14110325
203	0xbd9e308a	-0.07724102
204	0x3e39a3e7	0.1812893
205	0x3e77800e	0.24169943
206	0xbe918da6	-0.28428382
207	0x3e87752f	0.2645659
208	0x3ea588b4	0.3233086
209	0xbc823e76	-0.015898924
210	0x3e5516a0	0.20809412
211	0x3efcb8a2	0.49359614
212	0x3e0a0437	0.1347817
213	0xbc207e72	-0.009795772
214	0xbcce274b	-0.02516522
215	0x3ed2e621	0.411912
216	0xbe617db9	-0.22020616
217	0xbcd5023f	-0.026002048
218	0x3e327d3f	0.1743059
219	0x3e8b37dc	0.27191055
220	0x3d1de473	0.038547944
221	0x3dfdf159	0.12399549
222	0x3c82c3c4	0.015962489
223	0x3d4d16ce	0.050070576
224	0xbd95b5c1	-0.073100574
225	0x3e32f229	0.1747519
226	0x3e265785	0.16244324
227	0xbe69262b	-0.22768466
228	0x3ce165a3	0.027514284
229	0x3e940a28	0.28914
230	0x3dbd1a4a	0.0923353
231	0x3da3bb8d	0.07994757
232	0xbe6b1c35	-0.22959979
233	0x3eea1fb7	0.45727322
234	0xbe718f90	-0.23589921
235	0x3e1f16f9	0.15536107
236	0xbccda7c6	-0.025104415
237	0xbdb81609	-0.08988578
238	0x3ef5e941	0.4802952
239	0xbe54ff8b	-0.20800607
240	0xbe6abce3	-0.22923617
241	0x3e378dad	0.17925139
242	0x3e06f7a6	0.13180408
243	0x3e9ce483	0.3064309
244	0xbe44b845	-0.19210918
245	0xbe58bbd6	-0.21165404
246	0xbdccfbab	-0.10008939
247	0x3e1455af	0.1448581
248	0xbe6daf89	-0.23211493
249	0xbea1ae58	-0.31578326
250	0x3eb0dfd7	0.34545776
251	0x3bd564be	0.0065122535
252	0x3df296b8	0.118451536
253	0xbe7e83d5	-0.24854977
254	0xbe4679fd	-0.19382472
255	0x3d5d2728	0.05399242

transformer.transformer_encoder.layers.0.linear2.bias f4 [32]
0	0xbc96f39f	-0.018426714
1	0x3db0dc84	0.0863581
2	0x3d7769a8	0.060403496
3	0xbe12acd8	-0.14323747
4	0x3dc5b004	0.09652713
5	0x3e826590	0.2546811
6	0x3d881211	0.06644071
7	0xbe1bf6d5	-0.15230878
8	0xbd4f8aeb	-0.050669592
9	0x3ec5caf0	0.38631392
10	0xbdeaf3eb	-0.11472305
11	0xbda2f037	-0.079559736
12	0x3e17977d	0.14803882
13	0xbe6d397f	-0.23166464
14	0xbde796a8	-0.11308032
15	0xbe67e4b0	-0.22645831
16	0x3d806760	0.06269717
17	0x3e5dac52	0.21647766
18	0x3e12c9ee	0.14334843
19	0x3dab1e6d	0.08355413
20	0x3d202362	0.039096244
21	0x3e80c36e	0.251491
22	0xbe23c168	-0.15991747
23	0xbcc8dbb9	-0.024518834
24	0xbe2d6feb	-0.16937225
25	0xbd98e0a0	-0.07464719
26	0xbe690327	-0.22755109
27	0x3dae8b59	0.08522672
28	0xbde99acf	-0.114064805
29	0xbc789158	-0.015171371
30	0xbca6520e	-0.020302799
31	0xbbb18c66	-0.005418348

transformer.transformer_encoder.layers.0.norm1.weight f4 [32]
0	0x3e833b28	0.2563107
1	0x3f70b38f	0.94023985
2	0x3f5a22af	0.8520917
3	0x3f1a4920	0.6026783
4	0x3e9267e7	0.28594896
5	0x3dc8db69	0.09807474
6	0xbbd3bc30	-0.0064616427
7	0x3fb42ae9	1.4075595
8	0x3f43786f	0.7635564
9	0x3f5e7603	0.8689882
10	0x3f88fb20	1.0701637
11	0x3f5207ee	0.8204335
12	0x3f75c045	0.95996505
13	0x3f734524	0.95027375
14	0x3f06c3ff	0.52642816
15	0x3fa3b2b4	1.2788911
16	0x3fd5a70a	1.6691601
17	0x3f751a96	0.9574369
18	0x3e6107d9	0.2197565
19	0x3f8c5418	1.0963163
20	0x3f612ff5	0.879638
21	0x3e3f4c67	0.18681489
22	0x3f911707	1.1335152
23	0x3fe15fa1	1.7607309
24	0x3ef6f57c	0.48234165
25	0x3f19de05	0.601044
26	0x3f6ad1dd	0.91726476
27	0x3e50baa5	0.20383699
28	0x3f4808ff	0.78138727
29	0x3fa5dcdd	1.2958027
30	0x3d164166	0.036683463
31	0x3f932c07	1.1497811

transformer.transformer_encoder.layers.0.norm1.bias f4 [32]
0	0x3dc12def	0.09432589
1	0xbebe571f	-0.37175843
2	0xbe258394	-0.16163474
3	0xbcf12c33	-0.029440021
4	0xbcb037ae	-0.021510925
5	0xbd21b1bd	-0.039476145
6	0x3c0e534a	0.00868685
7	0xbe45242f	-0.19252084
8	0x3d964f76	0.07339375
9	0xbe9fa39f	-0.3117952
10	0x3de1d98e	0.110278234
11	0xbd3b1c5c	-0.045681342
12	0xbe0d5e89	-0.13805594
13	0x3def1dab	0.116755806
14	0xbd1287e4	-0.035774127
15	0x3e9b727d	0.30360785
16	0xbe207f64	-0.15673596
17	0xbef28992	-0.47370583
18	0xbbcdd5e8	-0.006281603
19	0x3dfb76b2	0.12278499
20	0xbd8aff01	-0.067869194
21	0xbb738710	-0.003715936
22	0x3e86e40b	0.26345858
23	0x3d06e534	0.03293343
24	0x3e06ea51	0.13175322
25	0x3c486293	0.012230533
26	0xbee843a2	-0.453641
27	0x3ddf2b71	0.10896958
28	0xbd7ffae2	-0.06249512
29	0x3e30d05e	0.17266986
30	0x3da493e5	0.08036021
31	0x3e92ae4d	0.28648606

transformer.transformer_encoder.layers.0.norm2.weight f4 [32]
0	0x3ef6f6e5	0.4823524
1	0x3f542130	0.8286314
2	0x3eaaadea	0.3333581
3	0x3e9df037	0.30847332
4	0x3f3bf7b5	0.73424846
5	0x3e4bf774	0.19918615
6	0x3e3b5684	0.18294722
7	0x3f96d293	1.1783012
8	0x3f604c7f	0.87616724
9	0x3f1dc46f	0.6162786
10	0x3f5b9588	0.8577504
11	0x3f7c8e88	0.98654985
12	0x3f6f39c1	0.934475
13	0x3edd18a1	0.43182853
14	0x3f23e43b	0.6402013
15	0x3f3cd204	0.7375796
16	0x3f7dab6b	0.9908969
17	0x3e868c92	0.26279122
18	0x3eaf1e2e	0.34202713
19	0x3ed3c672	0.4136234
20	0x3f31f4a3	0.6951391
21	0x3ed7c2e6	0.42140883
22	0x3f0ad52c	0.54231524
23	0x3f94720a	1.1597302
24	0x3f2465c8	0.64217806
25	0x3f1771e0	0.59158134
26	0x3f23dca4	0.64008546
27	0x3ed879e6	0.422805
28	0x3f3c487d	0.7354811
29	0x3f1e863a	0.61923563
30	0x3e9a37fb	0.30120835
31	0x3f25f20c	0.6482246

transformer.transformer_encoder.layers.0.norm2.bias f4 [32]
0	0x3d5932b5	0.053026874
1	0x3d9e765f	0.07737421
2	0x3dcc637b	0.09979912
3	0x3de75fc6	0.11297564
4	0xbc787411	-0.015164391
5	0xbded8297	-0.11597174
6	0xbbe50a35	-0.006989742
7	0xbe3b2b33	-0.18278198
8	0x3d7f2c70	0.06229824
9	0xbde81485	-0.11332039
10	0xbd9f6ad3	-0.07784047
11	0x3da2aabb	0.079427205
12	0x3db91158	0.09036511
13	0x3d2025fb	0.03909872
14	0xbe83e682	-0.257618
15	0xbe70e4e7	-0.2352482
16	0x3e51a2fd	0.20472331
17	0x3ef31f76	0.4748494
18	0xbdf528a1	-0.1197064
19	0x3e095c88	0.13414204
20	0xbe01f226	-0.12690029
21	0x3e1ec34e	0.1550419
22	0x3c5832bc	0.01319569
23	0x3cf9d8c4	0.03049887
24	0xbdb11da7	-0.08648234
25	0xbe244dfa	-0.1604537
26	0xbde3e78f	-0.11128151
27	0xbd322880	-0.043495655
28	0xbeb62a62	-0.3557921
29	0x3daef64e	0.08543073
30	0x3e30b915	0.17258103
31	0x3e4938ad	0.19650526
