models/ev_hybrid_cnn_model.pt (torch, 51085 bytes, 17 tensors)

conv.0.weight f4 [32, 1, 2]
000000 bd 2b 59 3c 9c 11 61 bf d7 3f 33 3f 43 5b 78 3d
       0.013255057 -0.87917495 0.70019287 0.06063391
000010 64 38 81 3e fd b8 af be 05 3c ab be 73 7f d1 3e
       0.25238335 -0.34320822 -0.3344423 0.4091755
000020 f0 bf af bd 03 a6 89 bf b9 2b 12 3f 60 ec 54 bf
       -0.08581531 -1.0753788 0.57097965 -0.8317318
000030 fe ed 9d 3e 10 57 d8 bd 76 09 54 3b 9d 2b a6 3d
       0.30845636 -0.10563481 0.0032354272 0.08113787
000040 fc ff 9d bf ad 3c 7c 3e fe c3 27 be 64 93 1f 3f
       -1.2343745 0.24632521 -0.16383359 0.62334275
000050 11 58 f3 be d9 b4 61 bd 4d 60 12 3f b1 c7 0a bf
       -0.47528127 -0.05510411 0.57178193 -0.54210955
000060 ee 40 06 3d f7 d1 53 be 10 b7 d4 3e cf 79 7f bf
       0.032776766 -0.20685564 0.41545916 -0.9979524
000070 50 84 96 bf 05 23 2d 3e c4 59 8c be bc 0d 9c 3e
       -1.1759129 0.1690789 -0.27412236 0.30479228
000080 a4 b5 79 3c f8 fa 2c bc 02 fe bd 3e 24 0d 50 be
       0.01524106 -0.0105578825 0.37107855 -0.20317513
000090 06 87 44 bf 1f f3 e6 3e 47 77 33 bf a9 b9 43 3f
       -0.7676853 0.45107362 -0.7010388 0.7645517
0000a0 bb f6 62 bf e4 f0 f8 3d 7d 13 bf be c8 aa 0b 3f
       -0.8865773 0.12155321 -0.37319556 0.54557467
0000b0 34 dc 47 bf 76 70 4e 3f ab 8a 05 3f c9 e7 90 3d
       -0.7807038 0.8064035 0.52164716 0.070754595
0000c0 60 bf 91 3e 57 14 14 be df 75 15 3f 90 fa dd be
       0.2846632 -0.14460884 0.5838298 -0.43355227
0000d0 07 ea 21 bd 14 07 0d 3f 6d af 11 3f c8 7f 66 bf
       -0.039529826 0.55088925 0.56908303 -0.9003873
0000e0 c7 43 d9 3d 81 b9 6e 3e 78 a5 9a be 6b 7e a6 3e
       0.106086306 0.23312952 -0.30204368 0.32518324
0000f0 55 73 e5 3e 9c c4 c1 be 09 cc 23 bf b7 53 c9 3d
       0.44814554 -0.37845314 -0.6398321 0.098304205

conv.0.bias f4 [32]
000000 d0 6e 83 be af 3d b9 bd 15 3b 4a be b5 4c d2 3e
       -0.2567048 -0.09044968 -0.197491 0.41074148
000010 77 9b 81 3d 41 08 5f 3d 0b 77 b6 bf cd 30 3d be
       0.06328481 0.05445123 -1.4255079 -0.18475647
000020 df 01 ac be 0f 90 b1 3e d8 b1 a5 bf 8d b4 55 3f
       -0.33595178 0.3468022 -1.2944899 0.83478624
000030 90 87 69 bf 1c 73 f0 3e d6 04 51 3e af 4f 50 be
       -0.91222477 0.4696282 0.20412001 -0.20342897
000040 58 58 28 bf 50 2b f2 3a 13 0d ce 3e 0e d3 99 3e
       -0.657598 0.0018476043 0.4024435 0.30043834
000050 07 04 61 bf 9d 1f 2c 3f b3 ba 60 3e 55 f1 fc 3c
       -0.8789677 0.6723574 0.2194622 0.030876795
000060 e1 e7 a2 bf ae 72 55 be 53 dc 65 bf 94 ba a3 be
       -1.2727014 -0.20844528 -0.89789313 -0.31978285
000070 6d 17 80 bf d8 50 02 3f 00 34 ee 3d 8e 3b 5c bf
       -1.0007149 0.5090461 0.11631012 -0.86028373

transformer.transformer_encoder.layers.0.self_attn.in_proj_weight f4 [96, 32]
000000 aa 93 2c 3e cd 5a c3 bc 53 18 51 3d da 2e c3 bd
       0.16853204 -0.023847008 0.051048588 -0.095304206
000010 4a 61 d1 bd 40 27 d6 3c b4 3f 50 be 13 55 a1 3c
       -0.102236345 0.026141763 -0.20336801 0.019693887
000020 9b 05 1c bd e2 06 c9 bd 2a 7c 30 be f9 ff b2 3d
       -0.038091283 -0.09815766 -0.17234865 0.08740229
000030 0b 3b 17 bd 03 8f 47 be 1a d6 25 3e 4f 3f 46 be
       -0.036921542 -0.19488148 0.16194955 -0.19360088
000040 6a 16 53 bd 5d 36 41 bd 36 91 24 bc c1 42 22 3e
       -0.051535048 -0.047170985 -0.010044387 0.15845777
000050 d0 c3 9d 3d 97 9a 39 bd 8c 6e 80 bc e4 73 85 3c
       0.07703364 -0.045313444 -0.015677713 0.016290613
000060 f9 ba 58 bd 95 a6 08 3d c7 3e 7f bd 99 5d 42 3c
       -0.052912686 0.03336199 -0.06231573 0.011863136
000070 c6 bd 58 be e8 47 0c bb a9 2f 32 be 7e db 25 ba
       -0.21166143 -0.0021405164 -0.17400993 -0.00063269574
000080 e0 c7 fb bd 00 c7 f7 3c e7 99 41 bd f0 df 87 bd
       -0.122939825 0.030246258 -0.047265913 -0.066345096
000090 ff e5 42 3e 1f 02 3f 3d 83 4e 3b be c6 17 05 3e
       0.19033049 0.046632882 -0.18291669 0.1299735
0000a0 61 09 e2 3c f2 11 8a bd 6b 5e 2e 3e 57 1b 80 3d
       0.027592363 -0.06741704 0.17028205 0.06255215
0000b0 cc 1b 8f bd 6b 99 a5 3d 38 84 c0 3d de e7 40 be
       -0.06987724 0.08085903 0.09400219 -0.1883845
0000c0 68 30 21 be 04 19 32 bd 27 4e d6 3d 30 f4 13 3d
       -0.15741122 -0.043480888 0.10464125 0.036121547
0000d0 5f fc 12 be 79 09 e9 3d 6e 92 48 3c f1 0f f4 3d
       -0.14354084 0.1137876 0.012241943 0.11917103
0000e0 0e 50 19 3d 07 43 05 be 29 47 00 be 8f 45 5d bd
       0.03742986 -0.1301385 -0.12527145 -0.054021414
0000f0 0c a5 07 3e 7d f6 98 3d b4 cc 49 be 6e 46 b0 3d
       0.13246554 0.07468889 -0.19706994 0.086071834
000100 61 cd 5b be 87 56 47 3e 30 80 25 be 07 60 49 3e
       -0.21465065 0.19466601 -0.16162181 0.19665538
000110 f2 43 3b 3e 16 83 9c bd f5 09 55 be 93 dc 4d be
       0.18287638 -0.0764219 -0.2080458 -0.20103674
000120 06 51 21 be 0e 4a bc bc a1 96 34 3e ed d9 1e be
       -0.15753564 -0.02298453 0.17635585 -0.1551282
000130 ae 28 2d 3e ee 3d 18 3e 98 84 f0 3d cd f1 80 bd
       0.1691005 0.14867374 0.1174404 -0.0629612
000140 84 21 25 3d 8f de 50 3e 84 55 98 3d 9c e8 26 3e
       0.040315166 0.203974 0.07438186 0.16299671
000150 35 f6 c2 3d ab dd b1 bd 32 c0 12 3e 32 d5 72 bd
       0.095196165 -0.08684858 0.14331129 -0.05928535
000160 b1 8a 00 bc 95 57 3e 3e 8a 2e 2e bd f5 cd ce 3d
       -0.007845567 0.18588097 -0.04252485 0.10097877
000170 9c 10 58 bd 07 96 b8 3d 81 9b 09 be f2 ca 24 3e
       -0.052750215 0.090129904 -0.13438226 0.16093042
000180 63 a9 8e 3d 89 4d ca bd 1f ab 89 3c fb 19 54 3d
       0.06965902 -0.0987807 0.01680523 0.05178259
000190 f9 98 9b bd 6d 31 8b bd ee 1c 99 3d 2d f7 15 bd
       -0.075975366 -0.067965366 0.07476221 -0.03661268
0001a0 81 b5 d5 3d e2 63 ed 3d 17 51 88 3c 26 7f ff bd
       0.1043501 0.11591317 0.01664023 -0.124754235
0001b0 2f 83 07 3e 9b 1c 35 be 1a 2d 07 3d b7 11 94 bd
       0.13233636 -0.17686693 0.033001997 -0.07229941
0001c0 90 3d 5a 3e d4 9a b8 bd 43 cc 0c be e3 62 5e 3d
       0.21312547 -0.09013906 -0.13749795 0.054293524
0001d0 a3 c7 92 bd fb 31 3b 3e 1f b5 19 be 5e 95 88 bd
       -0.07166984 0.18280785 -0.15010498 -0.066691145
0001e0 48 3c 3d be 4a 04 f6 bd 56 9a 83 bc e8 c7 c3 bd
       -0.18480027 -0.12012537 -0.016064804 -0.095596135
0001f0 5b 29 37 3e af d7 43 3e b6 d0 39 3e 63 d6 be 3c
       0.1788687 0.19125246 0.18146023 0.023295587
000200 d1 d2 ff 3d 94 31 20 3e a6 67 d4 3d 0a 59 2f 3e
       0.12491382 0.15643913 0.10371332 0.1712381
000210 78 73 d0 bd 1f 2e 57 3e 5f f3 58 bd bc de 54 be
       -0.10178274 0.21013688 -0.05296647 -0.20788091
000220 f0 22 1f 3e 06 73 0f be e1 ac 59 3e e5 29 c5 3d
       0.15540671 -0.14008722 0.21257354 0.096271314
000230 88 a7 55 be c2 22 bc bc 09 80 2d bd 52 74 36 3e
       -0.2086469 -0.022965793 -0.042358432 0.1781781
000240 d4 26 53 be 35 0d ec bd a5 46 e8 3d 6c 5e 16 bd
       -0.2062028 -0.115259565 0.113415994 -0.03671114
000250 9f e2 9d bd 7a 49 57 bd a0 38 5b 3e 05 27 1d be
       -0.0770924 -0.052560307 0.2140832 -0.15346916
000260 02 ea 8a bd f3 26 ef bd c7 54 8f bd 49 62 62 3d
       -0.06782915 -0.11677351 -0.06998592 0.055269513
000270 6f d2 31 3d a8 59 78 3d 84 25 bc 3b 65 fd 84 bd
       0.043413576 0.060632378 0.005741777 -0.06493644
000280 ac bb 1d 3e 33 f4 2b 3e 96 17 56 be d0 14 f1 3c
       0.15403622 0.16792373 -0.20907435 0.02942887
000290 1b fc 98 bd 4e 72 3e be e6 2f 07 3e 01 4b 28 be
       -0.0746996 -0.18598291 0.13201866 -0.16434862
0002a0 c1 1a 48 3e 67 01 4c 3e 76 51 57 bd 02 dc 50 be
       0.19541456 0.1992241 -0.05256792 -0.20396426
0002b0 48 e6 61 3d 2a 3c 52 3e b1 fd 2c be 7c 32 d9 bd
       0.055151254 0.20530763 -0.1689365 -0.10605332
0002c0 15 29 40 be 21 42 b3 3d 1d a0 ff bd 62 09 b4 3c
       -0.18765672 0.087528475 -0.12481711 0.02197713
0002d0 ae 9c fb 3d cc bd 5a be df ee 16 3e 57 5e 50 3e
       0.12285744 -0.21361464 0.1473956 0.20348488
0002e0 cf 67 65 bd 8e 75 5d be 8f ce 1e be 76 06 1a be
       -0.056007203 -0.21626875 -0.15508483 -0.15041527
0002f0 17 72 fc 3d 0a ad 54 bd 53 be ae bd c3 d0 44 be
       0.123264484 -0.051922835 -0.08532395 -0.19220261
000300 86 9e 4a be be da 14 bc 70 f3 0f 3e 00 ea 06 be
       -0.19787034 -0.009085355 0.14057708 -0.13175201
000310 96 6d ce 3d 83 b0 ea 3d ea 82 e3 bc 6a b5 0f be
       0.100794956 0.11459448 -0.027772386 -0.14034048
000320 12 94 46 3e 0d 9f 87 3d d9 20 31 3d 5a 85 4f bd
       0.19392422 0.066221334 0.043244217 -0.050664283
000330 4d e6 d0 3d b9 2f b5 bc bc 0f 48 be fe 00 c3 3d
       0.102001764 -0.022117482 -0.19537252 0.095216736
000340 65 26 53 3e 7b 05 e4 bd c0 5b 95 bd 80 6d 0f be
       0.20620115 -0.11133858 -0.072928905 -0.14006615
000350 f4 67 be bd 86 a3 7a bd bc 94 27 3e eb 7b 93 bd
       -0.09297171 -0.061191104 0.16365331 -0.0720137
000360 7d 53 2d be 8a 0d 88 3c 77 1a 39 3e 38 43 53 be
       -0.1692638 0.016608018 0.18076502 -0.2063111
000370 9b 3b cc 3d d0 a6 c4 3d 17 2e 46 3e 4b 0c 77 3d
       0.09972306 0.096021295 0.1935352 0.060314458
000380 f3 6e 40 3e 6b 9f 18 3e 0d 9b 29 bb 6a 8e 5c 3e
       0.18792324 0.14904563 -0.002587977 0.21538702
000390 43 f8 1c be 61 12 a9 bd 7e 95 c4 3d bf 30 1e be
       -0.1532908 -0.082554586 0.09598826 -0.15448283
0003a0 79 2e 12 3e 39 d2 4e 3d 53 f7 f5 3d 6b 84 e1 bd
       0.1427554 0.050493453 0.12010064 -0.11011585
0003b0 f8 0f 9c 3c 0b d8 3b be cf b3 52 be 53 5e 18 3e
       0.019050583 -0.18344133 -0.20576404 0.14879732
0003c0 f0 94 de bd 63 6c 2b be a9 81 84 3d 8a 91 0d bd
       -0.10868251 -0.16740565 0.06470043 -0.034562625
0003d0 3f b4 dd bd 36 87 fc 3d 66 87 df 3d eb 08 08 3e
       -0.10825395 0.12330477 0.10914497 0.13284652
0003e0 b2 cb cb bc de 73 36 be 0f 52 1c be 22 5f 11 3e
       -0.024877403 -0.17817637 -0.15265678 0.14196447
0003f0 36 c1 95 3a 7d a8 24 be 48 37 65 bc 20 86 26 3d
       0.0011425379 -0.16079898 -0.013990231 0.040655255

transformer.transformer_encoder.layers.0.self_attn.in_proj_bias f4 [96]
000000 00 00 00 00 00 00 00 00 00 00 00 00 00 00 00 00
       0.0 0.0 0.0 0.0
000010 00 00 00 00 00 00 00 00 00 00 00 00 00 00 00 00
       0.0 0.0 0.0 0.0
000020 00 00 00 00 00 00 00 00 00 00 00 00 00 00 00 00
       0.0 0.0 0.0 0.0
000030 00 00 00 00 00 00 00 00 00 00 00 00 00 00 00 00
       0.0 0.0 0.0 0.0
000040 00 00 00 00 00 00 00 00 00 00 00 00 00 00 00 00
       0.0 0.0 0.0 0.0
000050 00 00 00 00 00 00 00 00 00 00 00 00 00 00 00 00
       0.0 0.0 0.0 0.0
000060 00 00 00 00 00 00 00 00 00 00 00 00 00 00 00 00
       0.0 0.0 0.0 0.0
000070 00 00 00 00 00 00 00 00 00 00 00 00 00 00 00 00
       0.0 0.0 0.0 0.0
000080 00 00 00 00 00 00 00 00 00 00 00 00 00 00 00 00
       0.0 0.0 0.0 0.0
000090 00 00 00 00 00 00 00 00 00 00 00 00 00 00 00 00
       0.0 0.0 0.0 0.0
0000a0 00 00 00 00 00 00 00 00 00 00 00 00 00 00 00 00
       0.0 0.0 0.0 0.0
0000b0 00 00 00 00 00 00 00 00 00 00 00 00 00 00 00 00
       0.0 0.0 0.0 0.0
0000c0 00 00 00 00 00 00 00 00 00 00 00 00 00 00 00 00
       0.0 0.0 0.0 0.0
0000d0 00 00 00 00 00 00 00 00 00 00 00 00 00 00 00 00
       0.0 0.0 0.0 0.0
0000e0 00 00 00 00 00 00 00 00 00 00 00 00 00 00 00 00
       0.0 0.0 0.0 0.0
0000f0 00 00 00 00 00 00 00 00 00 00 00 00 00 00 00 00
       0.0 0.0 0.0 0.0
000100 02 9d 90 3d bf 69 05 bd 37 85 71 bd da af 00 be
       0.07061197 -0.03257155 -0.058964934 -0.12567082
000110 dd 67 86 3d 97 b0 72 3d 33 3e b7 3d 1d e7 40 bd
       0.06562779 0.05925044 0.089474104 -0.047095407
000120 e8 45 62 bb 96 76 a6 3d 3b 4e c5 3d a5 30 cf 3c
       -0.003452653 0.08128087 0.09634062 0.02529175
000130 a8 f3 59 3d f1 98 88 3d 79 1c e1 bd b6 0f 89 bd
       0.053210884 0.06669796 -0.10991759 -0.0669245
000140 cc 86 15 3c d1 08 87 3d be 3e 9e bc 06 f1 ae bd
       0.009126376 0.065934785 -0.019317027 -0.08542065
000150 7e c3 73 bd 63 78 5f bd 22 6b 9d 3c 4e a6 cb bc
       -0.059512608 -0.05455817 0.019216124 -0.024859574
000160 2c d6 f3 bd 7b 5a ab 3d 17 e7 aa bc 31 a1 0a be
       -0.119060844 0.08366867 -0.020862145 -0.13538052
000170 07 6c 8a 3d 43 77 15 bd ac 66 aa 3b 1d 36 53 bc
       0.06758886 -0.03649069 0.0052002277 -0.01289132

transformer.transformer_encoder.layers.0.self_attn.out_proj.weight f4 [32, 32]
000000 40 ff 26 be 53 c6 7f 3e db 3c b0 3d 91 86 c5 3d
       -0.16308308 0.24977998 0.08605357 0.09644807
000010 a7 d9 db bd bc 14 85 3a 19 28 a8 3d d7 5b dc 3d
       -0.10734873 0.0010153274 0.08210773 0.107597046
000020 41 5f d3 3d 4a c6 6e bb b8 54 17 3e 55 94 3a bd
       0.103209026 -0.0036434107 0.14778411 -0.045551617
000030 15 4e ee 3d 17 bf 53 bd 9f 2c e1 bd d5 31 7e 3e
       0.11635987 -0.05169591 -0.10994839 0.24823697
000040 6b 67 71 be a6 6c f2 3d a8 3c b4 3d f5 c7 64 3e
       -0.23574607 0.11837129 0.08800632 0.22341903
000050 01 7e 02 be 17 a1 e5 3c 52 86 3c 3d 7c 9d b8 3d
       -0.12743379 0.028030915 0.046026535 0.09014413
000060 69 c8 3b 3d 18 ba 9f bd 91 95 88 bf b8 0d 3f 3d
       0.045845423 -0.077991664 -1.0670644 0.046643943
000070 fe f0 6d bd 1d 29 cd 3d b4 bd a4 bd 01 21 4f 3e
       -0.058091156 0.10017607 -0.080439955 0.20227434
000080 36 8a 96 bb d7 b0 42 be 3f 69 06 bd 6c d1 a0 bd
       -0.0045941127 -0.19012772 -0.032815214 -0.07852444
000090 e3 ad 5d bd 85 2d 9e bd a4 c1 53 3d b5 25 26 3e
       -0.05412091 -0.07723526 0.051698342 0.16225322
0000a0 0c 9f fa bd bd 47 68 3c ac b9 25 3c 9e a8 9d bb
       -0.12237367 0.01417726 0.010115068 -0.0048113605
0000b0 70 73 22 3e 5f b7 0b bd 8f b7 a7 bd 80 e7 04 3c
       0.15864348 -0.034110423 -0.08189308 0.0081118345
0000c0 dc c9 a3 bc 6c 1b db bc 74 1e 02 3e 7f 79 62 3d
       -0.019993715 -0.026746474 0.1270693 0.05529165
0000d0 a8 6f 32 3e 28 4a 89 bd 21 ba 17 bd ba de 83 bd
       0.17425406 -0.06703597 -0.03704274 -0.06438966
0000e0 21 ed 65 be 5b db 59 bc 7f ec 12 3f 81 a7 b2 3d
       -0.22453739 -0.013296927 0.57392114 0.08723355
0000f0 5c 17 6f 3c 3f 91 73 be 68 91 f2 bb 4a 93 01 3e
       0.014592972 -0.23785876 -0.0074025877 0.12653843
000100 69 43 20 3e b0 8c ee bd b0 bf 9e ba 32 25 8d 3e
       0.15650715 -0.11647928 -0.0012111571 0.2756744
000110 a7 80 a3 bd 25 19 89 3e 2a 1b 4c 3e 42 81 42 be
       -0.07983523 0.26776996 0.19932237 -0.1899462
000120 5f f3 ba bd 95 74 a6 3d aa a0 03 be 2d 7d 2f 3c
       -0.091284506 0.08127705 -0.12854257 0.010710997
000130 28 79 02 bc d5 78 0a 3e 59 10 81 be ab a2 98 bb
       -0.007963456 0.13522656 -0.25207785 -0.0046580634
000140 ef cf 8d bc 99 a8 6e 3d fa f2 3b bd ef 72 ea bd
       -0.017311065 0.058266256 -0.045886017 -0.11447703
000150 ee 60 8b be 3c c4 91 be 7b 8b 30 bc 38 39 c0 be
       -0.2722239 -0.28470027 -0.010775442 -0.37543654
000160 6b 14 c4 be 2b 44 ef 3d f6 5d 1f 3d ec d9 3e bd
       -0.38296828 0.11682924 0.038907968 -0.046594545
000170 33 4a 6b bd 16 ff 9f 3d 12 c4 97 bd c2 82 b0 3e
       -0.05744381 0.07812326 -0.07410444 0.3447476
000180 dd 79 ce bd de 3d ef bb 5d 26 0f bc 8b ee 1b 3d
       -0.10081837 -0.0073010763 -0.008737174 0.03806929
000190 b1 d2 be bd 2a b6 1c be 9c 18 c6 bd ad 73 ec 3d
       -0.0931753 -0.15303865 -0.096726626 0.11545501
0001a0 1b 65 71 bd a4 c7 d4 3d 3f 46 81 bd b5 06 53 3d
       -0.058934312 0.10389641 -0.063122265 0.05152007
0001b0 be 0d 02 3e 19 89 a9 3d 65 9c 8c 3d ea 6e b7 bb
       0.12700555 0.082781024 0.068657674 -0.005597939
0001c0 3d 0c 8a 3a 30 83 5a 3d ab b9 9e 3c 29 29 93 3d
       0.0010532212 0.053347766 0.019375643 0.07185585
0001d0 a7 22 81 bc 06 7e d8 bb 18 e1 72 3e b8 e6 ef 3c
       -0.015763594 -0.00660682 0.23718679 0.02928482
0001e0 3b 13 f2 3d 7b 46 bd 3d de 3e ec bc 62 2a b2 3d
       0.11820074 0.09241959 -0.028838571 0.0869949
0001f0 d6 95 4c 3b 7c 32 ec 3d 67 b1 c7 bc 89 35 0f bd
       0.003121724 0.11533067 -0.024376584 -0.034963164
000200 e6 b1 b4 be 58 4c 04 3f e4 53 02 3e 07 ac c8 bd
       -0.35291976 0.5167899 0.12727314 -0.097984366
000210 b7 8e 08 3d 81 88 92 bd 67 fb 1c be 47 76 83 3e
       0.03333923 -0.07154942 -0.15330277 0.25676176
000220 1e 51 6f 3d 67 e8 d6 3d 3e 21 9c be c5 71 f9 3d
       0.05842697 0.10493546 -0.30494112 0.12179903
000230 d3 3c 93 bd 6e ae 0f 3d 0a 75 e4 3c 0d a4 cc 3c
       -0.07189336 0.03507846 0.02788784 0.02498057
000240 d0 a8 b4 3d bc ab ce bc e3 8a 7c bd e8 ce e6 bd
       0.08821261 -0.025228374 -0.06165589 -0.11269933
000250 44 7d f4 bd 02 aa 30 3e 3c 5c 2c 3e 93 09 43 3f
       -0.11937955 0.17252353 0.1683206 0.76186484
000260 f9 41 20 3f 2d b3 a2 3b 90 24 8e bd a7 80 fb 3d
       0.62600666 0.004965207 -0.069405675 0.12280398
000270 48 b5 a5 bd 19 9c 12 3f 4d 70 d4 bd 3d e6 ba be
       -0.08091217 0.57269436 -0.10372982 -0.36503783
000280 df 87 68 3d ef 44 a5 3d 6b c5 49 bc 36 f7 2a 3d
       0.0567702 0.08069789 -0.0123151345 0.041739665
000290 c7 53 53 3c 6b 33 9a 3d 86 2d 1f bd e8 1f a0 3d
       0.012898392 0.075293384 -0.038861774 0.07818586
0002a0 09 12 ab bc 77 ec 1e 3c 4e c8 e4 ba 53 cb 2e 3c
       -0.020882623 0.009699932 -0.0017454715 0.010668593
0002b0 72 5f 97 38 25 cd 12 bc ee c7 35 bc 9b 63 d8 bb
       7.218019e-05 -0.008960043 -0.01109503 -0.006603671
0002c0 b3 30 04 3c 7a e1 bf 3c c8 f0 c6 3c 04 06 61 3c
       0.008068251 0.023422945 0.024284735 0.013734344
0002d0 f8 c2 8a bb 42 ae 50 3c 10 dc 47 bd e3 61 94 bd
       -0.004234668 0.012736859 -0.048793852 -0.07245233
0002e0 fb 99 71 3d 3e 73 7a 3c d0 3f 27 bc 02 fe cc bc
       0.058984738 0.015286265 -0.010208085 -0.025023464
0002f0 bd 12 b4 bb 1c ad 28 be 50 38 b5 bc a1 cf 65 bd
       -0.005495398 -0.16472286 -0.022121578 -0.056106213
000300 f7 6b 4a be 12 ef e2 3c 25 8b 92 3d f8 0f 1a 3d
       -0.19767748 0.027701888 0.07155446 0.037612885
000310 6e df c2 3c ef 4b 67 bd 1b 87 81 bd 12 f3 1c 3e
       0.02378818 -0.0564689 -0.063245974 0.15327099
000320 b8 0a 80 bd a1 04 49 bd 15 90 8d bc 59 a8 00 3e
       -0.062520444 -0.04907668 -0.017280618 0.1256422
000330 46 fb 49 3d 0b 41 23 3d af a4 d9 3c 4a e5 14 3d
       0.0493119 0.03985695 0.026567785 0.03635148
000340 28 0b f0 bc 7a a5 1a bd dd 25 54 bd c9 01 b0 3d
       -0.029302195 -0.037755467 -0.05179392 0.085940905
000350 c4 bb 52 3d bc be bf bc ff 7f 15 3d 49 59 e0 3d
       0.0514486 -0.023406379 0.03649902 0.1095453
000360 5a 91 13 3e 2c db 9f 3d 59 38 7d bf 8c 7e d4 3d
       0.14410916 0.078054756 -0.98914105 0.103756994
000370 a1 c0 09 be 66 03 54 be db 81 4b 3c e0 8d a9 3d
       -0.13452388 -0.20704421 0.012421097 0.08279014
000380 83 cf ba be 55 d7 d9 bc be d2 60 3e 6f 5a b6 bd
       -0.36486444 -0.026591936 0.21955392 -0.089039676
000390 61 65 8a 3e d8 4d d6 be d8 a5 f2 bd ad b1 c6 3e
       0.2703047 -0.41856265 -0.118480384 0.3880743
0003a0 aa a9 f4 3d 7a 0b 23 be 7f af 8f be 12 9e f9 3d
       0.11946423 -0.15922347 -0.2806358 0.12188353
0003b0 dc 90 93 3d de 43 ef bd e1 b1 ac 3e 93 64 84 3d
       0.07205364 -0.116828665 0.3372946 0.064644955
0003c0 f9 63 b8 bd a6 a6 e6 bd 44 2b 78 3d 62 29 28 3e
       -0.09003443 -0.112622544 0.060588136 0.16422036
0003d0 a7 66 26 3e 70 b1 da 3e 97 1d 8e 3e 99 8b 2e 3e
       0.16250096 0.427135 0.2775695 0.1704544
0003e0 04 95 01 3f 52 5c 69 3c e7 ce f2 3e 2c 13 d5 3e
       0.50618005 0.014243202 0.4742348 0.4161619
0003f0 25 36 82 be 17 85 81 3e e1 d2 8d 3d 4e 3f b9 be
       -0.25431934 0.25296852 0.069249876 -0.3618111

transformer.transformer_encoder.layers.0.self_attn.out_proj.bias f4 [32]
000000 66 b4 0a 3d 2e 8f 82 3d 45 ba 94 3d ac 9b 87 bc
       0.033863448 0.063749656 0.072620906 -0.016553722
000010 81 8e e0 bc c4 23 e0 3a 32 bf 12 3e 1c 94 1e 3e
       -0.027411701 0.0017100503 0.14330748 0.15486187
000020 47 b4 14 3d 5f 95 0f 3b 3f ad 94 3d 16 70 8e bc
       0.03630474 0.00219091 0.072596066 -0.017387431
000030 69 e5 c9 bd c1 3c c0 bc 98 6f 4d 3c 77 02 0d 3e
       -0.0985821 -0.02346647 0.012538813 0.13770472
000040 34 31 4f 3e 55 57 15 3d 17 01 9c bb ea 64 d8 3b
       0.20233613 0.03646024 -0.004760872 0.006603827
000050 7a 2a f5 3c 42 af a9 bb 16 12 25 3a 4f aa a9 3c
       0.029927481 -0.005178363 0.00062969455 0.020711092
000060 bc a8 92 3d 96 1c 6a 3d e4 03 df 3c 2f c9 e0 3a
       0.0716109 0.057156168 0.027223535 0.0017149801
000070 f8 64 d9 3d 94 3e 35 bb 40 8f 29 3b 44 1b 5b 3d
       0.106149614 -0.0027655708 0.0025872737 0.0534928

transformer.transformer_encoder.layers.0.linear1.weight f4 [64, 32]
000000 04 4a 7b be 78 f8 c2 3b 0d e0 10 bf 0b c3 5e 3e
       -0.24539953 0.00595003 -0.56591874 0.2175409
000010 51 60 a4 be ec 3e 60 be c5 0a 1c 3d b5 9c 7b be
       -0.32104734 -0.21899003 0.038096208 -0.24571498
000020 f2 93 a9 3e 7a 29 f0 bd 00 d9 13 be bb 1f 1b be
       0.33120686 -0.11726661 -0.14438248 -0.15148823
000030 ba 7c 89 be 97 d3 cd be 3a 83 a8 bd 0d 35 5a 3e
       -0.2685297 -0.40200493 -0.082281545 0.213093
000040 41 6e d4 be 89 e4 14 bd 00 71 47 3e a7 69 31 3e
       -0.41490367 -0.03635076 0.194767 0.1732546
000050 21 87 c5 3e fe 08 88 3e 52 4a dd 3e b5 59 de 3e
       0.38579658 0.2656936 0.43220764 0.43427816
000060 24 30 a0 bd d7 2e 8f bd b3 77 37 be 43 b5 54 be
       -0.07821682 -0.06991356 -0.17916755 -0.20772271
000070 95 3c c8 3d 5c d9 5f 3d 34 d3 9b 3c 44 a4 84 3e
       0.0977718 0.05465065 0.019021608 0.25906575
000080 6b 99 be bc 89 0c 94 bc de 7e af bc a3 dd 5f be
       -0.023266515 -0.018072383 -0.0214228 -0.21861891
000090 8f fb 53 3d 4e 71 0c be ff 72 65 bd ee 80 1f be
       0.051753577 -0.13715097 -0.056017872 -0.15576527
0000a0 7f 66 98 bd db 04 7d 3d 50 10 0b be 0d d6 5e be
       -0.074414246 0.06177221 -0.13580441 -0.21761341
0000b0 e5 ff 8d bd b0 fa 32 bd 49 d4 99 ba fe 9c 72 3e
       -0.06933574 -0.043696105 -0.001173624 0.236927
0000c0 a1 1e f3 3d 4d f5 4b 3e de 84 b4 bd 4f 69 a2 bd
       0.118710764 0.19917794 -0.08814405 -0.07930242
0000d0 c1 a2 80 3e b2 50 1f 3d 3b 5f ba 3b 25 0d e3 bd
       0.2512417 0.038895316 0.005687622 -0.110864915
0000e0 e5 e6 fd 3c 8d df 78 3c 0d 05 28 3d b9 ec e4 39
       0.030993888 0.015190017 0.04102044 0.0004366392
0000f0 2c d4 b9 3d 65 1f 12 3e 62 d3 99 bd 54 57 ea 3c
       0.09073672 0.14269789 -0.07511021 0.028606094
000100 e6 f1 9c 3d 7e e3 a3 be 20 3d 1b bf 82 d8 98 3e
       0.07663326 -0.320095 -0.60640144 0.29852682
000110 f7 e2 98 be 99 40 9d be 19 1c b9 3d 64 86 2f bd
       -0.2986066 -0.30713347 0.09038562 -0.042852774
000120 fa c7 23 3e 34 a1 db bd ef 0f da 3d 36 78 8d be
       0.15994254 -0.107241064 0.1064757 -0.27630776
000130 9c b4 aa be 52 64 24 be b5 ce 31 bd 7e 02 69 3b
       -0.3334092 -0.16053894 -0.04341002 0.0035554464
000140 bc 90 e5 3d 32 17 96 bd d6 c3 2e 3e b3 02 a1 3e
       0.112092465 -0.07328643 0.17066893 0.31447372
000150 2f 5c 5d 3e b0 cf 5c 3e 44 44 40 3e 9c 27 31 be
       0.21617197 0.21563601 0.18776041 -0.17300266
000160 03 ab 3d 3d 22 9c fc 3e 4f b6 09 3d 45 52 46 3c
       0.046305668 0.4933787 0.03362113 0.0121045755
000170 41 83 04 bd 0e 8c e8 bc 28 cf 35 3d b2 0c 3d be
       -0.032351736 -0.028387096 0.044387013 -0.18461874
000180 68 57 05 bd 14 92 31 bd fd 2c 66 bd c3 9d 0c 3e
       -0.03255406 -0.0433522 -0.056195248 0.13732056
000190 be 2a 21 be 24 05 27 3d a9 bb 40 3d ba eb 67 bd
       -0.15738961 0.040776387 0.047053967 -0.05662129
0001a0 a9 2d aa 3d ab fe 0a 3e ae 84 69 bc a2 4b 73 be
       0.0830949 0.1357371 -0.014252825 -0.2375932
0001b0 ce 28 07 bd 7b 15 a4 bd 08 41 47 bd 2b 19 2e 3d
       -0.0329979 -0.080119096 -0.048646003 0.04250447
0001c0 dc b3 7c 3c a3 06 12 bd 2f 76 2d be db a0 14 be
       0.015423741 -0.03565086 -0.16939615 -0.14514486
0001d0 b7 57 76 3d 24 1a f7 bd a5 4c 84 3d 54 e4 9e bd
       0.060142245 -0.12065533 0.06459931 -0.07758394
0001e0 be 54 34 3c 0b a7 2d 3e b0 3d d2 bd d5 46 a4 ba
       0.011006532 0.16958253 -0.10265672 -0.0012533317
0001f0 48 ee fb 3d 1d 27 31 3e c7 46 81 3d 1d 4c bb bc
       0.12301308 0.17300077 0.06312328 -0.022863442
000200 f9 d7 e0 bd d2 a6 ce bd a9 09 02 be ee 85 33 bb
       -0.109786935 -0.10090412 -0.12698998 -0.002739306
000210 4d c8 05 be c2 d3 81 3d 7f b8 60 be 80 c7 3a 3e
       -0.1306469 0.06339218 -0.2194538 0.18240166
000220 62 9c e5 bb 92 c0 77 be 16 12 fb bc 50 09 14 be
       -0.0070071677 -0.24194553 -0.030648272 -0.14456677
000230 2b c9 ce be 5c d6 7d bd 3c 18 20 be 3f 49 31 3e
       -0.40387854 -0.061972007 -0.15634245 0.17313097
000240 2c 5c 58 3e 08 68 89 3d e1 4a 45 be 51 ae c8 3d
       0.21128911 0.067092955 -0.19266845 0.09798873
000250 99 cc af 3c 94 83 4e be 72 1e f7 bc 0d 9f 41 bd
       0.021459864 -0.2016738 -0.030165885 -0.047270823
000260 d7 41 3e bd be 53 c4 3c 3f c3 5b bd b8 d7 99 bd
       -0.04644951 0.023965713 -0.053652998 -0.07511848
000270 7c 2d cf 3d 7c ae 63 bd 0a 25 0c 3e 3c 39 94 3d
       0.10116097 -0.055586323 0.13686004 0.07237479
000280 29 e4 24 be e8 90 0b 3e c7 57 a8 be 1c 74 56 3e
       -0.16102661 0.13629496 -0.3287947 0.2094273
000290 ed e6 ba bd 43 54 4f 3e e0 cc 3f be e5 56 ab bc
       -0.09126077 0.20246987 -0.18730497 -0.020915458
0002a0 de 1a f2 3e 9d 58 a1 bd c4 6e c9 be 28 b8 c9 be
       0.47286123 -0.0787823 -0.3934232 -0.39398313
0002b0 e6 c0 59 be bd 7d 8f be 1b 1f f8 3e 20 02 fa bc
       -0.21264991 -0.28025618 0.48461232 -0.030518591
0002c0 d1 07 8c 3d b1 ef 28 3e 59 c5 26 3e fa a4 39 3d
       0.06837428 0.16497685 0.1628622 0.04532335
0002d0 8a b7 43 3e 45 0a 3e be 23 41 cd 3d c9 e2 3d bd
       0.19112983 -0.18558605 0.100221895 -0.046358857
0002e0 67 b7 5c be a6 37 4d 3d 84 cd 16 bd 88 67 9b bd
       -0.21554337 0.0501019 -0.03681709 -0.075881064
0002f0 4e 0f 48 be 53 02 9e 3e 1f e4 4d bc 8e 3f 8f 3d
       -0.19537088 0.30861148 -0.012566595 0.06994544
000300 78 b4 b3 bb 7f 95 34 3e d8 cc 95 bd 7b f6 92 3d
       -0.00548416 0.17635153 -0.073144615 0.07175919
000310 98 d2 16 be bd 65 b0 bc 3f 25 aa 3d de b9 ca 3d
       -0.14728773 -0.021532888 0.083078854 0.098987326
000320 41 de 4c 3e 57 45 70 bd 47 c7 4a 3e 9e d2 c7 bd
       0.20006658 -0.058659878 0.19802581 -0.09756969
000330 a3 aa 29 be 15 77 b4 be 86 df 46 3d 7c fc 88 be
       -0.16568999 -0.35247102 0.048553012 -0.2675513
000340 fb 01 43 3d d5 3c 1e 3e 5d 1e 97 bd e2 82 0b be
       0.04760931 0.15452893 -0.07378838 -0.13624147
000350 16 03 6b 3e 1a f7 d9 3d 05 1c 5f be 5f 46 fe bd
       0.22950396 0.10642834 -0.21788032 -0.12415766
000360 4f 0a 59 bd 8a 83 63 3e 6f 69 b3 3c 0b 94 6a 3d
       -0.052988347 0.22218147 0.02190086 0.05727009
000370 21 9a 41 3e 68 ca ee 3d 2a 86 40 bc 3d 5d 44 3e
       0.18906452 0.116597 -0.011750737 0.19176193
000380 90 39 63 bd 30 b2 3c bd d5 35 ae be bb f6 ad 3d
       -0.055474818 -0.04606837 -0.34025446 0.08494326
000390 03 7a 49 bd 7d 66 07 be 9f 6f 0a 3e 4e bd 1f 3e
       -0.049188625 -0.1322269 0.13519143 0.15599558
0003a0 4e 45 2a 3e 9e 8e de bd 10 72 4a bd 81 ab 6b be
       0.16628 -0.10867046 -0.049425185 -0.23014642
0003b0 b8 63 80 bd 38 03 cc bd 61 fc ca 3d 8b e2 19 be
       -0.0626902 -0.099615514 0.09911419 -0.15027826
0003c0 85 81 1d 3e a7 7b 29 bd 86 a1 1d 3e cf f7 28 be
       0.15381439 -0.04137769 0.15393648 -0.16500781
0003d0 0e f1 e3 bd 23 d4 59 be 84 26 5b 3e 01 d5 93 3d
       -0.11129962 -0.2127233 0.21401411 0.07218362
0003e0 46 3a bf 3d 9c 49 e9 bb 95 94 c2 bb 20 ff ca 3d
       0.09337287 -0.0071193706 -0.0059381225 0.099119425
0003f0 59 ba dc 3d ea 69 84 bd eb 8a 64 3d a8 09 6e 3d
       0.107777305 -0.06465514 0.055796545 0.058114678

transformer.transformer_encoder.layers.0.linear1.bias f4 [64]
000000 4a e0 13 be 6e 81 61 be ad 5c 85 be ca 73 ff bc
       -0.14441028 -0.2202203 -0.26047269 -0.031183142
000010 4b 72 fb bd 72 5c af bd 7c 53 b8 bd a4 57 84 be
       -0.12277659 -0.085625544 -0.090002984 -0.25848114
000020 ac 57 5c be 51 8d 40 be 32 e0 da bc 2c 4d 5e bd
       -0.21517819 -0.18803908 -0.026718233 -0.054272816
000030 d6 c4 60 bd 9c 45 4d be f8 c9 40 be 5d bf 3f be
       -0.054875217 -0.20046085 -0.18827045 -0.18725343
000040 6e 34 47 be c8 70 cc bd a3 55 89 be 21 68 47 bd
       -0.19453594 -0.09982449 -0.26823148 -0.04868329
000050 c1 90 06 3d ee d8 37 be 21 cd 86 be 49 75 58 be
       0.03285289 -0.17953846 -0.26328376 -0.2113849
000060 93 8d 8a be ba eb 1d be 21 ec 4d be f3 b7 a0 bd
       -0.27061138 -0.15421954 -0.20109607 -0.078475855
000070 a6 2e b3 be 9e 54 ef bc 20 f5 b5 3c 2b 7b cf bd
       -0.34996527 -0.029215153 0.022211611 -0.10130914
000080 0a 72 0f be 6a 74 bc 3c 8a d4 81 be a6 d2 c0 bd
       -0.14008346 0.02300473 -0.25357467 -0.09415178
000090 14 ad 7d be 52 71 60 be 97 78 5e be 6f 57 04 be
       -0.24773055 -0.21918228 -0.21725689 -0.12923978
0000a0 57 a2 56 be 20 1c 20 be ec 10 00 bd 1c 80 f6 bd
       -0.20960365 -0.15635729 -0.031266138 -0.12036154
0000b0 1e c0 af bc 65 03 29 be 8b 49 81 be 90 2c c0 be
       -0.021453913 -0.16505201 -0.2525142 -0.37533998
0000c0 2e a6 d5 bd 3a 26 26 be 3b af 87 be f6 62 40 bd
       -0.10432087 -0.1622552 -0.26500878 -0.046969377
0000d0 2d bc a5 bd ad 06 30 bd 67 cb 96 bd 4e 84 2d bb
       -0.08092532 -0.042975117 -0.07363015 -0.0026476565
0000e0 f1 b6 c1 bd 91 ab b2 bb a8 fb c0 3c cc fe a8 be
       -0.094587214 -0.005452581 0.023557499 -0.33006895
0000f0 a4 de 85 be 6c d1 1d be b9 53 83 bd c0 a7 98 bd
       -0.26146424 -0.1541192 -0.06412453 -0.07453871

transformer.transformer_encoder.layers.0.linear2.weight f4 [32, 64]
000000 d8 e3 69 be 57 78 31 3d 03 a5 bc 3d 2e 5c 8c 3d
       -0.22840822 0.043327656 0.09211161 0.068535194
000010 6c 03 81 bb 24 a1 65 be f3 9e 86 bc 4a 2c 06 3e
       -0.0039371755 -0.22424752 -0.016433215 0.13102832
000020 4c 7a ee 3d 8a 26 be bd 39 98 bb 3d 22 db 56 3e
       0.1164442 -0.092846945 0.091598935 0.2098203
000030 4e e2 55 3d ce b5 f4 3d 91 6d 57 3e 84 18 6f bd
       0.052217774 0.11948739 0.2103789 -0.05837299
000040 b8 85 a6 bd 65 a0 3a be 62 42 5e 3d bc ff 74 be
       -0.081309736 -0.18225248 0.054262526 -0.2392568
000050 1a 67 e6 3d 32 6b 54 bd b3 19 6c bc c0 7f 9f bb
       0.11250134 -0.051860042 -0.014410424 -0.004867524
000060 66 ea 9f 3d cc ae b2 3e 8b 9b c0 3d 72 d4 ed 3e
       0.0780838 0.34898984 0.094046675 0.46451145
000070 25 1f ba 3d 47 b7 bd bd c0 07 d3 3e 3b 4c de 3c
       0.090879716 -0.09263473 0.4121685 0.027135959
000080 87 13 d9 bd 90 8d 32 3e ce 4f 1e 3d bc 4b 46 3d
       -0.10599428 0.17436814 0.038650326 0.04841207
000090 d6 f8 ee bd 3d be 88 be 21 65 74 3e d5 b8 46 bd
       -0.116685554 -0.2670764 0.23866703 -0.048516113
0000a0 96 7e c2 3d b9 1a 52 bd b2 0e d8 bd c1 1b 01 3c
       0.094968006 -0.051295016 -0.10549678 0.007880152
0000b0 0a 71 87 bd 17 99 81 3e 0d e8 c3 bd f4 64 55 3e
       -0.06613357 0.2531211 -0.095657445 0.20839292
0000c0 a6 5c d6 bc 17 9e 8f 3c 7d 5b a5 3d 28 38 2a 3e
       -0.026167225 0.017531438 0.08074091 0.16622984
0000d0 7d a4 b1 bc b0 f4 bc 3d a2 df 42 3c b8 9f c6 bd
       -0.02168488 0.09226358 0.0118941385 -0.09698433
0000e0 9d ab e4 bd 22 2c 95 bd a3 79 73 3d e5 d1 9b 3d
       -0.11165545 -0.07283808 0.059442174 0.076083936
0000f0 37 9e ca 3e 43 4a 0b 3e f6 59 0b be aa b3 8e 3d
       0.39573833 0.13602547 -0.13608536 0.06967862
000100 dd e0 8f 3d 64 98 cf bc b7 40 ba 3b 1d 70 1e 3e
       0.07025311 -0.02534122 0.005683984 0.15472455
000110 09 8b 52 bd 3b 80 ca 3e 73 ce 01 be 54 ec 1a 3e
       -0.051402126 0.39550957 -0.1267641 0.15129215
000120 4c d7 04 be 96 f5 7d bd 45 32 38 bd 6c 84 15 be
       -0.12972754 -0.062001787 -0.044969816 -0.14601296
000130 36 0a 09 3e c3 1d ff bd ad ee a4 3c 04 a3 2e be
       0.13382801 -0.124568485 0.02013334 -0.17054373
000140 be 42 ab 3e 77 b5 94 3d c9 f1 fc 3d 78 fa 63 3e
       0.33449358 0.07261174 0.12350804 0.22263515
000150 e2 bd 02 3e 37 33 81 3b fa 7e 9b 3d 38 dd cb 3d
       0.12767747 0.003942873 0.07592578 0.099543035
000160 25 85 0c 3e 52 14 75 be 7d 75 ec 3c c5 b9 57 be
       0.13722666 -0.23933533 0.028864617 -0.21066959
000170 ac fd e4 38 7a 69 dc 3d d5 bb 71 be 48 ee 6b 3d
       0.00010919137 0.107623056 -0.23606808 0.05760029
000180 0e a8 d8 3e 98 d3 06 3d 83 bb 77 3d 19 3a 8f 3e
       0.42315716 0.032916635 0.06048156 0.27974012
000190 3d b3 19 bd 50 4f b4 3d aa e5 97 3c a3 44 20 be
       -0.03752445 0.0880419 0.01854213 -0.15651183
0001a0 a8 de 8e 3d b9 24 b9 3c ed 77 f9 bc 44 7b 19 3d
       0.06976062 0.022600519 -0.030452693 0.03747107
0001b0 a1 7d 05 bd be e1 81 be a2 b2 03 3d 69 94 3c bd
       -0.032590512 -0.2536754 0.03215278 -0.046039972
0001c0 71 59 2a 3d 4f 83 33 3e 49 51 e1 bc ed fd 8d bd
       0.041589204 0.17530559 -0.02750458 -0.06933198
0001d0 a1 ec be 3c a0 54 be 3d ae f6 00 3e b9 64 4d 3d
       0.023306193 0.09293485 0.12594101 0.050144885
0001e0 5b 66 65 3d ac fe 80 3e 4e 04 11 be 56 fe e2 3c
       0.056005817 0.251943 -0.14161798 0.027709167
0001f0 83 a6 93 bd f9 5f a1 3c bd 77 a7 bc 7e 63 2e 3e
       -0.07209494 0.019699084 -0.020442838 0.17030141
000200 5a 78 98 3e d3 3c e7 bd f2 3a 3c 3e 98 c6 1d bd
       0.2977932 -0.11290898 0.18381861 -0.038519472
000210 91 b3 0c 3e ad 10 b3 3e 27 f1 83 3d 87 74 0d 3d
       0.13740374 0.3497366 0.064424805 0.034534957
000220 c7 ed 0a bd 17 56 c5 bd f2 bd 13 be 81 02 4b 3d
       -0.03391817 -0.09635561 -0.14427927 0.049562935
000230 89 55 fc 3d ac b9 3a 3c df fd 45 3c 4a 19 f0 39
       0.12321002 0.011396807 0.012084453 0.0004579521
000240 d3 e2 e0 3d b9 eb 95 bd e7 7c 53 bd f7 b2 1e 3e
       0.10980763 -0.07320351 -0.051632788 0.15497957
000250 36 83 8a 3c 12 83 b9 3d 03 d9 01 be 70 4c c6 bd
       0.01690827 0.09058203 -0.1268044 -0.09682548
000260 d7 40 ab ba cb 53 df bd 4c d4 89 3e 74 56 2b 3e
       -0.0013065588 -0.10904654 0.26919782 0.16732198
000270 88 7d 45 3d 67 be af bc 32 bd f9 bd 5e 5f d9 3b
       0.04821542 -0.021453096 -0.12194289 0.006633683
000280 47 27 ed 3c 24 17 89 bc bc 70 6c bd b7 da b0 3c
       0.028949393 -0.016734667 -0.0577247 0.021588666
000290 d5 a3 6d bd fa e1 dd 3d ad 0e 62 3e 06 23 49 3e
       -0.05801757 0.10834117 0.22075911 0.19642267
0002a0 7d e5 3a bd 7a 09 54 bd c7 d2 90 3d 8b 45 e2 3d
       -0.045629013 -0.05176685 0.070714526 0.110484205
0002b0 96 a5 c4 3d 71 f3 e0 bd 7f c5 ba 3d bd b7 1c 3d
       0.096018955 -0.10983933 0.09119701 0.038261164
0002c0 4f 07 13 be 70 0b 2b be a0 ae 8f bc f1 3b a5 be
       -0.14358257 -0.16703582 -0.017539322 -0.32272294
0002d0 04 35 37 be b2 fd c1 bd 9b 6a 0f be 3b aa 82 bd
       -0.17891318 -0.09472217 -0.1400551 -0.06380125
0002e0 c0 f5 33 3d 93 db 82 3e 09 b1 08 3e ad cc 14 3e
       0.043935537 0.25558147 0.13348784 0.14531203
0002f0 2c 95 23 be c0 49 ec 3b db 0b 37 bd 94 5e 1e be
       -0.15974873 0.00721094 -0.04468904 -0.15465766
000300 42 80 38 3e 2d 62 fc bb 49 ba 86 bd e1 55 9e bd
       0.18017676 -0.007702133 -0.065785 -0.07731224
000310 fb 2d 21 be 84 04 58 be 21 a3 8c 3d a4 b9 b9 bd
       -0.15740196 -0.21095473 0.06867052 -0.09068611
000320 4a cb 0d 3e 1f 11 c7 bd dd ad 83 3b cf fb d9 bd
       0.1384708 -0.097200625 0.004018529 -0.10643732
000330 08 d3 e2 bd dc f7 b7 bd cd 16 dc bc 94 e0 69 3e
       -0.11075407 -0.08982822 -0.026866341 0.22839576
000340 15 c9 98 bd 61 b6 67 3e c7 6d 85 3d a2 26 c1 3d
       -0.07460228 0.22628166 0.06515079 0.09431197
000350 06 25 d7 ba 3a 2f e7 3d 7b b5 91 3d 38 3d 7f bd
       -0.0016414232 0.112883046 0.07114693 -0.062314242
000360 ff 8d b7 3c ec fb 58 bd 4a 7d fb 3d ad 6f 01 3c
       0.022406576 -0.052974626 0.12279756 0.007900161
000370 e5 57 07 be 42 44 3f bd e3 b5 a1 bd 28 12 84 3c
       -0.13217123 -0.046695955 -0.0789602 0.016121939
000380 76 0c 20 bd d6 98 ba bd 66 7d b1 3d 51 47 0a 3d
       -0.039074384 -0.091111824 0.08666496 0.03375942
000390 e6 34 48 3c 64 64 b2 3d 2c 2f 6d be 5b 5e a2 3c
       0.012219643 0.08710554 -0.23162526 0.019820383
0003a0 6a dc 59 bd 15 19 28 3b 0f 3c ad 3d 6e 9f 8c 3e
       -0.05318872 0.0025649716 0.08458721 0.27465385
0003b0 4f c1 49 3e a3 24 2d 3c 95 e9 26 3d 84 82 27 3d
       0.19702648 0.010567817 0.040750105 0.040895954
0003c0 15 53 8e 3c c4 39 19 3d 07 a7 48 bd d3 d6 0c be
       0.017373601 0.037408605 -0.048987415 -0.13753824
0003d0 f4 f9 d8 bb e2 3f 06 be 5d ee f5 3d 95 57 08 3e
       -0.0066215936 -0.13110307 0.12008355 0.1331466
0003e0 a9 95 b1 3d d3 e4 09 3e 00 3f 4a 3e 9e 96 94 3d
       0.086711235 0.13466196 0.19750595 0.072552904
0003f0 f9 a1 bf bd 74 68 3b ba 22 86 50 bd 79 05 06 3e
       -0.09357066 -0.00071490486 -0.05090917 0.13088025

transformer.transformer_encoder.layers.0.linear2.bias f4 [32]
000000 e9 37 a8 3b ef 37 60 3d bd 2a 41 3c 5b a4 f0 3c
       0.005133618 0.054740842 0.011789975 0.029375246
000010 d8 ca 30 bd fb 14 52 3c d5 aa 0c 39 95 a1 65 3d
       -0.043162197 0.012822385 0.0001341508 0.0560623
000020 27 06 ad 3d ab c2 e3 bb cd e0 04 3c 6d df 23 bd
       0.08448439 -0.0069506965 0.008110237 -0.040007997
000030 d0 41 6d bd a7 97 f3 bc 58 91 f1 bc b3 f7 23 3d
       -0.05792409 -0.0297354 -0.02948825 0.040031146
000040 73 b6 a4 3d c7 5d 6a 3c 79 ad 9f bc 90 9a 51 bc
       0.08042612 0.014304585 -0.019491898 -0.012793198
000050 8c 48 74 3d f0 bd b9 bc af 80 8e ba f2 45 6e 3c
       0.0596395 -0.022673577 -0.0010872091 0.014543043
000060 0b a0 11 3d b6 b7 c8 3d 70 f6 41 3d 34 63 31 3b
       0.03555302 0.09800665 0.04735416 0.0027067186
000070 f6 b0 e0 3c e6 57 1a 3c 0c 4b 5c 3c 3b 93 84 3d
       0.027428132 0.009420371 0.013445627 0.064733945

transformer.transformer_encoder.layers.0.norm1.weight f4 [32]
000000 cc 61 0e 3f 04 8c e4 3e 5c 1a 0b 3f bc 42 64 3f
       0.55617976 0.44638073 0.54337096 0.8916433
000010 88 31 d6 3e 57 81 d0 3f 9b 96 e3 3e c4 36 2e 3e
       0.41834664 1.6289471 0.4445084 0.17013079
000020 1f c3 a7 3f fc 7a 6e 3f b8 a0 17 3f ee 0d bc 3f
       1.3106421 0.9315641 0.5922961 1.4691751
000030 92 5d 99 3e 1d b9 a9 3f 2f 91 a0 3f 70 05 c6 3e
       0.299542 1.3259617 1.2544307 0.38676023
000040 91 6e e7 3e ae 87 74 3f 2c 8e 83 3f d6 10 90 3f
       0.45201543 0.9551953 1.0277762 1.1255138
000050 c4 c6 41 3f 78 35 84 3f c4 05 a0 3f df 9a 8a 3f
       0.7569392 1.0328817 1.250176 1.0828513
000060 7e 2f e6 3e cd 87 8a 3f c0 75 c1 3e fb fa 86 3f
       0.4495811 1.0822693 0.3778515 1.0545343
000070 fc f3 0f 3f 51 11 17 3f 65 e6 96 3f 78 67 db 3e
       0.56231666 0.590108 1.1789061 0.42852378

transformer.transformer_encoder.layers.0.norm1.bias f4 [32]
000000 e0 06 e0 3e 48 ae 6c 3c 92 ad 8e 3e b6 02 12 be
       0.43755245 0.014445849 0.278668 -0.14258847
000010 65 17 ce 3e 9b c4 6e be 7b eb df 3e 19 a6 dc 3d
       0.40252224 -0.23317187 0.43734345 0.10773868
000020 d2 ec a6 be 61 02 c5 bd a2 3c 19 3f 85 e9 5a bd
       -0.32602555 -0.09619594 0.59858143 -0.053445358
000030 ac 70 25 3f 7b d9 38 3e bc c4 00 bf c6 0e 2d 3e
       0.6462505 0.18051712 -0.5030019 0.16900167
000040 7e 37 a3 3e b8 4d d9 3d 14 a4 a0 be 30 94 b9 be
       0.31878275 0.10610527 -0.31375182 -0.3624587
000050 20 d3 bc 3d 9b ac af be 52 37 93 be 3b e0 5f bd
       0.092199564 -0.34311375 -0.28753144 -0.054657202
000060 26 e5 dd 3e c0 0a cb bd f5 b6 db 3e 6c de fa 3c
       0.4333889 -0.0991416 0.42913023 0.030623637
000070 4a d2 f5 3e f8 e7 d4 be 1c 45 1a 3e 89 80 d8 3e
       0.48012 -0.41583228 0.15065426 0.42285565

transformer.transformer_encoder.layers.0.norm2.weight f4 [32]
000000 a0 35 e3 3f e0 9e be 3f e8 f0 e0 3f 4e 2a f0 3f
       1.775074 1.4892235 1.7573519 1.876291
000010 54 7c c7 3f c1 37 fa 3f 26 8e d9 3f 4a 76 c7 3f
       1.5584817 1.9548265 1.6996505 1.5582974
000020 66 00 bb 3f b9 78 f7 3f 26 b3 dc 3f c7 0d ae 3f
       1.4609497 1.9333717 1.7242172 1.3597955
000030 2b 99 bb 3f 4b cd 9b 3f 1e 08 05 40 b0 d1 d8 3f
       1.4656118 1.2172025 2.0786204 1.6938992
000040 df bf c6 3f 56 34 ee 3f 42 89 0a 40 13 e7 19 40
       1.5527304 1.8609722 2.1646276 2.4047287
000050 cd fd ce 3f b1 2f 0c 40 f8 9b 21 40 77 ff ee 3f
       1.6171204 2.1904109 2.5251446 1.8671712
000060 5c b2 de 3f 4b cf cd 3f 6b 56 c9 3f ce 04 d8 3f
       1.7398181 1.6078886 1.5729498 1.6876466
000070 8f 2f eb 3f c8 51 da 3f 03 26 e2 3f 6f 34 dd 3f
       1.8373889 1.7056208 1.766785 1.7281626

transformer.transformer_encoder.layers.0.norm2.bias f4 [32]
000000 af 57 35 bf 7f 0a 32 3f e1 50 2e 3f 0a be 1e 3f
       -0.7083692 0.69547266 0.6809216 0.62008727
000010 1e 31 26 3f bf ae 27 bf 2c 22 3b bf bf 79 20 3f
       0.64918697 -0.65501016 -0.7309902 0.6268577
000020 f5 4c 22 bf a8 78 26 3f 89 f2 3e bf b3 96 22 3f
       -0.6339868 0.65027857 -0.7458883 0.635112
000030 04 53 25 3f 1e 57 24 3f 8b 3d 30 3f 03 95 23 bf
       0.64579797 0.6419543 0.6884391 -0.6389925
000040 e0 1b 1e bf db b8 28 bf 69 6d 1d 3f c1 f3 2c 3f
       -0.61761284 -0.6590707 0.6149507 0.6755944
000050 4e 5f 24 bf 49 83 24 3f fb 69 28 3f 53 fa 26 bf
       -0.64207923 0.64262825 0.65786713 -0.65225714
000060 d1 ca 35 bf fd 9d 20 bf ac 1a 28 3f dd 36 21 bf
       -0.710126 -0.6274107 0.656657 -0.6297434
000070 57 a6 32 bf 44 e6 39 3f ca c9 24 bf 31 1a 24 bf
       -0.69785064 0.7261698 -0.64370406 -0.64102465

net.0.weight f4 [64, 32]
000000 90 37 fc be e6 16 18 3f 94 80 c2 3e 24 f8 25 3f
       -0.4926114 0.5940994 0.37988722 0.6483176
000010 89 d5 23 3f ad 2b 6b bf d5 2b f3 be 0a ce 32 3f
       0.63997704 -0.9186352 -0.4749438 0.6984564
000020 d9 6e a7 be f3 82 1b 3f e1 7d 22 bf 12 8d 3f bd
       -0.32701758 0.6074669 -0.63473326 -0.046765395
000030 f3 6e 2b 3f b7 9d b4 bd 24 42 5e 3f 76 94 fa be
       0.6696617 -0.08819144 0.8681967 -0.48941392
000040 4d 41 93 be a3 dd 4b bf f3 cf 70 3f a5 fb 73 3f
       -0.28760758 -0.79635066 0.94067305 0.95305854
000050 6c 58 fc be c8 77 75 3f cd 7d 96 3f 3c b2 49 bf
       -0.4928621 0.95885897 1.1757141 -0.7878759
000060 ce 98 20 bf 48 b0 f1 be c9 4e e2 3e 6a fa 1a bf
       -0.6273316 -0.47204804 0.44200733 -0.6053835
000070 49 d3 e2 be a4 a6 ee 3e b6 df 40 bf 83 ae 1a bf
       -0.44301823 0.46611512 -0.75341356 -0.60422534
000080 c8 54 2c be d5 df c5 3e 51 a9 b9 3e a7 a4 6c be
       -0.16829216 0.38647333 0.3626199 -0.23109685
000090 20 91 20 3e a9 8b 65 bc ec 7e b0 be e3 f6 3a 3e
       0.15680361 -0.014010348 -0.34471834 0.18258242
0000a0 85 69 62 be 1d d7 50 bd 7b 9d 0e be f4 c4 17 3f
       -0.22110565 -0.050986398 -0.13927262 0.592849
0000b0 c0 c7 a5 3e 7a 8b 0f 3f c1 9f 25 be 95 91 54 be
       0.3237896 0.560722 -0.16174223 -0.2075866
0000c0 c7 c5 7a be ba fc 22 3e 01 8f 53 bd c0 e8 35 be
       -0.24489509 0.1591672 -0.05165005 -0.17764568
0000d0 7a 08 b7 bd 7a ca f3 be 3e ec 12 bf b9 c0 02 3e
       -0.08937164 -0.47615415 -0.57391727 0.1276883
0000e0 04 3f ea bd 1e cf 03 be 49 8c dc 3d c5 ca 80 bd
       -0.114378005 -0.12871978 0.10768945 -0.06288675
0000f0 e4 87 24 be e5 61 19 3e 99 8b 7c be 89 15 b6 be
       -0.16067463 0.1497875 -0.24662627 -0.35563305
000100 f0 1d a3 be ca 44 bb 3e 80 13 16 3f ff f6 10 3f
       -0.31858778 0.3657592 0.58623505 0.56626886
000110 38 29 10 3f e8 02 42 bf b2 94 9f be 02 0d 8b 3e
       0.56312895 -0.75785685 -0.31168133 0.27158362
000120 ce af c0 be c7 54 2c 3f 48 c5 b9 be f7 cc 3e 3e
       -0.37634128 0.6731686 -0.36283326 0.18632875
000130 63 0a 0b 3f d9 31 ba 3e 39 8b 5d 3f f8 92 24 bf
       0.54312724 0.36366156 0.8654056 -0.64286757
000140 60 6e 21 bf f2 2e 48 bf d8 d8 4a 3f 32 35 95 3f
       -0.63059044 -0.7819663 0.7923713 1.1656859
000150 9e f9 3b bf 7c b0 92 3f 0b 2f a4 3f 26 b8 4f bf
       -0.7342776 1.1460109 1.2826856 -0.81140363
000160 12 dd 32 bf aa 08 eb be 77 0e f7 3e dd fe 53 bf
       -0.69868577 -0.45905048 0.48253223 -0.82810766
000170 67 9d 1f bf b7 06 f2 3e 5a 9c d6 be d4 3a 2e bf
       -0.6234955 0.47270748 -0.41916162 -0.68058515
000180 f5 58 d5 be 66 5c 99 3e fa c7 84 3e 98 0c e5 be
       -0.4166943 0.29953307 0.2593382 -0.4473617
000190 ac f6 44 3d 73 78 2e 3f 06 d9 e4 be 05 cc 92 be
       0.048086807 0.6815254 -0.44696826 -0.2867128
0001a0 bf a8 e0 bd ef 02 f0 be 25 f9 d5 be 02 de 4f 3f
       -0.10969686 -0.46877238 -0.41791645 0.8119813
0001b0 01 2f 9a bd ef 88 15 3f dd b5 8d 3e c4 ef 2f be
       -0.075284965 0.5841207 0.27677813 -0.17181307
0001c0 1a 4d 7f be c2 72 d9 bc 5a 17 2f bf 6e 9c e9 be
       -0.24931756 -0.026543979 -0.68395007 -0.4562716
0001d0 9a 1a 91 be 9e f1 01 bf 70 4b 42 bf 50 c7 38 3e
       -0.28340608 -0.50759304 -0.7589636 0.18044782
0001e0 1d cf c0 be a4 aa 17 be 58 42 c1 bd 77 cc 0c bd
       -0.37658015 -0.14811188 -0.09436482 -0.03437468
0001f0 57 17 2a bf 20 9c db 3c ee 18 35 3e 82 7b bd be
       -0.66441864 0.026807845 0.17685291 -0.3700829
000200 e6 4a 03 bf 27 39 e2 3e 79 92 66 3e 03 ae b4 be
       -0.5128616 0.4418423 0.22516812 -0.3528901
000210 60 df 53 bd d8 27 47 3f 08 97 11 bf 76 36 7f be
       -0.0517267 0.7779517 -0.5687108 -0.24923119
000220 8d 2d f5 bd 41 ed be be 0e 7a cd be 11 1c 50 3f
       -0.11971579 -0.37290385 -0.40132183 0.81292826
000230 22 18 63 bd 60 42 2d 3f b0 0e 88 3e 52 1e e6 bd
       -0.055442937 0.67679405 0.26573706 -0.11236252
000240 25 fd ae be 8b 1a 43 bd 05 8e ef be a9 35 37 bf
       -0.3417751 -0.047632735 -0.4678804 -0.71566254
000250 20 d6 9e be 7b 0c 07 bf 53 49 06 bf 2a ac 37 3e
       -0.3102274 -0.5275342 -0.52455634 0.17936769
000260 39 f4 04 bf 0c 98 21 be 84 9a d7 bd fa 9a 8c 3d
       -0.51935154 -0.15780658 -0.105275184 0.06865497
000270 03 a0 16 bf 35 f0 31 bd 42 57 91 3d 60 3c 32 be
       -0.5883791 -0.04344197 0.07096721 -0.17405844
000280 c6 68 a5 3e a6 d8 31 3e c8 9e 0f be 0a 31 b4 3d
       0.32306498 0.17367801 -0.14025414 0.08798416
000290 61 0e 9e be fe ee b6 3e b4 12 50 bf 17 5e d1 bd
       -0.30870345 0.35729212 -0.8127854 -0.10223024
0002a0 f3 c8 9f be 77 0d 0b be da c0 e0 3d ac fe 2c 3e
       -0.31208 -0.13579355 0.109742835 0.16894025
0002b0 0d 94 97 bd bd 52 19 3e 5d c0 cf 3e 26 32 07 be
       -0.07401285 0.14972968 0.4057645 -0.13202724
0002c0 5c ed 45 be 5c af 21 3e 9f 54 98 be 6c ac 93 be
       -0.19328827 0.1578955 -0.2975206 -0.28842485
0002d0 cc 08 3a 3b 91 e2 41 be 1d b6 b9 be 4b bf 0d 3e
       0.002838659 -0.18934084 -0.36271754 0.13842504
0002e0 0a 21 0e bf 4f 13 aa bc 26 e6 53 3e d9 b7 13 bb
       -0.55519164 -0.02076116 0.20693263 -0.0022540002
0002f0 d6 38 80 be 39 ac 82 3d b7 cd 59 3e 27 9f f1 be
       -0.25043362 0.06380505 0.2126988 -0.47191736
000300 22 85 d5 be 6f cc cd 3e 14 2c 15 3f bd 23 50 3f
       -0.41703135 0.40195033 0.5827038 0.8130453
000310 44 d9 e2 3e 9f ab 4d bf b7 9f 08 bf d4 b4 71 3e
       0.44306386 -0.8034 -0.53368706 0.23604137
000320 65 c9 2b bf 66 bb 35 3f 25 35 0f bf 37 c6 42 3e
       -0.6710418 0.7098907 -0.5594047 0.19020925
000330 cb c3 0a 3f 39 7c b0 3e fb 56 64 3f e4 d6 40 bf
       0.54205006 0.34469774 0.8919522 -0.753279
000340 ad 13 23 bf 3e 44 5f bf a1 b3 54 3f a8 29 70 3f
       -0.637019 -0.87213504 0.8308659 0.9381356
000350 88 4d 05 bf 53 a2 51 3f 56 38 ae 3f 74 04 3b bf
       -0.5207143 0.8188831 1.3610942 -0.7305367
000360 bd dc ec be 4b a0 20 bf 9c 2a d3 3e e1 93 13 bf
       -0.4626216 -0.6274459 0.41243446 -0.5764752
000370 c7 3b 53 bf 01 cf 39 3f de 02 03 bf 5a 61 2e bf
       -0.8251309 0.7258149 -0.5117625 -0.68117297
000380 a8 bb 21 bf 63 88 0d 3f 91 50 18 3f 16 06 53 3f
       -0.63176966 0.55286235 0.59497935 0.8243116
000390 fa 3b 20 3f 6d 8b 2c bf 4e 2b 0d bf ea 51 3e 3f
       0.62591517 -0.67400247 -0.551442 0.7434374
0003a0 36 ab bf be b5 21 5d 3f c8 07 b5 be 8a 3c 58 3e
       -0.3743531 0.8637956 -0.353575 0.21116844
0003b0 91 f0 10 3f ac 5a 06 bd 8f 63 7c 3f 2a a2 fd be
       0.56617075 -0.032801315 0.98589414 -0.49537784
0003c0 91 ea c1 be 03 c1 3c bf d0 ff 5d 3f f8 2d 8c 3f
       -0.37874272 -0.7373201 0.86718464 1.0951529
0003d0 24 33 c3 be f6 d9 42 3f 94 55 a2 3f bd 98 0a bf
       -0.38124955 0.7611383 1.2682366 -0.5413931
0003e0 a8 96 04 bf ba 60 0c bf fd 91 1a 3f 85 66 38 bf
       -0.51792383 -0.54835093 0.6037901 -0.7203143
0003f0 4c 8e ea be f4 33 2b 3f 86 ce 58 bf ce 15 3b bf
       -0.4581169 0.6687615 -0.8469013 -0.73080146

net.0.bias f4 [64]
000000 04 31 0d 3f a0 b4 20 3e e3 39 30 3f d8 3d 05 3e
       0.55152917 0.15693903 0.6883833 0.13011873
000010 47 7b 1c 3e c1 f2 08 3e 4d 22 2a 3f 66 92 9e 3e
       0.15281402 0.13373853 0.6645859 0.30971068
000020 83 6d d2 3e c9 1d 39 be 0c b3 88 3e 72 94 21 3f
       0.41099176 -0.18077768 0.26699102 0.63117135
000030 45 f2 8a 3d ca d0 4a bb a2 78 8c 3e 9f d4 90 3d
       0.067844905 -0.0030947202 0.27435786 0.07071804
000040 d3 00 ba 3d 16 3c 19 3f ae db a2 3e 50 04 c9 3c
       0.090821885 0.5985731 0.31808227 0.02453819
000050 4c 07 84 3d bc b6 4b 3c 8c ae 8d 3e e4 10 33 3f
       0.06446704 0.012433704 0.2767223 0.6994765
000060 d7 7f d9 3e 4c 06 fd 3e d2 d3 82 3c 2a a5 29 3f
       0.42480347 0.49418867 0.015970144 0.66267645
000070 fd 0f d5 bd 30 a9 ca 3e 59 8e f5 3e fc 3c 97 bd
       -0.1040344 0.39582205 0.47960165 -0.07384679
000080 20 f1 27 be 8d c3 e9 3e 15 ad b9 3d f1 f0 87 bd
       -0.16400576 0.45657006 0.09066216 -0.06637753
000090 de 1a 06 be 56 12 25 3f 1d 88 6c be 6f 8b b9 3e
       -0.13096187 0.64481103 -0.23098798 0.36239192
0000a0 c5 f8 64 bd d0 07 ee 3e 87 fc fc 3e 59 af e6 3b
       -0.055901308 0.46490335 0.49411413 0.007039946
0000b0 67 30 2f 3f 79 6d 74 3d 77 3b b4 bd c8 97 8d bc
       0.6843323 0.059674714 -0.088004045 -0.017284289
0000c0 56 c0 94 be 41 4d 16 3f 97 80 4a 3d a3 22 f9 3e
       -0.2905299 0.5871163 0.04943904 0.48659238
0000d0 fb e0 a7 3e e7 e2 13 3f d5 da 82 3c fa 0b 0b 3f
       0.32788834 0.577681 0.015973488 0.5431515
0000e0 12 df e9 3e 3c eb 7e 3e 20 f3 18 3f 94 6a d5 3d
       0.45678002 0.24894422 0.5974598 0.10420719
0000f0 5d a9 2b be 1b a6 df 3e 29 33 0e 3f 0a e1 75 bd
       -0.16763826 0.43681416 0.55546814 -0.060029067

net.2.weight f4 [1, 64]
000000 c5 9e 3e 3f 16 55 05 bf 42 cf 29 3f ac 45 bc bf
       0.74461013 -0.52082956 0.66331875 -1.4708762
000010 a6 1a d4 bf b7 57 b7 be c5 4a 26 3f 77 ba 2b 3f
       -1.6570632 -0.3580911 0.6495784 0.670814
000020 79 07 35 3f 74 1b 40 bc f9 08 41 3f 4e 9d 36 3f
       0.7071453 -0.011725295 0.75404316 0.7133378
000030 3c 29 3b bd 92 78 dc be d7 1d b6 bf 0a a7 ab bf
       -0.04569362 -0.43060738 -1.4227856 -1.3410351
000040 c1 75 66 bd 8a dd 28 3f 24 8d 26 3f ea 82 8a bb
       -0.056264643 0.6596304 0.65059114 -0.004227032
000050 82 b6 a7 3f 35 57 6e 3e d0 fe 40 3f ad 86 29 3f
       1.3102572 0.23275454 0.75388813 0.66221124
000060 2e 4e 3b 3f a1 d3 3e 3f 9e ba 84 bc f7 b9 1f 3f
       0.7316617 0.7454167 -0.016202267 0.62393135
000070 cb 60 be 3c 4d a0 2f 3f f6 93 40 3f c6 2e 7c bd
       0.023239514 0.68603975 0.7522577 -0.061568044
000080 ec 29 68 3f 11 7f 3b 3f db 29 ac bf ef 3a c3 3f
       0.9068897 0.7324076 -1.3450273 1.525236
000090 e3 20 8a 3c 64 8c 25 3f 44 3b 53 bb 76 89 3d 3f
       0.016861385 0.64667344 -0.003223137 0.74037874
0000a0 f3 c0 94 3f 06 54 35 3f 41 be 39 3f 3a b3 a0 bf
       1.1621383 0.70831335 0.7255593 -1.2554696
0000b0 4b 25 29 3f 69 fb 87 bd 15 12 6c bd 77 cc 51 bf
       0.6607253 -0.066397496 -0.057634432 -0.81952614
0000c0 94 93 47 3c f3 90 33 3f 4b 6a 5c bf 36 75 3e 3f
       0.012181181 0.7014305 -0.8609969 0.743976
0000d0 50 82 36 3f c8 b1 27 3f 57 e2 9e bf 2d 05 25 3f
       0.7129259 0.6550565 -1.2412823 0.6446102
0000e0 ed 9a 31 3f 77 b8 88 3f 6f 56 2d 3f e9 35 5a bd
       0.69377023 1.0681294 0.6771001 -0.05327407
0000f0 5c 74 ff 3c 78 c1 39 3f fe 45 38 3f 8c 35 a0 bf
       0.031183414 0.72560835 0.719818 -1.2516341
