models/ev_hybrid_dnn_model.pt (torch, 51789 bytes, 17 tensors)

embedding.weight f4 [32, 8]
000000 c9 31 b7 3e 16 a3 96 3b 8a 11 93 bd 0e c4 25 be
       0.3578017 0.004597078 -0.0718108 -0.1618807
000010 8e 87 eb bd 7f 4a 62 3e ad 45 7c 3d 56 1a 29 be
       -0.115004644 0.2209873 0.061589886 -0.16513953
000020 f6 c9 1f 3e 29 04 b3 be 76 40 24 bd f1 a7 1c bd
       0.15604386 -0.3496411 -0.040100537 -0.0382461
000030 71 1c f6 3b 20 fd 0f 3e ed f3 6f 3e 62 a8 02 3e
       0.0075107147 0.14061403 0.23432894 0.12759545
000040 98 ae 70 3e ee 9f ab 3e c1 4f 29 bd b0 04 d6 bd
       0.23504102 0.33520454 -0.041335825 -0.10450113
000050 93 f1 c6 bd 41 16 0a 3e b9 6e 5e be f0 85 70 be
       -0.097140454 0.13485052 -0.21721925 -0.23488593
000060 d4 cd 65 3f 4f ba 40 3e ae d5 06 3d fc b9 8d 3d
       0.89767194 0.18821071 0.032918625 0.06920239
000070 47 b8 91 3d c0 80 7a bc fb 2e 22 be 3b af 9b 3b
       0.07115226 -0.015289485 -0.15838234 0.0047511137
000080 1d b0 62 bf a6 6f 42 be f8 a8 25 bd 80 e3 30 3d
       -0.8854998 -0.18987903 -0.040444344 0.04318571
000090 eb 12 86 ba 08 6b ba bd 56 89 1d 3e ad 31 c9 3d
       -0.0010229027 -0.09102446 0.15384421 0.09823928
0000a0 51 5f e3 be ac 64 36 be 92 87 9c bd e5 4f d4 bb
       -0.44408658 -0.17811841 -0.076430455 -0.0064792507
0000b0 0b 84 4e bd b8 9b eb 3c 66 98 2f 3e 5d e3 ab bc
       -0.050418895 0.028760776 0.17147979 -0.020982439
0000c0 63 f5 81 bf af 84 2f 3e 30 b2 af bd 78 c6 20 be
       -1.0153011 0.17140459 -0.085789084 -0.1570071
0000d0 9c 28 65 bd f8 0e c4 bd 40 cb 7e 3e c9 da 81 be
       -0.05594693 -0.095731676 0.24882221 -0.25362232
0000e0 9c 5a 9f be 91 32 d0 3d d6 83 fc bc 48 17 d5 bc
       -0.31123817 0.10165895 -0.030824583 -0.026012078
0000f0 fb b3 8e bc c1 b8 26 3e f1 ac 98 3c e9 51 92 be
       -0.017419806 0.16281416 0.018637152 -0.28578117
000100 ca f3 33 3f ac 13 cc 3e a7 66 c2 3c 6b 4c 0c bc
       0.7029387 0.39858758 0.02373059 -0.008563141
000110 53 81 9e bd 6e 9d 81 be 93 7f 0a be 14 db df bd
       -0.077395104 -0.25315422 -0.13525228 -0.10930458
000120 c5 92 99 bf fe d4 0d bd 12 64 ab bd ab 62 bb bd
       -1.1997916 -0.034626953 -0.08368696 -0.09149679
000130 89 f8 b5 bd 66 3e 21 3e 27 a2 8f bd 2c 63 02 3d
       -0.08885295 0.1574646 -0.0701335 0.03183286
000140 c1 25 38 3f 90 15 12 3e 85 29 92 bc 3e d0 e3 bd
       0.7193261 0.14266038 -0.017842064 -0.111237034
000150 08 a4 81 bd cd 82 30 3d 25 5f 04 be c9 a1 62 3c
       -0.063301146 0.04309349 -0.1292692 0.013832518
000160 ea da 7e 3e a1 8b aa 3e 5a 2b 1a 3c 0d ad 3e bd
       0.24888197 0.33309653 0.00940975 -0.046551753
000170 86 ad d8 bd 7a fe 42 be 23 de a3 3d 31 d3 3c be
       -0.10579972 -0.19042388 0.080013536 -0.18439938
000180 4b ae 5d be ad 01 fa bb 96 4c b7 bd c7 f5 5a be
       -0.21648519 -0.0076295943 -0.089501545 -0.21382819
000190 dc 43 4d 3c f8 48 64 3e 3f 9d a6 be 54 35 c4 3e
       0.012528386 0.2229346 -0.32541844 0.38321936
0001a0 75 54 bf be 91 44 79 bb 71 8b 36 bd 34 7a 29 be
       -0.37369123 -0.0038035254 -0.044566575 -0.16550523
0001b0 d7 17 4b bd 93 96 e9 3d 0a 46 eb 3d 98 56 f3 bd
       -0.049583282 0.11405673 0.11487968 -0.11881751
0001c0 a2 c1 9b 3f 28 54 b2 3d d8 0f 9b 3c fb fd 1f 3d
       1.2168467 0.08707458 0.018928453 0.039060574
0001d0 cf 63 9c bd e5 ee ba 3c 5c c6 c6 3c 22 b0 5e be
       -0.076362245 0.022818992 0.024264507 -0.21746877
0001e0 26 df 5a bc 06 eb 2f bd 54 3d d8 bc a4 0f bc bd
       -0.013358867 -0.042948745 -0.026396431 -0.09182671
0001f0 7a 1b 6f bc 04 e1 49 3e ed 91 e3 3a fc 81 0c 3e
       -0.014593953 0.19714743 0.0017362215 0.1372146
000200 84 a3 4f 3e 0a 1d 4c 3e f9 00 1f bd ee 1e d5 bd
       0.2027722 0.19932953 -0.038819287 -0.1040629
000210 49 77 44 bc 88 76 98 3d 4a c2 45 be 09 ae 04 be
       -0.01199133 0.07444483 -0.19312397 -0.12957014
000220 1a 51 6b 3f e2 8d ae bd b9 03 21 bd e3 45 8b be
       0.91920626 -0.08523156 -0.03931019 -0.27201757
000230 0f b0 0e be dd 62 a0 bd d8 1e 91 3d ab 61 54 3e
       -0.13934349 -0.07831357 0.07085961 0.20740382
000240 65 d7 54 bf 29 2f 5a bc 48 48 a5 3c 54 50 dd bd
       -0.83141166 -0.013316908 0.020176068 -0.10806337
000250 24 77 6e bc dd bb c9 3d 3a 4b 51 3e 8a 69 dd bd
       -0.0145547725 0.09850285 0.20438853 -0.108111456
000260 95 05 8d 3f 9a 2a 5c 3e 6c f0 8d bd 75 9f 2c be
       1.1017329 0.21500626 -0.069306225 -0.16857703
000270 13 96 53 bd 9d aa 23 3d bb 86 c7 3d 93 cf 47 be
       -0.051656794 0.03995763 0.09742495 -0.19512777
000280 6c 5b 69 bf cc 67 28 3d ef 11 56 bd 2a 8a 1b be
       -0.91155124 0.041114613 -0.052263197 -0.15189424
000290 40 c1 8d bb 12 8d 93 3e 11 78 80 be f3 1a 6f 3d
       -0.0043260157 0.28818566 -0.25091603 0.05837531
0002a0 1b 6e 61 3f 8c 7c 4b 3e 2e fb f0 3c 7a 10 03 bd
       0.8805863 0.1987173 0.029416647 -0.031998135
0002b0 6f af a8 bd 6d e1 fd bc 6e 4e b8 3d f1 f3 81 be
       -0.08236586 -0.03099128 0.08999334 -0.25381425
0002c0 79 cd 67 3d c7 16 e0 be 3a e6 54 bd da c7 14 be
       0.05659244 -0.43767378 -0.051977374 -0.14529362
0002d0 1e 65 ad 3d e8 67 ab 3e b8 89 9f 3c 03 21 9b 3e
       0.08466552 0.33477712 0.01947485 0.30298623
0002e0 01 50 85 be b0 f3 64 3d 36 f1 76 bc e2 5f 07 3e
       -0.260376 0.05589646 -0.015072158 0.1322017
0002f0 9b d2 b7 3d 10 5a 0a bc 61 58 1b bd cc 47 e4 3c
       0.08975717 -0.008444324 -0.03792608 0.027866267
000300 6b 5e 5a 3f ee b8 b5 3d 80 e2 84 bd 7c f2 e7 3d
       0.8530032 0.08873163 -0.06488514 0.11325547
000310 62 cf 89 bd 65 80 06 be 88 9f c6 bd cc 13 d3 3d
       -0.06729008 -0.13134916 -0.09698397 0.1030651
000320 24 c7 63 3d 35 f3 ae be 87 28 2c bd d8 f1 0b be
       0.055609837 -0.34169927 -0.042030837 -0.13666475
000330 8a 9e 87 3b bd 99 23 3e 2b cd 0f 3c 34 ac ac 3e
       0.0041387724 0.15976615 0.008776943 0.3372513
000340 f3 5c 8b 3f 67 7c 05 3e 49 db ec bd 60 23 30 3c
       1.0887741 0.13035737 -0.11565263 0.010750622
000350 54 f8 9a 3d 44 ed 05 be 6e 3f 01 be a9 ba 4e 3e
       0.07566896 -0.13078791 -0.12621853 0.20188393
000360 a7 c6 19 bf df 75 99 bc 9b 33 13 bd 82 d7 af bd
       -0.60068744 -0.018732963 -0.035937887 -0.08586027
000370 c3 8a b4 3d 68 fa 63 3d 64 22 07 3d 78 4e 46 3c
       0.08815529 0.055658728 0.03299178 0.012103669
000380 cb 1c 18 be 98 90 ad 3d b2 b4 2d 3e a9 c0 06 be
       -0.14854734 0.08474845 0.16963461 -0.13159432
000390 b2 2e 07 3d 89 f6 5f be a8 50 d7 bd 49 84 cc 3e
       0.033003516 -0.2187139 -0.10513431 0.39944676
0003a0 89 1c df ba 2e b2 2e be cc 92 b6 3b 22 db 0d bd
       -0.0017022054 -0.17060158 0.005571699 -0.03463281
0003b0 aa 01 e0 bc 5a 22 12 3e fb 63 cd bc 0d 07 24 3e
       -0.027344543 0.14270917 -0.025072088 0.16018315
0003c0 7b 92 3f bf 68 ae 52 be ef 2d 23 3d 66 bd 8d 3d
       -0.74832886 -0.20574343 0.039838728 0.069208905
0003d0 f6 33 99 bd a0 4f b1 bb 83 be 9c bd 3f b6 8d 3e
       -0.07480614 -0.0054111034 -0.07653525 0.27678105
0003e0 d9 13 d9 be c8 08 28 3e 6e 59 f3 bc 91 8c ea bc
       -0.42397955 0.164096 -0.02970573 -0.02863148
0003f0 92 e6 97 3c 2a b3 01 be 4e 72 1b 3c 20 9b 79 3b
       0.018542562 -0.12666002 0.009487702 0.0038086846

embedding.bias f4 [32]
000000 01 e5 6f bf 3e 6b 8b bf 73 04 e0 3f cc 9b 8f be
       -0.9370881 -1.0892103 1.7501358 -0.2804855
000010 73 50 d9 3e 92 af 05 3f b0 ea 7e bf a6 13 6d 3f
       0.4244419 0.52221024 -0.99576855 0.92608106
000020 bd 38 34 bf 3c 1b 18 3c c4 a5 7d be c7 5b e7 3e
       -0.70399076 0.009283837 -0.24770266 0.45187208
000030 0f a7 d4 bf 42 5d a7 3f 4c ec 2a 3f 19 24 ec bf
       -1.6613482 1.3075335 0.6676681 -1.8448516
000040 4b 21 98 3f 3f b7 2e 3f 59 0f 81 bf 0f 3b 6f be
       1.188516 0.6824836 -1.0082809 -0.23362373
000050 87 41 4c 3f 15 e5 c4 be a6 95 44 3e 7d 59 27 bf
       0.79787487 -0.38456026 0.19197711 -0.65370923
000060 b5 60 e2 3e 7d 6a c2 3f 94 97 30 3f 7d 3d f6 be
       0.44214407 1.5188748 0.6898129 -0.48093787
000070 f4 17 00 be 90 f2 a8 3f ab d8 7f bf 27 0e 80 3f
       -0.12509137 1.3199024 -0.99939984 1.0004319

transformer.transformer_encoder.layers.0.self_attn.in_proj_weight f4 [96, 32]
000000 cd 77 ff bd c8 99 bc 3b d1 eb 07 bd 3b 7a 5c be
       -0.12474022 0.005755637 -0.033183876 -0.21531002
000010 c2 4d 59 be 6b 2a 0b bd b7 1b 33 bb cc 34 6b 3c
       -0.21221069 -0.033976 -0.0027329752 0.0143558495
000020 66 54 ab 3c c1 d3 0f 3e f0 57 17 3e da 33 c7 3d
       0.020914268 0.14045621 0.14779639 0.09726687
000030 90 dd 4e 3d 12 38 c4 bd 10 1d 93 3b 72 4a 03 be
       0.050504267 -0.09581007 0.0044895485 -0.12821367
000040 d1 74 53 3e 86 6b 51 be 5f 43 54 be 73 71 61 bd
       0.2065003 -0.20451173 -0.20728825 -0.055039834
000050 40 5f 76 bd 70 f4 74 3d 6a ff 0d bb 5c 9a 47 be
       -0.06014943 0.059803426 -0.0021667131 -0.19492477
000060 6c 0e 3a be d9 b2 e4 3d fa d0 5b be 5a f3 43 3e
       -0.18169564 0.11166925 -0.21466437 0.191358
000070 9c 7a 31 3e 3f fb 2d be 79 9a 03 3e 10 33 21 be
       0.17331928 -0.16990374 0.12851895 -0.15742135
000080 6b 6e 09 3d b9 32 00 be 3e ca 86 bc c9 d6 cc bd
       0.03355257 -0.12519349 -0.016453858 -0.100019045
000090 6f af bc 39 a2 4d 45 bc 2a 45 8a 3c fd dc 47 be
       0.00035988863 -0.012042435 0.016878683 -0.19517894
0000a0 53 32 56 be d0 3d 35 3e c8 5a 43 3e cb b7 d3 3d
       -0.20917635 0.17699361 0.19077599 0.1033779
0000b0 c2 99 4c bc fd 4a 56 3e 85 0e ca 3d 9d d0 86 bd
       -0.012487831 0.20927043 0.09866051 -0.065827586
0000c0 19 48 cd 3c 37 c9 89 ba 26 d8 37 bd 3d f7 0c be
       0.025058793 -0.0010512237 -0.04488387 -0.13766189
0000d0 8c 4e 18 bd 70 b7 07 be 99 34 84 bc 33 fe f0 3d
       -0.037184283 -0.1325357 -0.016138362 0.11767235
0000e0 1f 06 b6 3c 01 40 6e 3b 9f 2e d5 bd 5b 9b 47 3e
       0.022219716 0.0036354067 -0.10409283 0.19492857
0000f0 bd ed 44 be e8 aa f4 3d fb dd b9 bd fc df 56 3c
       -0.19231315 0.1194666 -0.090755425 0.0131149255
000100 ee 7d e5 bd 29 19 ef bc 49 d3 22 be e4 78 2c be
       -0.1120566 -0.029186802 -0.15900911 -0.16842991
000110 b1 91 4c bd 8a e7 54 be 24 54 d7 bd 4a c8 ff bc
       -0.04994363 -0.2079145 -0.105140954 -0.031223435
000120 7d a3 a3 3d 4d 31 50 3e 00 b3 54 3e 74 2f 20 be
       0.07990167 0.20331307 0.20771408 -0.15643102
000130 ba 28 12 be a8 45 bc 3d d3 8f 13 be eb d3 8e 3d
       -0.14273348 0.091929734 -0.14410333 0.06974014
000140 99 12 1a 3e 9c 4e d5 bd 42 2a 28 3e 23 be 28 3e
       0.15046157 -0.10415384 0.1642237 0.16478781
000150 da 84 0e be a2 8f 07 3e 8f 94 c4 bd bf fc 22 3e
       -0.13917866 0.13238385 -0.09598648 0.15916727
000160 dc 47 ac 3c b4 5e 55 3e dc 8c 08 3e 92 d5 79 bd
       0.021030359 0.20836908 0.13334984 -0.060994692
000170 f7 bf ef 3d 57 b7 0d 3e ea 1b cf 3d 36 70 54 be
       0.11706536 0.1383947 0.10112746 -0.2074593
000180 2b c8 33 3e 42 b4 e7 3d 95 35 2d 3d 98 00 b0 bc
       0.17556827 0.11313678 0.042287428 -0.021484658
000190 c6 3b 25 be db d2 7a 3d 29 45 4b 3e ba ae 4f 3e
       -0.16136083 0.061236244 0.19850601 0.20281497
0001a0 58 7e 41 be 47 27 37 be e5 e1 32 3e b0 c9 3f be
       -0.18895853 -0.17886077 0.17468984 -0.18729281
0001b0 b0 ef c0 bd 92 5e 8e bd 8f f7 b2 bd 53 88 03 be
       -0.09420717 -0.069516316 -0.08738624 -0.12844972
0001c0 b4 64 8c bc 19 f4 33 3e eb 96 fb bd b9 3e 43 be
       -0.017137863 0.17573585 -0.12284645 -0.19066896
0001d0 33 af 24 bc 5d 25 97 3b 8c 4b 52 3d cc 94 82 3d
       -0.010051536 0.0046126083 0.05134158 0.06376037
0001e0 19 6f 20 be 16 cd 52 3e 8c 68 22 be 0f b5 f2 3d
       -0.1566738 0.20586047 -0.15860194 0.118509404
0001f0 8c 79 11 be c6 8c 06 3e 12 9f 5b 3e 3b 2f 05 be
       -0.14206523 0.13139638 0.214474 -0.13006298
000200 03 8d d4 3d 21 14 8d 3d fe 9a 33 be f6 b2 58 3d
       0.10378458 0.06888605 -0.17539594 0.052905045
000210 4d bd 10 bd ef ec 07 be af d3 48 be 1b ed 39 3d
       -0.03533678 -0.13273977 -0.19612001 0.045392137
000220 5d 8e 05 3e 34 f8 a2 bd 46 d9 49 be 70 5a 5b 3e
       0.13042589 -0.07957497 -0.1971179 0.21421218
000230 57 f7 af 3c 28 90 28 3e 16 4d f8 bd ce eb 50 bd
       0.021480246 0.16461241 -0.12124078 -0.05100613
000240 da 1a ea 3c 83 80 a9 bd 9c 35 29 be 0f 24 0b be
       0.028577257 -0.08276465 -0.16524357 -0.13587974
000250 65 cf 32 be 4c 1e 19 be 60 c4 9f 3c e8 7b 59 3d
       -0.17461927 -0.14952964 0.019502819 0.05309668
000260 ab 60 05 be 6e 97 13 3e 57 2e e0 bd c7 64 11 3e
       -0.13025157 0.14413235 -0.109463386 0.141986
000270 f8 09 4c be b9 85 32 be 66 04 5f bd 7c 9c 1c bd
       -0.19925678 -0.17433824 -0.054447554 -0.038235173
000280 4b 67 19 be 87 db 47 3e 4a d3 58 be 08 74 1b 3e
       -0.1498081 0.19517337 -0.2117435 0.15180981
000290 31 fa 6f bd 9b 49 af 3d 6e 9d 1d be c3 28 36 bc
       -0.05858821 0.08558961 -0.15392086 -0.011118117
0002a0 09 f2 22 be 40 ec 22 be e1 6e b8 3d 5b a0 7a bd
       -0.15912642 -0.15910435 0.090055235 -0.061188083
0002b0 61 23 bc bd 64 ae cc bd 70 b1 73 3c 6a 11 5c bd
       -0.091864355 -0.099942 0.014873847 -0.053727545
0002c0 20 a5 c2 3d ad 9d 00 3e 72 85 54 3d 40 eb 38 3e
       0.09504151 0.12560149 0.051885076 0.18058491
0002d0 d8 e4 44 3c 28 40 26 3e 87 97 03 3e 70 86 18 3e
       0.012017451 0.16235411 0.12850772 0.14895034
0002e0 4b 43 5c 3e 1c 7c b5 3d 80 b9 3f be 6a 55 38 be
       0.21510045 0.088615626 -0.18723106 -0.18001333
0002f0 da e3 9f 3d 01 ef 2f 3e 83 19 46 3e 2e 10 a0 3d
       0.07807131 0.17181017 0.1934567 0.07815586
000300 06 fa 27 be 64 61 3e bd c2 ba 02 3e b4 96 34 be
       -0.1640397 -0.046479598 0.12766555 -0.17635614
000310 d6 fb 35 3d c0 99 85 bd 1f 46 45 be 4c e0 a8 bd
       0.044429623 -0.06523466 -0.1926503 -0.08245906
000320 f6 ff 17 be 00 95 fc 3d b3 b3 16 bc f4 99 55 3e
       -0.14843735 0.12333107 -0.009198117 0.2085951
000330 cc 28 fe bd c1 66 fd 3d a7 f6 fb 3c e1 cc 1d 3e
       -0.12410125 0.123731144 0.030757261 0.15410186
000340 20 fd 4c be 6b 46 3a 3d 22 f4 21 be 0c d3 a7 bd
       -0.20018435 0.045477312 -0.15815786 -0.08194551
000350 11 d6 75 3b c0 94 e1 3d 39 60 03 be 89 41 33 be
       0.0037511627 0.110147 -0.12829675 -0.17505468
000360 03 7e dd bd b8 1f e7 bc ae 78 0e be 1e c3 0d 3e
       -0.108150505 -0.028213367 -0.13913223 0.13843963
000370 83 10 5d be 7f 07 30 bd 1f 08 2e 3e 6e 34 18 be
       -0.2158833 -0.0429759 0.16995285 -0.1486375
000380 3c 92 fb bd 6b b8 55 be 0b e9 e7 bd 69 82 24 bd
       -0.12283751 -0.20871131 -0.11323746 -0.04016343
000390 44 d2 30 be d6 11 02 be 15 21 ee bd df d0 ba 3d
       -0.1726771 -0.12702116 -0.11627404 0.0912187
0003a0 63 12 a8 3d 7c 7f 48 bc 59 d2 34 be 30 44 2b 3d
       0.08206632 -0.012237426 -0.17658366 0.041813076
0003b0 e0 42 d5 3d e9 ae bd bd ad 70 b0 bd fa 38 88 3d
       0.10413146 -0.09261877 -0.08615241 0.066514924
0003c0 e5 92 3b 3e 5e 1e 13 3e e7 a3 f2 3d b1 84 1d be
       0.18317755 0.14367053 0.11847668 -0.15382649
0003d0 95 3e dc bb c9 97 df bc 94 b1 6f 3c e6 fe df 3d
       -0.0067213275 -0.027294056 0.01462974 0.1093729
0003e0 12 1e 32 be ef b5 94 3c f0 8e b6 bd d5 94 25 be
       -0.17394283 0.018153159 -0.08913982 -0.16170056
0003f0 f8 30 bd bd 3e af 00 3e e6 c0 a7 3d 99 d8 d6 3d
       -0.09237856 0.1256685 0.08191089 0.104905315

transformer.transformer_encoder.layers.0.self_attn.in_proj_bias f4 [96]
000000 00 00 00 00 00 00 00 00 00 00 00 00 00 00 00 00
       0.0 0.0 0.0 0.0
000010 00 00 00 00 00 00 00 00 00 00 00 00 00 00 00 00
       0.0 0.0 0.0 0.0
000020 00 00 00 00 00 00 00 00 00 00 00 00 00 00 00 00
       0.0 0.0 0.0 0.0
000030 00 00 00 00 00 00 00 00 00 00 00 00 00 00 00 00
       0.0 0.0 0.0 0.0
000040 00 00 00 00 00 00 00 00 00 00 00 00 00 00 00 00
       0.0 0.0 0.0 0.0
000050 00 00 00 00 00 00 00 00 00 00 00 00 00 00 00 00
       0.0 0.0 0.0 0.0
000060 00 00 00 00 00 00 00 00 00 00 00 00 00 00 00 00
       0.0 0.0 0.0 0.0
000070 00 00 00 00 00 00 00 00 00 00 00 00 00 00 00 00
       0.0 0.0 0.0 0.0
000080 00 00 00 00 00 00 00 00 00 00 00 00 00 00 00 00
       0.0 0.0 0.0 0.0
000090 00 00 00 00 00 00 00 00 00 00 00 00 00 00 00 00
       0.0 0.0 0.0 0.0
0000a0 00 00 00 00 00 00 00 00 00 00 00 00 00 00 00 00
       0.0 0.0 0.0 0.0
0000b0 00 00 00 00 00 00 00 00 00 00 00 00 00 00 00 00
       0.0 0.0 0.0 0.0
0000c0 00 00 00 00 00 00 00 00 00 00 00 00 00 00 00 00
       0.0 0.0 0.0 0.0
0000d0 00 00 00 00 00 00 00 00 00 00 00 00 00 00 00 00
       0.0 0.0 0.0 0.0
0000e0 00 00 00 00 00 00 00 00 00 00 00 00 00 00 00 00
       0.0 0.0 0.0 0.0
0000f0 00 00 00 00 00 00 00 00 00 00 00 00 00 00 00 00
       0.0 0.0 0.0 0.0
000100 ea d8 a6 3b d3 d7 ad 3b af 98 19 bd 76 80 2e bd
       0.005091776 0.0053052693 -0.037499126 -0.04260298
000110 8a 9e 44 ba 53 02 30 bd 85 3b 26 3d fd 89 e1 bd
       -0.0007500431 -0.042970967 0.040584106 -0.11012647
000120 08 13 4b bd 0d ff ca 3d 17 b4 b4 3c d6 94 72 bd
       -0.049578696 0.09911928 0.02205853 -0.059223972
000130 9b f7 bb bd 5a 40 3b bd a9 c5 14 bd 0c d7 27 3e
       -0.09178086 -0.045715667 -0.036321316 0.16390628
000140 4b 98 d9 bd 11 4e 99 bd 42 ba 1a bc 92 93 19 bc
       -0.10624751 -0.07485593 -0.009443821 -0.009373562
000150 94 59 28 bd 7e 82 12 bd 2f 62 9e bd ca 54 9f 3d
       -0.041101053 -0.03576898 -0.07733571 0.07779844
000160 84 d0 dc 3d 7d 9f 4e 3d d2 e6 17 be 71 c6 33 bd
       0.10781959 0.05044507 -0.14834145 -0.04389042
000170 4b cf b8 3d 13 b0 36 3c 49 a1 e4 3d c2 8e 05 3e
       0.09023913 0.011150378 0.11163575 0.13042739

transformer.transformer_encoder.layers.0.self_attn.out_proj.weight f4 [32, 32]
000000 10 44 fd 3c 7b d4 dd bc 40 d6 38 3d bb c9 ad bd
       0.030916244 -0.027078858 0.0451262 -0.08485743
000010 cb fb b5 bc e6 c8 01 bd e6 66 7a 3c a8 42 c9 3c
       -0.02221479 -0.031685732 0.015283322 0.024567917
000020 0d 39 8d bc 58 ea e6 3b 87 78 39 3c 6a 07 96 bd
       -0.017239118 0.007046979 0.01132024 -0.07325633
000030 b2 ec 98 3c 50 81 fb bc dd 4b 91 3c 72 06 20 bd
       0.018667553 -0.03070131 0.01773637 -0.039068647
000040 f0 95 23 bb 26 a2 2e bd ac ba c5 3d ef 65 33 3d
       -0.0024961196 -0.042635106 0.096547455 0.043798383
000050 a3 00 13 3c 0c 83 78 3d ed b0 0a bc 54 5a bd bd
       0.00897232 0.06067185 -0.008465034 -0.09245744
000060 df 90 99 bd 37 e1 a7 3d 44 db 6b bd c4 db bb 3c
       -0.07498335 0.08197253 -0.057582155 0.02293194
000070 ec fc 5d bc a6 a4 25 bd aa e0 7a 3d 58 52 89 3c
       -0.013549071 -0.040440224 0.061249413 0.016762897
000080 39 71 26 bb c2 92 3e 3d 68 d4 e2 3b c7 36 c3 3d
       -0.0025397076 0.046526678 0.0069222935 0.09531932
000090 43 73 88 3c 53 e6 7e 3b 72 6d 56 bd 09 9c b7 bc
       0.016656524 0.0038894608 -0.05235047 -0.02241327
0000a0 28 6d 00 bd 66 41 52 bc bd 58 b9 bd c3 94 59 bd
       -0.0313541 -0.012832975 -0.090501286 -0.053120386
0000b0 d6 5e 18 ba f4 97 bb 3d 89 84 ac 3d ba de 02 3d
       -0.00058124715 0.09159842 0.084237166 0.03195069
0000c0 6a b4 13 bc 19 7a 3c 3d a4 79 9b 3d 1b 58 05 3c
       -0.009015182 0.04601488 0.075915605 0.008138682
0000d0 3e d9 0c 3d 56 b2 57 3c aa dc ac 3c de b6 00 bd
       0.034386866 0.013165077 0.021101315 -0.031424396
0000e0 5a 65 01 bd ed bb 8e 3b 95 3e 8e 3d 11 de 92 bc
       -0.031590797 0.0043558986 0.0694553 -0.017928155
0000f0 6f 09 40 3b 70 91 1f bb 28 99 00 3d 0f bb 1e 3d
       0.0029302498 -0.0024348162 0.03139606 0.03875261
000100 ec 38 2f 3d b1 a4 c9 bd 32 5c 9a 3d 17 e5 a9 3c
       0.042778894 -0.098458655 0.07537116 0.020739121
000110 e1 15 0e 3c 36 21 d9 3c fb c8 37 3d 53 3e 2d 3d
       0.0086722085 0.026505094 0.044869404 0.042295765
000120 94 5a af 3c fb 2f 1e bd 63 58 c0 3c c0 16 70 ba
       0.021405496 -0.038619976 0.023479646 -0.00091586635
000130 b4 52 d7 39 ca 51 51 bd f7 38 98 3c ec 03 86 bd
       0.00041069614 -0.05110339 0.01858185 -0.06543717
000140 5b 10 62 bc 7e 60 8f bd 3d 67 76 3d af 73 e3 3c
       -0.013797845 -0.07000826 0.06015705 0.027765123
000150 e2 95 31 3d bf bb 06 bd fa ae c1 3c 2a ae 23 3b
       0.04335583 -0.032893892 0.023643006 0.0024975636
000160 19 37 25 3d 40 f9 89 3c 7c 82 9a bb d2 8e c5 3c
       0.04033575 0.016842484 -0.004715262 0.024115954
000170 f5 a5 d5 bc 90 c6 a7 bd a6 b1 ce ba 75 69 a5 bc
       -0.026080111 -0.0819217 -0.0015769496 -0.020191887
000180 e6 df ad bd 62 7d eb bc 5a b9 dc bd e4 b4 d6 bc
       -0.08489971 -0.02874631 -0.107775405 -0.026209302
000190 f1 23 2e 3d 41 fc 55 3c a2 b2 aa bb ec 4f 2b be
       0.042514745 0.01306063 -0.005209283 -0.16729707
0001a0 8f 65 d4 bd f4 ba 54 bd 0d c9 f5 bc 1d 34 59 3d
       -0.10370933 -0.051936105 -0.030003095 0.053028215
0001b0 2a 00 9b 3d 4a f3 c8 bd 7b 9c 35 be b3 01 23 bd
       0.07568391 -0.09812029 -0.17735474 -0.039796542
0001c0 24 38 2d bb a5 71 19 3b 6b 9d df bd 14 75 12 3d
       -0.0026431167 0.0023413685 -0.10918697 0.035756186
0001d0 b1 95 22 3d e8 53 a0 bd b2 dd 8c 3c 5b 3e 76 bd
       0.039693538 -0.07828504 0.017195556 -0.06011806
0001e0 27 02 c1 3d 47 0b 02 3c d8 ae a4 bd d1 54 ea bc
       0.09424239 0.007937259 -0.08041161 -0.028604897
0001f0 cc 51 51 3d c5 c9 27 3c 00 f7 55 bd 24 59 4f 3c
       0.0511034 0.010240977 -0.05223751 0.01265553
000200 40 65 9d bc c7 26 1f 3d 1f 6c 81 3c 11 a4 2b 3d
       -0.019213319 0.03885534 0.015798626 0.041904513
000210 1c f2 cb bc 71 a6 48 3d 23 70 2e bc 64 62 22 38
       -0.02489572 0.048986856 -0.010646853 3.8715443e-05
000220 07 54 71 3d 24 17 c7 bc ce fb 27 bd 03 a6 23 bd
       0.058918025 -0.024303026 -0.041011624 -0.039953243
000230 4e 16 58 3d 4e 25 ad 3c ad 0a de bc 29 42 95 bc
       0.052755646 0.021135952 -0.0271047 -0.018220024
000240 23 a2 e1 bc 2e 56 a3 3b 21 7f a5 3d 6c f9 b2 3c
       -0.027543133 0.0049846387 0.080808885 0.02184745
000250 c6 fb 35 3c 93 ff 0a bd 36 20 0e bb 4a ee 04 bd
       0.011107391 -0.03393514 -0.002168668 -0.032453813
000260 9c 40 65 bc d8 1d 3a 3d 10 84 1b 3d e3 cc 52 bc
       -0.013992455 0.045438617 0.03796774 -0.012866232
000270 f5 f3 2b 3d 10 6b 2a 3d f7 76 9a bc 08 be 45 3b
       0.041980702 0.04160601 -0.018855555 0.0030173082
000280 e8 92 96 3d 51 fd b7 3c dc 8f 2d bd 34 e8 9d 39
       0.07352239 0.022459658 -0.042373523 0.00030118378
000290 c6 5b 15 3e fb cd 53 bd 99 8a 86 3d ad 9b c2 bd
       0.1458579 -0.05171011 0.06569404 -0.09502349
0002a0 f0 77 4f 3c 2c 54 88 3c 69 9e 59 bd c5 fc 25 3c
       0.012662873 0.016641699 -0.053129587 0.010131066
0002b0 eb b3 90 3d 14 1f 85 bd b9 1e 6f bc fa 2a 77 3c
       0.07065567 -0.06500068 -0.014594727 0.01508593
0002c0 b1 e8 1d bd 59 b2 e3 bd 1d 96 f4 bc 46 48 da bd
       -0.03855199 -0.111180015 -0.029856736 -0.10658316
0002d0 67 d6 ea 3c d8 43 e6 3d 5e bc 03 bd 4d ed 8b bd
       0.028666688 0.11243409 -0.032162063 -0.06832371
0002e0 4e 0e 14 bd b6 84 d2 ba 50 57 bd 3c a3 bc d4 3c
       -0.036146455 -0.001606128 0.023112923 0.025968855
0002f0 51 a1 ff bc 3f df 34 bd 60 f6 fc 3d e6 95 86 bd
       -0.031204851 -0.044158217 0.1235168 -0.065715596
000300 cf 72 d8 ba 0b 89 3e 3d 10 3a 9e 3a 02 46 01 bc
       -0.0016513708 0.046517413 0.0012071747 -0.007890226
000310 1c e6 9e bc a0 5a 73 3d 81 9e 9d 3c 36 3f a2 bb
       -0.019396834 0.0594126 0.01924062 -0.004951383
000320 c8 ca c2 3c e3 e0 f9 3c 92 40 98 bc 68 df 6c bc
       0.023778334 0.030502742 -0.018585477 -0.014457561
000330 88 55 2d 3b 06 25 d8 3c 78 92 3f bd c9 cb 05 bc
       0.0026448686 0.026384842 -0.046770543 -0.008166262
000340 83 0d 10 3d 92 af 46 bd d0 46 e3 3c 94 47 87 bb
       0.035169136 -0.04850728 0.027743727 -0.004128406
000350 30 96 16 bc ca c6 e3 3c 7b be d1 bc 6b 39 78 bd
       -0.009191081 0.027804751 -0.025603523 -0.060601633
000360 04 d4 22 3b 8f 48 18 3d 76 4b 1d bc 2f 4e 8f 3b
       0.002484561 0.037178572 -0.009600511 0.004373334
000370 6f fc 85 3d 43 d6 3b 3d d7 ec 3c 3c cc d2 1d 3c
       0.065422885 0.045858633 0.011531076 0.009632777
000380 0e 07 3b bc f0 05 2d bc 48 8e 81 3c af d0 60 bd
       -0.011415256 -0.010560498 0.015814915 -0.054886516
000390 17 3b aa 3c 55 4d d4 3c 4f e1 54 3c 0a 0f 10 3c
       0.02078013 0.025915781 0.012993171 0.008792648
0003a0 95 3c 33 bc 0a 33 04 bc a5 29 92 3d 8d d3 e6 bc
       -0.010939737 -0.008068809 0.07136849 -0.028177047
0003b0 44 2f e5 bc af 2f 5e 3d 8d 3c 28 3d c4 cc 92 bc
       -0.02797664 0.054244693 0.04107337 -0.017919905
0003c0 01 47 da 3b 17 fa 3f 3d cf 2d 99 bb 6d 9c 0c 3d
       0.0066612964 0.046869364 -0.0046746503 0.034328867
0003d0 c7 22 8e bc e1 c9 93 bc c1 73 0f bc 31 d5 99 bd
       -0.017350568 -0.0180406 -0.008755625 -0.07511366
0003e0 ea 97 2b 3d ba dd e3 bc de 36 3f bd e5 58 e9 bb
       0.041892923 -0.027815688 -0.046683185 -0.0071211928
0003f0 26 3a a0 3d 7d a4 6b bb 74 9e eb 3c be d2 05 3d
       0.07823591 -0.0035956197 0.02876208 0.032671683

transformer.transformer_encoder.layers.0.self_attn.out_proj.bias f4 [32]
000000 f1 65 6c bc 0f 23 49 bd e2 b8 b3 3d 54 89 61 3c
       -0.014428602 -0.0491057 0.08775498 0.013765652
000010 af a4 23 3c 2c 05 16 3d 03 f7 a9 bb 2b 54 e4 3c
       0.009987994 0.036626026 -0.005186917 0.027872166
000020 37 d7 f0 3b a1 7d ca bb 16 40 d1 bc e0 76 65 3f
       0.0073498744 -0.006179527 -0.025543254 0.89634514
000030 0b 08 46 bd 48 70 00 3d fd a9 b1 3c 53 58 d4 bc
       -0.048347514 0.03135708 0.021687502 -0.025921023
000040 0d 98 8b 3f 6b 10 a5 3b e4 50 51 bc 24 00 e1 3b
       1.0905777 0.0050373576 -0.0127756335 0.006866472
000050 e1 85 df 3b 60 2b 0d 3c e0 59 00 3e 0d e8 52 bd
       0.0068213795 0.008616298 0.12534285 -0.051490832
000060 d5 ac bc 3c f9 40 75 3f 2a 80 01 3c fc b4 ee bc
       0.023031631 0.95802265 0.007904092 -0.029139034
000070 e1 75 60 bd 8e 87 2a 3e 81 4c 95 bc 3e a2 16 3c
       -0.054799918 0.16653273 -0.018224956 0.009193955

transformer.transformer_encoder.layers.0.linear1.weight f4 [64, 32]
000000 04 ad f4 3d 2a f6 5e 3b 7c 50 50 3b cb bc ca be
       0.119470626 0.0034021237 0.0031786254 -0.39597163
000010 db 34 fc bc e1 1f d6 bd 9c 31 91 be c1 c4 26 3d
       -0.030786922 -0.10455299 -0.2835816 0.040714983
000020 bd 2a 96 bd e5 3b ad 3e ed 04 6e 3d 13 73 94 be
       -0.073323704 0.33834758 0.058110166 -0.28994045
000030 c9 bc 78 3e 44 f1 c9 bd 61 cd 2a 3c 3b 1c 69 3e
       0.24290766 -0.09860471 0.010424943 0.22764675
000040 8d b5 a1 be 48 a6 b5 bc f9 2f 70 be 70 f5 2f 3d
       -0.31583825 -0.022174016 -0.234558 0.042958677
000050 60 24 6c bd 77 58 ae bd fd 4b a7 3e 56 47 5f bd
       -0.057651877 -0.08512967 0.32675162 -0.05451139
000060 96 66 d4 bd db f6 fa 3d 99 c7 50 bd e9 3e cd bc
       -0.10371129 0.12254115 -0.0509716 -0.025054412
000070 1e bd aa 3d 1c 6d ad 3d fd 0a 80 3e 4b ed 91 be
       0.083368525 0.084680766 0.25008383 -0.28501353
000080 77 39 d8 3e 86 27 ae 3e a5 2e 92 bd 3d bd 06 3e
       0.42231342 0.3401453 -0.07137803 0.13158126
000090 15 17 7d be 79 53 aa be 98 4d 81 3c 9a 29 4d bf
       -0.24715836 -0.3326681 0.01578407 -0.80141604
0000a0 4f a2 c8 3e 12 6e a5 be c8 a7 63 3e c3 dc 58 3d
       0.39186332 -0.3231054 0.22231972 0.05294491
0000b0 3e e3 2b 3e b2 b0 f4 be 4f 34 97 3d bf 2b 5d 3e
       0.16785905 -0.47791058 0.07383024 0.21598719
0000c0 c4 74 fb 3c 5d d0 20 3e 88 eb 9f 3c 6b 4c c4 3e
       0.030695327 0.15704484 0.01952149 0.38339552
0000d0 21 c8 35 bf ae af 12 3e fd ba e9 bd 3a 10 3e 3e
       -0.710085 0.14324829 -0.11412618 0.18560877
0000e0 2e 6e d0 3d 18 7e f7 bb 9b b8 d3 3d d4 9e 36 3c
       0.10177265 -0.0075528733 0.10337945 0.011146266
0000f0 55 07 e3 3d 01 11 a2 be e0 37 ad bd e1 5d d0 be
       0.11085383 -0.31653598 -0.08457923 -0.40696624
000100 9e b2 0a 3e 41 92 63 3c 07 68 c9 ba 84 00 4f be
       0.135447 0.01388985 -0.0015366086 -0.2021504
000110 2c 0e 6a 3a a7 5b 9f bc 6d af 1e be fd 69 e7 bc
       0.00089285034 -0.019452883 -0.15496607 -0.028248781
000120 a9 dd d4 bc df 84 eb 3d 76 57 e1 3b 12 97 ab be
       -0.025984602 0.114999525 0.0068768812 -0.33513695
000130 84 a1 be 3e 0e 93 80 3d 55 54 5d be 42 18 d4 3e
       0.37232602 0.062780485 -0.21614201 0.41424757
000140 4b c7 8e be ed 15 c4 3c 3b 95 ef bc 1b cd 9d bd
       -0.27886423 0.023936236 -0.029245963 -0.077051364
000150 b5 b5 98 3e 6c 71 4c 3d a7 75 01 3f 27 de a2 3e
       0.2982613 0.049912855 0.5057015 0.31810114
000160 ba cd f4 bd 8e 9f fc bc d2 31 c1 3d 46 68 1f 3d
       -0.11953302 -0.0308378 0.094333306 0.038917802
000170 bf 15 cb 3c 25 28 45 3d bf 42 4d 3e e8 57 02 bf
       0.024790643 0.048133988 0.20044993 -0.50915384
000180 8c a2 3e 3e b1 f8 ab 3e 51 f3 06 bd 77 47 3c 3c
       0.18616694 0.33588174 -0.03294689 0.011491648
000190 07 c5 ba 3b 53 de 9c be cd 8c fe bd ef c3 cb 3c
       0.005699757 -0.3063837 -0.12429199 0.024873702
0001a0 ef aa 87 be 34 f5 a0 3d 4f c5 6d 3e a6 7e ca be
       -0.264976 0.07859269 0.23219799 -0.3954975
0001b0 85 b4 97 3e 33 81 23 be 25 09 24 3d 93 f7 a5 3e
       0.29629913 -0.15967254 0.040047783 0.32415447
0001c0 be c5 76 bd 3f be 03 3e 0f f7 5a 3d 42 c8 85 3c
       -0.060247175 0.12865542 0.05345827 0.016330842
0001d0 64 35 8e 3e c4 23 b3 bd a0 29 cd 3e f1 e7 0a 3e
       0.2777511 -0.08747056 0.4007082 0.13565041
0001e0 b6 d1 1f be 2c 73 76 bd 71 ed 72 3d c4 ae 05 3e
       -0.15607342 -0.06016843 0.059308473 0.13054949
0001f0 8e 4c ad bc 8c d1 cb bd 11 87 b0 bd af df 88 be
       -0.021154668 -0.09952077 -0.08619512 -0.26733157
000200 4c 8c 43 bd 6e 42 83 3e e4 bf 7b 3d b8 26 79 bd
       -0.04774122 0.2563662 0.061462298 -0.06082794
000210 dd 5e 7f 3e bc ad 30 be e6 4a 3b bd fb 5d 0b bd
       0.24938531 -0.17253774 -0.045725726 -0.034025174
000220 76 15 c3 3d d2 1c 40 3c 57 d9 43 bd 34 ea 5e be
       0.09525578 0.011725621 -0.047814693 -0.21769029
000230 a5 2e 42 3d af 2c e0 bc 2a cf 39 3e 75 84 23 3e
       0.047407765 -0.027365057 0.18145433 0.15968497
000240 f4 5e ea bd 86 f7 1f be 7d 1d 59 3d ca 30 4b bd
       -0.11443892 -0.15621766 0.053006638 -0.049607076
000250 7f a8 d2 bd bb b4 83 3d 8e 1b 2a 3c 46 8a bf bc
       -0.10286044 0.06430956 0.010382546 -0.023381364
000260 37 ea 81 3e 1b 0a d5 bd 83 02 16 3e a1 0b bd bd
       0.25374004 -0.10402318 0.14649396 -0.09230734
000270 21 bd f2 3d a0 d3 b6 be 4b de 30 bd 55 11 22 3d
       0.1185248 -0.35708332 -0.043180745 0.03956731
000280 12 a7 94 3e a4 64 42 3e 5f ad 94 be 6c 3d a9 3e
       0.29033715 0.18983704 -0.29038522 0.33054674
000290 44 cd 60 3d b6 0d ac 3b 3c 11 82 bc 1e a0 4a be
       0.054883257 0.005250658 -0.015877359 -0.19787642
0002a0 47 27 24 be 02 a7 0a bc 97 c2 29 3e 46 73 b9 39
       -0.16030608 -0.008462669 0.16578136 0.00035371835
0002b0 24 14 cd 3e 90 8e 8c be 39 c7 bb 3d 2f c7 8f bd
       0.4005443 -0.27452517 0.09168858 -0.07020413
0002c0 2b eb 58 be 3d 6a 92 be 65 15 27 be 19 ef 84 be
       -0.2118346 -0.28596678 -0.16316755 -0.25963667
0002d0 4f 37 86 3e 18 5c 79 bc 25 41 39 3e b4 45 66 3e
       0.26214072 -0.015219711 0.18091257 0.22487527
0002e0 93 b0 85 3e 08 40 26 bc cb b0 ba 3e 51 90 9a 3e
       0.26111278 -0.010147102 0.36463007 0.3018823
0002f0 50 7a 25 3e 2a 20 6b bd 4b 74 6a be 69 7c ae 3e
       0.1615994 -0.05740372 -0.22895925 0.34079292
000300 12 a6 19 3e 8c ce b8 3e 38 c9 9b bd 52 2e 7f 3d
       0.15004757 0.36095083 -0.07606739 0.062300034
000310 52 37 29 3e dd 25 cc bd 57 57 59 3d 11 45 19 bd
       0.1652501 -0.09968159 0.05306181 -0.037419382
000320 ea 28 aa 3d 55 c1 35 3d da e8 66 bd 95 e1 65 be
       0.08308585 0.04437383 -0.05637441 -0.22449334
000330 56 43 ab 3e c4 6b f0 3d f2 65 b7 bd c4 9a 8b 3e
       0.3344981 0.11739305 -0.089549914 0.27266514
000340 4a ee 1c be f7 d6 68 3e 7f e3 4e 3e 3b 63 03 be
       -0.15325275 0.22738253 0.2020397 -0.12830822
000350 30 9f d3 3d 7b 9e 3d be 35 b2 75 3d c8 7d 48 3e
       0.10333097 -0.18517487 0.059984405 0.19579232
000360 e7 35 2c bd ee 53 6a 3d cf 64 de bd a1 67 92 be
       -0.042043593 0.057208948 -0.108590715 -0.28594688
000370 80 e2 21 3e 2d cc 59 be 17 53 b7 3e e4 39 c8 be
       0.15809059 -0.21269293 0.3580558 -0.39106667
000380 e4 1a c7 3c 0e 4b 92 3d a5 8e e3 bd 84 a7 b7 3d
       0.024304815 0.07143222 -0.11111192 0.08967498
000390 d3 1c 37 3e 0d 90 bd bd ae 0b a7 3d 3a 87 88 be
       0.1788209 -0.09255991 0.081565246 -0.2666567
0003a0 85 41 d9 3d a9 22 3b 3b 4a cc a3 3e 4c a5 0a be
       0.106082 0.0028554595 0.31991798 -0.13539618
0003b0 b4 d6 75 3e 83 a9 0a be 0b 89 ca 3d 60 8a f8 3c
       0.24007684 -0.13541226 0.0988942 0.03033942
0003c0 14 61 c9 bd e4 99 26 bc c2 f1 2b be 2e 8f a7 bd
       -0.09832969 -0.010168526 -0.16791442 -0.08181606
0003d0 5d a0 bc 3d 0b 7c 3b bd a1 a7 06 be 77 a5 c1 bd
       0.09210274 -0.045772593 -0.13149883 -0.09455388
0003e0 d4 60 1f bd ec 33 d6 bd 3d f4 2c be 2b 31 19 bd
       -0.038910702 -0.10459122 -0.16890045 -0.037400406
0003f0 68 74 38 3e 70 ec 0a be 5d 29 0a be d3 f4 8d be
       0.18013155 -0.13566756 -0.13492341 -0.2772585

transformer.transformer_encoder.layers.0.linear1.bias f4 [64]
000000 cf 17 56 bd 93 3c 0c be 7d e8 ac 3d 6f 47 a1 3c
       -0.0522688 -0.13694982 0.08442781 0.019687383
000010 58 8b 22 be 7d ee bd bc 0b 0b 19 3e 29 7a 8b be
       -0.15873468 -0.02318501 0.14945619 -0.27241638
000020 c0 fc 92 be 9b da c9 bc 5f a2 97 be f7 39 31 be
       -0.28708458 -0.024640372 -0.29616067 -0.17307268
000030 f0 d8 dd bd 9b bd 58 be ac 83 96 be aa c7 c9 bd
       -0.10832393 -0.21166079 -0.29397333 -0.09852536
000040 06 db 2b bf 13 91 a7 be 22 55 04 bc 7b ae 1f be
       -0.6713108 -0.3272787 -0.008076938 -0.15593903
000050 f5 41 fc bd 53 c8 e3 bc 9d 98 a9 bd 15 3b 12 be
       -0.12317268 -0.027805483 -0.08281062 -0.1428035
000060 5f 68 ab bd 82 4a ce be 6a 0b 77 be f1 e0 2e be
       -0.083695166 -0.4029122 -0.24125448 -0.17077996
000070 24 5d 5a bd 16 d2 f3 be eb c0 1f be cc a0 55 bd
       -0.053311482 -0.4762122 -0.15600936 -0.0521553
000080 93 8f 3f be 42 0f 65 be fa e5 10 bf 66 a5 a5 bd
       -0.18707113 -0.22369102 -0.56600916 -0.08088188
000090 2a 0a 85 be 41 c2 0a 3e a7 16 99 bc 6e e6 78 3d
       -0.25984317 0.13550664 -0.01868756 0.06076663
0000a0 78 a1 cc bd 2f 83 e3 bc 2e e3 07 3e 3d 7f 15 bd
       -0.09991735 -0.027772514 0.13270256 -0.036498297
0000b0 b2 94 b2 be a3 33 8b be 41 a7 b1 3b 87 f8 90 be
       -0.3487907 -0.27187833 0.0054215495 -0.2831461
0000c0 4d aa 70 be 90 75 bc be 37 67 df 3b c2 26 11 be
       -0.23502465 -0.36808443 0.006817724 -0.14174941
0000d0 76 9f ac 3d 77 41 94 bc a8 1c 42 3e 1c b2 45 3d
       0.08428852 -0.018097622 0.18956244 0.04826556
0000e0 92 55 7d be e9 8d aa be ea b4 6f bd 63 20 26 3e
       -0.24739674 -0.33311394 -0.058522142 0.16223292
0000f0 e8 2f 67 3d 7f f0 8a be ec e1 8c be 86 f0 49 bd
       0.05644217 -0.2713661 -0.27516115 -0.049301647

transformer.transformer_encoder.layers.0.linear2.weight f4 [32, 64]
000000 86 df 60 be 5e 79 c4 3d 02 a9 ac bc 9b 6d b2 bc
       -0.21960267 0.095934615 -0.021076683 -0.02178078
000010 4d 80 90 3e 6a 4f 0a be e1 79 a0 bc 64 0f a4 bc
       0.28222886 -0.13506857 -0.019589366 -0.02002687
000020 50 06 96 bd 4d 7b 62 3e 2a 7b ab bc ad 4c 0d be
       -0.07325423 0.22117348 -0.020932753 -0.1379878
000030 74 ea 00 3e 58 ed fa bd 95 95 21 3c 02 0d f6 3d
       0.12589437 -0.12252301 0.009862323 0.120142
000040 a7 6e a4 3d 16 25 41 3e 59 39 7e 3d 73 de 95 3e
       0.08028918 0.18861803 0.06206641 0.29271278
000050 cd 62 1e bd 32 40 ba 3d 42 a0 86 3e da 41 b7 3d
       -0.038668443 0.090942755 0.26294142 0.08948107
000060 d4 00 16 3f 4f 58 1d bc 2a 89 29 3e df 35 20 be
       0.58595014 -0.009603574 0.1655623 -0.1564555
000070 c3 91 8c be a9 09 b4 bd 65 03 dc 3c 62 05 b0 bd
       -0.27454957 -0.08790905 0.026857087 -0.08594777
000080 ee 1e 1b 3e d9 ca 62 bd 57 41 35 be 6f 31 34 3e
       0.15148517 -0.05536923 -0.17700706 0.17596982
000090 2b 8c a7 3d a9 56 59 bd fe 4f 1f 3d e2 e7 8b 3e
       0.08181032 -0.05306116 0.038894646 0.2732535
0000a0 81 dc 11 bd ad 94 a9 bd eb 6a 94 bd b0 ac c9 ba
       -0.03561068 -0.08280311 -0.072469555 -0.0015386548
0000b0 e8 d3 1f 3d 8c 22 58 3d 2e 12 2d bc 1a 58 16 3d
       0.03902045 0.05276732 -0.010563416 0.036705114
0000c0 4d c3 16 3e a8 91 2b bd e5 56 86 3e d7 94 57 3e
       0.14722939 -0.041886955 0.2623817 0.21052872
0000d0 b4 44 48 be fa 47 18 3e 64 1d 83 be 38 fd 9b 3c
       -0.19557458 0.14871207 -0.2560836 0.019041643
0000e0 33 43 2f 3e 81 23 d6 3d eb 79 0e bd 4a 1b 3f 3d
       0.17115478 0.104559906 -0.03478424 0.046656884
0000f0 20 e6 86 be ea 6f 27 bd 32 0c 08 bd 0f e3 30 3e
       -0.26347446 -0.040878214 -0.033214755 0.17274116
000100 33 81 01 be 25 d5 cd 3d 6a bf 03 be 85 dc 34 be
       -0.12646942 0.1005042 -0.12865987 -0.17662247
000110 68 bf f8 bc d8 6c ef bd 66 20 5c bd 0a 2b 0b be
       -0.030364707 -0.11690682 -0.053741835 -0.13590637
000120 80 9d a8 bc 83 ec 2d 3d 2c 58 11 3d 6c ab af bd
       -0.020582914 0.042461883 0.035484478 -0.08577618
000130 39 8d 24 3e 04 8e 05 be ed 7b 2e 3e 12 d7 b9 3c
       0.16069497 -0.13042456 0.17039461 0.022685561
000140 95 73 08 be 94 bb 38 3e f4 33 92 3d 37 f0 37 bb
       -0.13325341 0.18040305 0.071388155 -0.0028066763
000150 11 ff 8f bd 85 ec 80 3d 0e e6 7e bd a7 eb bd bc
       -0.07031072 0.062951125 -0.062231116 -0.023183657
000160 64 10 e7 3d 3b de b6 bc 4e 72 57 3e f1 70 a2 be
       0.11282423 -0.022322765 0.21039698 -0.31726792
000170 07 e0 a9 be f5 30 17 3d 0e 30 26 bd 95 95 dc bc
       -0.33178732 0.036911923 -0.040573172 -0.026926795
000180 84 7f d0 3d 6e aa f2 3b 17 ef 8f bd 85 ea 07 bc
       0.10180572 0.0074055707 -0.07028025 -0.00829566
000190 33 b8 9c 3d 4f 3d 61 bd 38 6d 24 be 35 6e bb 3d
       0.07652321 -0.05499011 -0.16057289 0.0915188
0001a0 e4 5d 49 be 15 25 04 be be d5 ad bd 3e 38 33 be
       -0.19664723 -0.1290477 -0.08488034 -0.17501923
0001b0 3d de af bd cd cb 81 3d 19 bc 77 bd b8 e7 b0 3a
       -0.085873105 0.063377 -0.06048212 0.0013496792
0001c0 21 0f 33 3e 13 3f 39 3c ba 57 c5 bc 53 73 0b be
       0.1748624 0.011306542 -0.024089683 -0.13618211
0001d0 f2 f0 18 bd dc ba 6c bd f4 c1 b3 be dc 9e 58 be
       -0.03733916 -0.05779539 -0.35108912 -0.2115435
0001e0 33 bb dd bd ef f5 46 bd f4 4e 51 bc 0d be b2 3c
       -0.10826721 -0.048574384 -0.012775172 0.021819139
0001f0 b9 6f 36 be b7 da c1 3d 1f d6 d6 bd 94 f6 56 3b
       -0.17816056 0.09465545 -0.10490059 0.003280078
000200 25 fa 2e bd 0d 7d 68 bc 9a c4 58 3d 73 98 25 be
       -0.042719025 -0.014189971 0.05292187 -0.16171436
000210 56 96 c5 3d 51 4a 35 3e fa cc 2f 3b bc 9f 0f be
       0.09647815 0.1770413 0.0026825056 -0.14025778
000220 a1 08 82 3d d6 90 09 3d 6b 14 60 3e 56 e4 ac 3c
       0.06349302 0.033585392 0.21882789 0.021104973
000230 10 29 a5 3e 3b 36 64 3d d0 83 2e 3e 43 fb 2c bd
       0.3225789 0.05571578 0.1704247 -0.04223181
000240 48 e9 3c 3e 0e 66 cc 3c fa 80 02 bd 1b ec 52 3d
       0.18448365 0.024951007 -0.031861283 0.0514947
000250 4d 32 b3 3e 4b c3 86 3e b2 64 ad bb eb b9 29 3e
       0.34999314 0.26320872 -0.005291545 0.16574828
000260 8c f1 9a 3e 16 7f 38 3d 3e 2b f4 3d 58 9c b3 3c
       0.3026241 0.045043074 0.1192231 0.021925136
000270 21 a8 f9 bd fd 90 eb 3d e1 f9 29 3d 53 49 45 3e
       -0.12190271 0.11502264 0.04149807 0.19266252
000280 6d 3f b0 bc 42 a2 67 3e f8 83 48 3e eb 77 0a be
       -0.021514619 0.2262049 0.19581592 -0.13522308
000290 d2 19 3c be 60 af cf 3b 0f 34 5b be 32 c2 63 3d
       -0.18369225 0.006338045 -0.21406578 0.05560512
0002a0 19 25 b7 3d a6 80 5e 3d f9 b6 a0 3c 35 c8 cd 3c
       0.08942623 0.054321907 0.019618498 0.02511988
0002b0 d7 07 63 3e 06 a3 34 3e 50 fa c3 3d 7d b9 be 3d
       0.2217096 0.17640314 0.09569228 0.09312723
0002c0 85 88 1d 3e 6e 5c 89 bd 47 c2 22 bc b0 df 3e 3e
       0.1538411 -0.06707083 -0.009934015 0.18640018
0002d0 e6 a4 8d 3e 4b 34 a5 3d c6 d4 4e 3e 03 d9 a5 bc
       0.2766487 0.08066615 0.20198354 -0.02024508
0002e0 b0 0e 08 3e 51 e8 5d 3e 78 2e 18 3d 0a ef b0 3d
       0.13286853 0.21670653 0.03715369 0.08639343
0002f0 60 a0 a4 bd be 33 ca 3c bc ab 72 3d d4 71 75 3d
       -0.080384016 0.024682876 0.05924581 0.059923008
000300 16 0d e5 bd 47 60 25 3e 20 3f 39 bd 53 7a 14 bc
       -0.111841366 0.16150008 -0.045226216 -0.0090623675
000310 18 f2 03 3e af 2c b5 bd 98 19 af 3d 78 7d 02 be
       0.1288532 -0.08846413 0.085498035 -0.12743175
000320 e7 a6 d7 bc 75 b6 00 bd 71 ef 52 3c 45 46 23 be
       -0.026324702 -0.031424005 0.01287447 -0.15944774
000330 0d fc 56 3e b9 e0 14 3e 2e bd 57 3e 35 5d 26 3d
       0.20994587 0.1453885 0.2106826 0.040616233
000340 d9 87 25 bd 25 f6 d1 bd 6f d4 31 3d fc c2 3b be
       -0.040412758 -0.102520265 0.043415483 -0.183361
000350 56 98 06 3e bb 45 0c 3c 0d 82 a7 3d cb 1c cb 3d
       0.13144049 0.008561547 0.08179102 0.09917601
000360 1a ae 54 3e 57 f2 e2 bb 27 54 64 3e 44 13 79 bd
       0.2076954 -0.006925862 0.22297727 -0.06080939
000370 83 1a 80 bd 20 de cd 3d b4 10 da bc f1 8b 12 3d
       -0.06255057 0.100521326 -0.026619293 0.03577799
000380 0f 53 23 3d 09 af 3a 3e ec 8d 3f 3d 11 05 88 be
       0.039874133 0.18230833 0.046766207 -0.26566365
000390 76 91 01 bd 2e e6 03 be ab 64 33 bd 0d 7f af 3d
       -0.031632863 -0.12880775 -0.043797176 0.08569155
0003a0 1b 3b ac 3d d7 c8 6d bd 17 04 78 bd c7 1a b1 bd
       0.08409711 -0.058052864 -0.060550775 -0.086476855
0003b0 bd d9 95 bc 6f 50 be bc f2 64 8b 3d e7 bb 00 be
       -0.018292302 -0.023231713 0.06806363 -0.12571679
0003c0 5c eb 73 3d 0e 19 8f 3d fb cd 4e be 25 58 56 bc
       0.059550628 0.06987201 -0.20195763 -0.013082539
0003d0 6b f2 c7 bd d0 5d 9b bd db a8 93 bc 48 aa 5c bb
       -0.097630344 -0.07586253 -0.018024852 -0.0033670831
0003e0 ac ed a0 3c fb c5 66 bc c6 b8 49 3c 55 22 42 3d
       0.01964458 -0.014085288 0.01231212 0.047396023
0003f0 80 31 9a bd f7 10 e1 3c 61 2d 67 bd 3f d7 29 3c
       -0.075289726 0.02747391 -0.05643976 0.01036626

transformer.transformer_encoder.layers.0.linear2.bias f4 [32]
000000 4f 5f 24 bc a5 bc 5b 3c e3 bd b3 bc 23 4c 0e 3c
       -0.010032489 0.013411676 -0.021941131 0.008685145
000010 d0 75 96 bc c4 46 07 3b 5a a7 4b 3c 00 7e d4 b9
       -0.018366724 0.0020641545 0.012430036 -0.00040529668
000020 60 dd 99 3c a7 80 28 3c e8 0f 42 3c 99 29 c0 bc
       0.018782318 0.010284579 0.011844613 -0.023457335
000030 6e e2 00 3d 3e 3b 12 bd 5c 27 0d bc 89 d4 d1 3c
       0.03146594 -0.03570103 -0.008615341 0.02561404
000040 f0 3b a8 bd 35 0a 0c 3c 8e f7 a2 3c 20 6c a5 3c
       -0.08214557 0.008547355 0.019893434 0.02019316
000050 75 a4 cb bc 9b 6d be 3a e2 24 40 3c b1 b8 f0 bc
       -0.024858693 0.0014528515 0.011727544 -0.029384943
000060 58 5e 0b ba 3a 1d 67 bd d1 be bb 3b 05 f5 05 bd
       -0.00053164875 -0.056424357 0.005729534 -0.032704372
000070 2b 90 77 3d d5 a5 7e bd b8 2e 84 3c 42 2c 62 bb
       0.060440224 -0.06216987 0.016135558 -0.0034511243

transformer.transformer_encoder.layers.0.norm1.weight f4 [32]
000000 bb 3c 71 3f 8d 49 88 3f 3f c8 bc 3f d3 e0 13 3f
       0.9423329 1.0647446 1.474861 0.5776493
000010 9d 6f 67 3f c9 5c 14 3f c5 0b 8e 3f fe 56 84 3f
       0.90404683 0.5795408 1.1097342 1.0339048
000020 c8 ce 88 3f b8 93 75 3f 5a 97 0e 3f e3 0e 61 3f
       1.0688105 0.95928526 0.55699694 0.8791334
000030 a9 13 ca 3f f3 23 bd 3f cd b6 71 3f dc e8 ec 3f
       1.578725 1.4776596 0.94419557 1.8508563
000040 29 95 9b 3f 80 c7 4c 3f e7 fc 8a 3f 16 e6 78 3f
       1.2154895 0.7999191 1.085843 0.97226083
000050 4d 55 9a 3f 1c 6d 2b 3f bd ee 2a 3e 0f cb 0b 3f
       1.2057282 0.6696336 0.16692634 0.5460672
000060 79 9a 19 3f a3 c5 da 3f cd 92 68 3f 94 79 14 3f
       0.6000133 1.7091564 0.90849 0.57998013
000070 f2 a5 82 3e 29 ff b1 3f 9d de 8e 3f ed fe 8f 3f
       0.2551723 1.3905994 1.1161686 1.1249672

transformer.transformer_encoder.layers.0.norm1.bias f4 [32]
000000 91 8c 13 be 18 ac 91 39 0a 52 99 3e ba 42 07 3c
       -0.1440909 0.00027784775 0.29945403 0.008255655
000010 e1 9e 8a 3c 03 69 74 3d 57 91 e2 bc a4 62 25 bd
       0.016921462 0.05967046 -0.027657194 -0.040377274
000020 99 82 80 3d 38 3b 75 3a 4b 6c ef bc 3e e1 9b bd
       0.062749095 0.00093548326 -0.029226443 -0.07611321
000030 df 56 8c be ba 24 bb 3d 7c 19 fa 3d 47 84 6a be
       -0.27410027 0.091378644 0.12211892 -0.22902022
000040 bb d9 50 3e 95 e1 82 be dd 79 07 bd 45 1d a4 bd
       0.20395558 -0.2556273 -0.033075202 -0.08013395
000050 eb 67 89 bc a0 e1 0d 3e a2 73 f7 bd e0 bd 70 3e
       -0.016773185 0.138556 -0.12082602 0.23509932
000060 58 d2 70 bd 57 c9 81 3d 07 40 46 be 16 8e 9c 3e
       -0.05879435 0.06337231 -0.19360362 0.30577153
000070 00 45 bd be 16 14 ee 3e 9e ef 41 bc 59 14 d0 bd
       -0.36966705 0.464997 -0.011836914 -0.10160131

transformer.transformer_encoder.layers.0.norm2.weight f4 [32]
000000 17 ef ba 3f 87 0d bd 3f 99 74 b3 3f 57 b0 ed 3f
       1.4604214 1.4769753 1.4019958 1.856944
000010 64 bc fb 3f 7b 41 cb 3f 3d 37 04 40 39 a1 d0 3f
       1.9666867 1.5879358 2.0658715 1.6299201
000020 29 2c f4 3f e2 be 0f 40 f7 bb e2 3f f7 0b ce 3f
       1.9075977 2.2460256 1.7713612 1.6097401
000030 a2 a1 b3 3f 9a 0a db 3f 55 c9 0b 40 e3 68 b9 3f
       1.4033701 1.711261 2.1841633 1.4485134
000040 93 fc af 3f 69 1f 05 40 8c 37 f3 3f ee 57 0c 40
       1.3748955 2.0800421 1.9001327 2.1928668
000050 99 4c 06 40 a8 cd ee 3f 26 db a7 3f 9e 2a c3 3f
       2.0984251 1.8656511 1.3113754 1.5247381
000060 f4 21 df 3f 8a ff c3 3f 06 25 0c 40 49 90 d9 3f
       1.7432237 1.5312359 2.1897597 1.6997157
000070 46 2b b6 3f 81 c8 ad 3f 03 49 fb 3f 29 2f da 3f
       1.4231956 1.3576814 1.9631656 1.7045642

transformer.transformer_encoder.layers.0.norm2.bias f4 [32]
000000 36 4c 37 bf 6d ce 37 bf 6f 1b 3c 3f 08 59 3e bf
       -0.71600664 -0.71799356 0.7347936 -0.743546
000010 32 74 39 3f f4 7a 3b 3f eb a6 48 3f d6 41 38 3f
       0.72442925 0.73234487 0.78379697 0.7197546
000020 73 ba 39 bf 5b 10 41 3f 30 00 39 bf 2b 4e 1c bf
       -0.72550124 0.7541558 -0.7226591 -0.61056775
000030 29 2f 33 bf a2 c9 41 3f dc 4d 41 bf 85 81 34 bf
       -0.69993836 0.7569829 -0.7550943 -0.7051013
000040 5f a2 3e 3f 0a 0c 46 bf 8a 28 44 3f e9 5d 3d bf
       0.7446651 -0.7736212 0.7662436 -0.7397142
000050 4a 9d 3e 3f 27 b0 3c bf da a0 37 bf ed d2 34 3f
       0.74458754 -0.7370629 -0.71729815 0.7063435
000060 9a 14 3a bf b2 4b 40 3f 5c b0 43 bf a2 53 3d 3f
       -0.72687685 0.751155 -0.7644098 0.7395574
000070 0d cc 3a bf 0c 19 37 3f 37 de 42 3f 28 77 3a 3f
       -0.72967607 0.71522593 0.7612032 0.7283807
