models/ev_hybrid_gru_model.pt (torch, 64607 bytes, 19 tensors)

gru.weight_ih_l0 f4 [96, 1]
0	0xbc330f6a	-0.010928968
1	0xbe83ac9a	-0.25717622
2	0x3ef2c58c	0.4741634
3	0x3f0c162a	0.5472132
4	0x3e828a43	0.2549611
5	0x3f89fc79	1.0780174
6	0xbe88c7bb	-0.26714882
7	0xbe18b260	-0.14911795
8	0xbdc0cbbc	-0.09413859
9	0x3df5ef29	0.12008507
10	0x3e50891b	0.20364802
11	0xbba40ae9	-0.0050061834
12	0xbe423b59	-0.18967952
13	0x3ec7c61d	0.39018336
14	0x3df58e6d	0.11990056
15	0xbd15e22c	-0.036592647
16	0xbe0b44d7	-0.13600479
17	0x3e8560b4	0.2605034
18	0xbea83953	-0.32856235
19	0x3dd7c723	0.10536029
20	0x3e29782f	0.16549753
21	0xbe805732	-0.25066525
22	0x3e7eecb3	0.24894981
23	0xbddc3bbe	-0.107535824
24	0xbe4708ac	-0.19436902
25	0xbdb47c0d	-0.08812723
26	0xbd68b054	-0.056808785
27	0x3fd19e85	1.6376501
28	0x3bcfc180	0.0063402057
29	0xbe1ed05a	-0.15509167
30	0xbe8077e1	-0.2509146
31	0x3e3e6ec3	0.1859694
32	0x3c22b996	0.009931942
33	0x3e156275	0.1458834
34	0x3de8f847	0.1137548
35	0x3eb694ea	0.35660487
36	0xbe8ae61f	-0.27128693
37	0xbd94317c	-0.07236001
38	0x3da8de04	0.08245471
39	0x3cecdca1	0.028913798
40	0x3d781766	0.06056919
41	0xbe37b942	-0.17941764
42	0xbec1472c	-0.37749612
43	0x3e7d60e7	0.24743997
44	0x3e9fdf41	0.31225017
45	0xbe2fc896	-0.17166361
46	0x3d003197	0.031297293
47	0x3d00fc15	0.031490404
48	0xbec7bf21	-0.39013007
49	0xbf19613b	-0.59913987
50	0x3e849f43	0.25902757
51	0xbf795e6e	-0.97409713
52	0xbeb29abf	-0.34883687
53	0x3ea88424	0.32913315
54	0xbe79824e	-0.24366114
55	0x3e7b6668	0.24550784
56	0x3d45d366	0.04829731
57	0x3e13f838	0.14450157
58	0x3e2a2086	0.16613969
59	0x3d7ffa3d	0.062494505
60	0xbc1bfedd	-0.009521213
61	0x3de091f3	0.109653376
62	0x3cb12370	0.021623343
63	0xbdf6e1b3	-0.120547675
64	0xbed61033	-0.41809234
65	0x3b503605	0.003177048
66	0x3da47a91	0.0803119
67	0x3e7afb53	0.24509935
68	0xbe07947e	-0.13240239
69	0xbd628e14	-0.055311278
70	0xbaf9567e	-0.0019022969
71	0xbec8be50	-0.39207697
72	0x3d46fc3f	0.048580404
73	0xbd5a35f6	-0.053274117
74	0xbd88c99d	-0.0667908
75	0xbee3cf37	-0.4449403
76	0x3dd48210	0.1037637
77	0x3e51a89b	0.20474474
78	0xbd8b2fc1	-0.06796218
79	0x3de72765	0.11286811
80	0xbe3a805e	-0.1821303
81	0x3dd51d47	0.10405975
82	0xbda54383	-0.080695175
83	0xbe2809b4	-0.16409951
84	0xbe77e3a7	-0.24207936
85	0xbe2f4543	-0.17116265
86	0xbe54b2bd	-0.20771308
87	0x3ef42b45	0.47689262
88	0xbd1556c6	-0.036459707
89	0xbd601fe9	-0.054717932
90	0x3ef45dcd	0.47727814
91	0x3f018ce8	0.5060563
92	0xbebe7544	-0.37198842
93	0x3b22e5f9	0.0024856313
94	0x3ee19501	0.44058993
95	0x3e3934a0	0.18086481

gru.weight_hh_l0 f4 [96, 32]
0	0xbf377123	-0.7165701
1	0x3f209ebb	0.62742203
2	0xbd24b36a	-0.040210165
3	0x3de41233	0.11136284
4	0x3ea77864	0.32709038
5	0x3ef11d62	0.4709273
6	0x3f43d1be	0.76491916
7	0xbb9f39c9	-0.0048591834
8	0x3e203331	0.15644528
9	0x3ce3c4bb	0.02780377
10	0xbe812fb9	-0.25231722
11	0x3e4b6947	0.19864379
12	0x3dcb5188	0.0992766
13	0x3e11e9c7	0.14249335
14	0xbedfbc68	-0.4369843
15	0x3eb7b9f0	0.35884047
16	0xbdf19107	-0.1179524
17	0x3d40ac88	0.04703954
18	0xbee5ada0	-0.44859028
19	0x3e92d025	0.28674427
20	0xbd851d2b	-0.06499704
21	0xbd510d84	-0.05103828
22	0xbdb2a3a9	-0.08722622
23	0x3eb5544c	0.35415876
24	0xbf1030e9	-0.5632463
25	0x3e56a544	0.20961481
26	0x3eb66553	0.3562418
27	0xbe055e7a	-0.13024321
28	0x3dd75747	0.10514694
29	0xbe97a9a6	-0.2962162
30	0x3ed8198e	0.42206997
31	0xbf11851b	-0.5684373
32	0xbf029198	-0.5100341
33	0x3eb6edff	0.35728452
34	0x3dda6666	0.10664062
35	0x3de0fa90	0.10985291
36	0x3d736a2b	0.05942742
37	0x3e177328	0.14790022
38	0x3e50abd6	0.2037805
39	0xbe9f99b0	-0.31171942
40	0x3e11cf99	0.14239348
41	0xbe8b0a86	-0.27156466
42	0xbe554811	-0.20828272
43	0x3e34faa4	0.17673737
44	0x3ea596c7	0.32341596
45	0x3e021636	0.12703785
46	0xbd9d58bf	-0.076829426
47	0x3dab9f86	0.08380036
48	0xbe4d530c	-0.20051211
49	0x3ecdb03e	0.40173525
50	0xbd7a37f7	-0.06108853
51	0x3e7dafa4	0.24774033
52	0xbea487c3	-0.32134828
53	0xbec69850	-0.3878808
54	0xbe2572b2	-0.16157034
55	0x3e3bed35	0.18352206
56	0xbd5ea4ef	-0.05435651
57	0xbd471bd7	-0.048610535
58	0x3e799f1f	0.24377106
59	0xbebf5f59	-0.37377432
60	0xbdf61be0	-0.120170355
61	0xbe1839d4	-0.1486581
62	0x3ead1dc1	0.33811763
63	0xbee9fc3f	-0.4570026
64	0xbe49c487	-0.19703875
65	0x3e5d2461	0.21595909
66	0xbee2bcb1	-0.44284585
67	0xbeacadae	-0.33726257
68	0xbedf6267	-0.43629763
69	0x3b446cd8	0.0029972102
70	0x3e1f8e27	0.1558157
71	0xbd6df2d2	-0.0580929
72	0x3e5234d2	0.20527962
73	0x3bd896e0	0.0066097826
74	0x3e02ccd1	0.12773444
75	0xbb3ef607	-0.0029138343
76	0xbdc17255	-0.09445635
77	0xbdf4271d	-0.11921523
78	0xbe5c1294	-0.21491462
79	0x3e69b01a	0.22821084
80	0xbd9f648e	-0.07782851
81	0x3e59117e	0.21198079
82	0x3da508bd	0.08058307
83	0xbd80fa4b	-0.062977396
84	0xbe253af8	-0.16135776
85	0x3df30594	0.11866298
86	0xbdf0e7c9	-0.117629595
87	0xbd8cb747	-0.06870895
88	0xbd187b16	-0.03722676
89	0x3e9b8b5c	0.3037976
90	0xbe25013f	-0.16113757
91	0x3f2e30b7	0.6804308
92	0xbd1d4640	-0.038397074
93	0x3d6f46c7	0.058417108
94	0x3ecc9fa3	0.39965543
95	0xbe8442f5	-0.25832334
96	0xbe3a930d	-0.18220158
97	0x3dad968b	0.084759794
98	0xbedbaacd	-0.42903748
99	0xbf1b4eca	-0.606671
100	0xbd8d2baf	-0.068930976
101	0xbc0b381e	-0.008497266
102	0x3e602a8a	0.21891227
103	0x3c45f30f	0.0120818755
104	0x3da6798f	0.08128654
105	0xbd142875	-0.036171395
106	0xbe125cb1	-0.14293171
107	0xbc34f6ae	-0.011045141
108	0xbccf1c96	-0.025282186
109	0x3dc061ae	0.09393631
110	0xbd5c82dd	-0.05383574
111	0x3dcdbc37	0.10045665
112	0x3dc5888f	0.09645187
113	0x3e01348f	0.12617706
114	0x3e5d51ff	0.2161331
115	0x3e83447f	0.25638196
116	0xbebb7e95	-0.36620012
117	0x3ec01512	0.37516075
118	0xbdb07cf7	-0.08617585
119	0xbe8a39d4	-0.26997244
120	0x3dcc70ce	0.09982453
121	0x3ce14f73	0.027503705
122	0xbdffe345	-0.1249452
123	0x3f3027a0	0.6881046
124	0xbe012f0b	-0.12615602
125	0xbde46a2a	-0.11153062
126	0x3e3d9f6f	0.1851785
127	0xbe4d7643	-0.20064645
128	0xbf097f53	-0.53709906
129	0x3e0ea7c7	0.1393119
130	0x3e68e5e5	0.22743948
131	0x3da55494	0.080727726
132	0xbc8aaf57	-0.016929312
133	0x3eeda4fb	0.46414933
134	0x3eabefa5	0.33581272
135	0xbea2a30d	-0.31765023
136	0xbe6be98a	-0.23038307
137	0xbeb5579d	-0.35418406
138	0xbe9f10d3	-0.31067523
139	0x3e60b2b9	0.21943177
140	0xbf387d07	-0.72065777
141	0x3f15efe9	0.585692
142	0xbe908a2d	-0.2823042
143	0xbd42b2c6	-0.047533773
144	0xbed2db67	-0.41183016
145	0x3ebd6ed8	0.3699863
146	0x3d12215d	0.03567635
147	0x3d8ef654	0.06980577
148	0xbf3746a7	-0.7159218
149	0xbd944534	-0.07239762
150	0xbf0be11e	-0.54640377
151	0xbdeed585	-0.11661819
152	0xbca589fd	-0.0202074
153	0x3dcc8a74	0.09987345
154	0xbdeea404	-0.11652377
155	0x3e4b6354	0.1986211
156	0xbcd14e55	-0.025550047
157	0xbe619438	-0.22029197
158	0x3ee453ab	0.44595084
159	0xbeca15b8	-0.39469695
160	0xbe651728	-0.22372115
161	0x3d48ff7f	0.049071785
162	0xbe8044f3	-0.25052604
163	0xbe009b2c	-0.12559193
164	0xbd90e631	-0.070751555
165	0xbdb8ad52	-0.09017433
166	0x3cb3e262	0.021958534
167	0x3e07c11d	0.1325726
168	0x3e1ac63f	0.15114687
169	0xbc0959f5	-0.008383264
170	0xbe496dd0	-0.19670796
171	0x3cbb018b	0.022827884
172	0xbe113f50	-0.14184308
173	0xbe727bb4	-0.23680001
174	0xbd053688	-0.03252271
175	0x3d8d9c8b	0.06914624
176	0x3e01e999	0.12686767
177	0x3e529126	0.20563182
178	0xbd214f9b	-0.03938256
179	0xbe4ddf78	-0.20104778
180	0x3db601b0	0.088870406
181	0x3e86979e	0.2628755
182	0x3dd3614a	0.10321291
183	0x3eb96465	0.36209407
184	0xbe1f963e	-0.15584657
185	0x3d0d5ba7	0.034511235
186	0x3e5a83a3	0.21339278
187	0x3edd6b1a	0.43245775
188	0xbe0f7394	-0.14008933
189	0xbdfde720	-0.12397599
190	0x3ea7a2d6	0.3274142
191	0x3db4b5e8	0.08823758
192	0xbe238097	-0.15967022
193	0x3e8557ec	0.26043642
194	0x3db15935	0.08659593
195	0x3e24a975	0.16080268
196	0x3ea5de64	0.32396233
197	0x3dc41dbe	0.09575985
198	0x3e478eb3	0.19488029
199	0xbf1c0efb	-0.6096036
200	0xbd10d067	-0.035354998
201	0xbcf46d68	-0.029837325
202	0xbd88b81c	-0.06675741
203	0x3e0f7703	0.14010243
204	0x3e9428b6	0.2893731
205	0xbe1de9da	-0.15421239
206	0x3e097a64	0.13425595
207	0x3e36d570	0.17854857
208	0xbe787b58	-0.24265802
209	0x3dd76689	0.10517604
210	0xbe5d7da1	-0.21629955
211	0x3ef1af00	0.47203827
212	0xbec5c3ca	-0.38625938
213	0xbe832ff2	-0.25622517
214	0xbe6480b1	-0.22314717
215	0x3ead6be2	0.3387137
216	0xbb31e677	-0.0027145424
217	0x3e1a23a4	0.15052658
218	0x3ee4d53a	0.4469393
219	0xbe843607	-0.2582247
220	0xbe341230	-0.17585063
221	0xbe3a5bc5	-0.1819907
222	0x3ea0ade9	0.31382683
223	0xbe785f8e	-0.24255201
224	0xbea16b01	-0.3152695
225	0x3e965297	0.29359886
226	0x3e88a668	0.26689458
227	0x3e18d27a	0.1492404
228	0xbdddb3d9	-0.10825319
229	0x3e9b3375	0.30312696
230	0x3e7960ed	0.2435338
231	0xbdf605a9	-0.12012798
232	0x3e0ac1fe	0.13550565
233	0x3c8dbebf	0.017302869
234	0xbd622dd4	-0.055219486
235	0x3d2f2b9b	0.042766195
236	0x3acb2086	0.0015497364
237	0x3ed1ea20	0.40998936
238	0xbeab8f2d	-0.33507672
239	0x3e1e2a25	0.15445764
240	0xbdb4683d	-0.088089444
241	0x3d6cd4ba	0.05782006
242	0xbdabcf59	-0.08389158
243	0x3dd9170e	0.106001005
244	0xbe8aac20	-0.27084446
245	0xbdafa2e1	-0.085759886
246	0xbe97ef09	-0.29674557
247	0xbd28a23d	-0.041170347
248	0x3c630349	0.013855764
249	0xbd2a631e	-0.04159843
250	0xbd67bd7b	-0.056577187
251	0x3dc50ccd	0.09621582
252	0xbcd19bba	-0.025586952
253	0xbe3fbf60	-0.18725348
254	0x3de4bc25	0.11168698
255	0xbe498435	-0.19679339

gru.bias_ih_l0 f4 [96]
0	0x3e3c23e4	0.18373066
1	0x3cc9c330	0.024629205
2	0x3e93ac63	0.28842458
3	0x3e8ad341	0.271143
4	0x3f54a147	0.8305859
5	0x3d10394a	0.035210885
6	0x3db038d4	0.08604589
7	0x3e59af42	0.21258262
8	0x3db7919c	0.0896332
9	0x3e434106	0.19067773
10	0x3eac132a	0.3360837
11	0x3f170a72	0.59000313
12	0x3eab4333	0.33449706
13	0xbd3240a1	-0.043518666
14	0x3d68f714	0.056876257
15	0xbdce4a41	-0.100727566
16	0x3e060ac4	0.13090044
17	0xbddc2da6	-0.10750894
18	0x3e592826	0.21206722
19	0x3e5223da	0.20521489
20	0x3e4ae659	0.19814433
21	0x3f3a81b6	0.72854173
22	0x3e26a33d	0.16273208
23	0xbd701d4a	-0.058621682
24	0x3d211339	0.039324973
25	0xbe135db3	-0.14391212
26	0x3eb71010	0.35754442
27	0xbc9aa7fa	-0.018878926
28	0x3ee7f5dd	0.45304766
29	0x3eaf6a19	0.34260634
30	0x3d349f1b	0.044097047
31	0xbc8cbb09	-0.017179029
32	0xbd809857	-0.062790565
33	0x3e0e950e	0.13924047
34	0xbc32b518	-0.010907434
35	0x3e2ce38e	0.1688368
36	0xbcf19e27	-0.029494358
37	0x3da69fe0	0.081359625
38	0x3e6d3aef	0.23167013
39	0xbdc9d310	-0.0985471
40	0x3e08af2f	0.13348077
41	0xbd705ed1	-0.058684174
42	0xbe728e02	-0.23686984
43	0xbdf1edf2	-0.118129626
44	0xba80b004	-0.0009818082
45	0x3d2d37da	0.042289592
46	0x3e8d6706	0.27617663
47	0x3d3f2ca6	0.04667344
48	0xbe215fd2	-0.15759209
49	0xbeef0e5a	-0.46690637
50	0x3c7b52f6	0.015339604
51	0x3d8bb1ee	0.06821047
52	0x3dd4a655	0.10383288
53	0x3df09fe4	0.11749247
54	0xbe971bbf	-0.29513356
55	0xbe875060	-0.2642851
56	0x3e86db1d	0.26339045
57	0xbd17a7b7	-0.03702518
58	0xbe982568	-0.2971604
59	0xbe5fd18e	-0.21857283
60	0xbde4a555	-0.11164347
61	0x3e3d617d	0.1849422
62	0xbc9fff16	-0.019530814
63	0xbd92af55	-0.07162348
64	0xbd3de1cb	-0.04635791
65	0xbdc74709	-0.09730346
66	0x3ed21656	0.41032666
67	0x3ea0967c	0.3136481
68	0x3da1e07d	0.07904146
69	0x3e2fb79a	0.17159882
70	0x3db1f52c	0.08689341
71	0xbdd5f426	-0.10446958
72	0xbe7a3c2c	-0.24437016
73	0xbed5b0a5	-0.41736332
74	0xbe4d7f33	-0.20068054
75	0x3ea3e0d1	0.3200746
76	0xbe9ff03d	-0.31237975
77	0x3e4b9dde	0.1988444
78	0x3d02e542	0.03195692
79	0xbdeaaddf	-0.114589445
80	0xbe990fe6	-0.29894942
81	0x3e465819	0.19369544
82	0x3e61e631	0.22060467
83	0x3e7b3a68	0.24533999
84	0xbec2ae5b	-0.38023648
85	0xbd7c9581	-0.061666016
86	0xbeba1b8f	-0.3634915
87	0xbe67516c	-0.22589654
88	0x3c6a58d7	0.014303408
89	0xbe4251c2	-0.189765
90	0xbb4ea134	-0.003152919
91	0xbeaf05a1	-0.34183982
92	0xbe226509	-0.15858854
93	0xbdd0deb1	-0.10198725
94	0x3da3994b	0.07988223
95	0xbe31b17e	-0.17352864

gru.bias_hh_l0 f4 [96]
0	0x3dbe84ba	0.09302659
1	0x3e05d6e7	0.1307026
2	0x3e2ee4c0	0.17079449
3	0x3ec2a5f7	0.38017246
4	0x3f093b4a	0.5360609
5	0xbe32fc2f	-0.17479013
6	0x3e5fcf9e	0.21856543
7	0x3e949fb5	0.29028097
8	0x3e6fc535	0.23415072
9	0x3e1feeca	0.15618435
10	0x3ee7bac5	0.4525968
11	0x3f147a8f	0.5799951
12	0x3e6f574e	0.23373148
13	0x3d5e5c04	0.05428697
14	0xba1cd185	-0.00059821486
15	0xbe5561d8	-0.20838106
16	0xbd326aaa	-0.043558754
17	0xbdd9f552	-0.10642494
18	0x3ea10b86	0.31454104
19	0x3db340f1	0.08752621
20	0x3ef03e4c	0.4692253
21	0x3f559fed	0.8344715
22	0xbc3fb1db	-0.011700119
23	0x3d9ce882	0.07661535
24	0x3ec2b096	0.3802535
25	0xbe87d4f6	-0.26529664
26	0x3f130dd4	0.57442975
27	0xbbf884a5	-0.007584172
28	0x3e26622d	0.16248389
29	0x3e012591	0.12611987
30	0x3d69662e	0.05698221
31	0xbd792bed	-0.060832907
32	0x3d4b4bea	0.049632944
33	0x3e9d3ff5	0.30712858
34	0xbd935c77	-0.07195371
35	0x3d6186fe	0.05506038
36	0xbd76602e	-0.060150318
37	0x3e5e621c	0.21717113
38	0x3e20a533	0.15688019
39	0xbd5a5edb	-0.053313117
40	0x3d414431	0.047184173
41	0xbeab0ce6	-0.33408278
42	0xbcd072ff	-0.02544546
43	0xbeaed2cc	-0.341452
44	0xbdb0d08f	-0.086335294
45	0xbe17a0da	-0.14807454
46	0x3e5192b1	0.20466115
47	0x3e34b399	0.17646636
48	0xbdbaef1f	-0.0912764
49	0xbea37ac4	-0.319296
50	0xbdf08704	-0.11744502
51	0xbd2dd3d9	-0.04243836
52	0xbe10a18e	-0.14124128
53	0x3e02b0ab	0.12762706
54	0xbe20fe4d	-0.15722008
55	0xbe12298f	-0.14273666
56	0xbcf3a7f2	-0.029743169
57	0x3e96fd66	0.29490203
58	0xbe5b4e96	-0.21416697
59	0xbe932e65	-0.28746334
60	0x3d14c2e1	0.036318664
61	0x3e40f141	0.18842031
62	0xbd68ebde	-0.056865565
63	0x3cd8a7f3	0.026447272
64	0xbe17d10a	-0.14825836
65	0xbc997525	-0.018732617
66	0x3e86e62b	0.2634748
67	0x3e86ba6e	0.2631411
68	0x3e7ac242	0.24488166
69	0x3ded4518	0.11585444
70	0x3d80103a	0.06253095
71	0x3d795394	0.060870722
72	0xbe03097b	-0.12796585
73	0xbeda67b2	-0.42657238
74	0xbea40fa0	-0.3204317
75	0x3eb506c6	0.3535673
76	0xbda368ee	-0.07978998
77	0x3e9c145d	0.30484286
78	0x3e31dcb5	0.1736935
79	0x3ca4403c	0.02005016
80	0xbdab8fa2	-0.08377005
81	0x3f0c544b	0.5481612
82	0x3d80b23f	0.06283998
83	0x3e159dbf	0.14610957
84	0xbef6657a	-0.48124295
85	0x3de6c177	0.11267369
86	0xbea52929	-0.32257965
87	0xbe3d3a8b	-0.18479364
88	0x3e308307	0.17237483
89	0x3a5cf00e	0.0008428105
90	0xbeb6a8b0	-0.35675573
91	0x3d069d55	0.032864887
92	0xbe06dba7	-0.13169728
93	0x3bf4d572	0.0074717337
94	0xbd9c93d4	-0.076453835
95	0x3d0aadbc	0.033857092

transformer.transformer_encoder.layers.0.self_attn.in_proj_weight f4 [96, 32]
0	0x3db6c96c	0.08925137
1	0xbe2c3872	-0.16818407
2	0xbe5b98f6	-0.21445069
3	0xbd3de0d0	-0.046356976
4	0x3d70d035	0.05879231
5	0x3e0e7636	0.13912281
6	0xbe4f03e7	-0.20216332
7	0x3d9eebca	0.07759817
8	0xbe1b4b72	-0.15165499
9	0xbe0e4bc1	-0.13896085
10	0x3e496efd	0.19671245
11	0xbd567708	-0.05235961
12	0x3d905518	0.0704748
13	0xbe29cca1	-0.16581966
14	0x3e03c719	0.12868918
15	0xbc74128a	-0.014896998
16	0xbe500601	-0.2031479
17	0x3e252556	0.16127524
18	0x3e509e47	0.20372878
19	0x3e36519d	0.1780457
20	0xbd94b4a6	-0.072610185
21	0x3e2cf711	0.16891123
22	0xbe0d06b9	-0.13772096
23	0xbd285890	-0.041100085
24	0x3e12f35f	0.14350651
25	0x3dc0bd3e	0.09411095
26	0xbe191568	-0.14949572
27	0xbdf69992	-0.1204101
28	0xbcc6916b	-0.024239263
29	0x3d53869e	0.051642053
30	0xbe11e119	-0.14246024
31	0xbc3bf5ff	-0.011472224
32	0x3e48652c	0.19569844
33	0xbd8a322a	-0.06747849
34	0x3e105f93	0.14098959
35	0x3e395863	0.18100123
36	0xbe43b71b	-0.19112818
37	0x3e256059	0.16150035
38	0xbdf4a8a2	-0.11946227
39	0xbdfc2d1e	-0.12313293
40	0x3d9231d4	0.0713841
41	0xbb099f36	-0.0020999438
42	0xbe1acbbf	-0.15116785
43	0x3d37ef2e	0.044905834
44	0xbdd15cb7	-0.10222762
45	0xbdbdf813	-0.09275832
46	0xbe4299d9	-0.19004
47	0x3e0d4959	0.13797511
48	0xbded8a31	-0.115986235
49	0xbc91494d	-0.017735148
50	0x3e484875	0.1955889
51	0xbe4a1053	-0.1973279
52	0xbe44e268	-0.19226992
53	0xbbb9a054	-0.0056648646
54	0x3cbed82c	0.023296438
55	0x3df5a9d8	0.11995286
56	0xbe31af9b	-0.17352144
57	0x3e0f0c11	0.13969447
58	0xbe576a2b	-0.21036594
59	0x3db57ffe	0.08862303
60	0x3e28d78d	0.16488476
61	0xbd927dac	-0.07152876
62	0x3df4602c	0.11932406
63	0xbe49a202	-0.19690707
64	0xbcd68de0	-0.026190698
65	0x3d744479	0.059635613
66	0x3dc3ee98	0.095669925
67	0x3d82b9b6	0.06383078
68	0xbe088fae	-0.1333606
69	0x3e1e4f46	0.15459928
70	0xbe5d7e70	-0.21630263
71	0xbc86c48f	-0.016451148
72	0x3e3bb06e	0.18329021
73	0xbd3c03be	-0.045902006
74	0x3e190883	0.14944653
75	0x3e42ba2b	0.1901633
76	0xbe4741f2	-0.1945875
77	0x3d8d2cb3	0.06893291
78	0xbd9dea11	-0.0771066
79	0x3a9c8c31	0.0011943636
80	0xbe4b201c	-0.19836468
81	0x3d63da46	0.055628084
82	0xbcab852a	-0.020937521
83	0x3d19b947	0.03753021
84	0xbe516821	-0.20449878
85	0xbe3b7c64	-0.1830917
86	0xbe43e587	-0.19130526
87	0xbdf75578	-0.12076849
88	0x3d7bb02e	0.061447315
89	0x3e20924f	0.15680812
90	0xbd889558	-0.0666911
91	0x3e3d09b5	0.18460734
92	0xbd19d78f	-0.03755909
93	0x3d58a907	0.052895572
94	0x3d52fcc9	0.051510606
95	0x3dc607b8	0.09669441
96	0x3c1dec1f	0.009638815
97	0x3d742eb7	0.059614863
98	0xbe1f2510	-0.15541482
99	0x3e01cc66	0.12675628
100	0xbd85f196	-0.065402195
101	0xbe595ab1	-0.21226002
102	0x3d787af2	0.060664125
103	0x3e47f2ba	0.19526187
104	0x3e02192f	0.1270492
105	0x3e067bd5	0.13133176
106	0x3b4bd2e5	0.0031101045
107	0xbc5b1760	-0.013372272
108	0xbd8ed37f	-0.069739334
109	0xbe28b459	-0.16475047
110	0xbe4f2f2d	-0.2023284
111	0xbe3e348b	-0.18574731
112	0xbdf68052	-0.12036194
113	0xbd8b1108	-0.06790358
114	0x3d230083	0.03979541
115	0xbd1f5c21	-0.03890622
116	0xbe11c17a	-0.14233962
117	0x3e1d66ba	0.15371218
118	0xbe21215a	-0.15735379
119	0xbc999a7a	-0.018750418
120	0xbe00fa86	-0.12595567
121	0xbd3e3617	-0.046438303
122	0x3daf5af1	0.085622676
123	0xbde8746c	-0.11350331
124	0xbe062698	-0.1310066
125	0x3df0ab2c	0.117513984
126	0x3e2898a3	0.16464476
127	0x3dc4e50c	0.09614
128	0x3dddc09d	0.10827754
129	0xbdb25450	-0.087074876
130	0x3e525e27	0.20543729
131	0x3df40ded	0.11916719
132	0xbe463b7c	-0.19358629
133	0x3d8a7d94	0.067622334
134	0x3e0dd9b6	0.13852581
135	0x3e08666c	0.13320321
136	0xbe3d758d	-0.18501873
137	0xbd7c740a	-0.0616341
138	0xbe08606a	-0.13318029
139	0x3e591129	0.21197952
140	0xbdf14047	-0.11779838
141	0x3def9b4e	0.11699544
142	0x3e548c56	0.20756659
143	0x3d944cf1	0.07241238
144	0xbd13d749	-0.036093984
145	0x3e31a83d	0.17349334
146	0x3e0af803	0.13571171
147	0xbd3c4628	-0.045965344
148	0x3d895312	0.067052975
149	0xbdc11e6a	-0.09429629
150	0x3e160306	0.14649591
151	0xbe0dccc6	-0.13847646
152	0xbcaf98ac	-0.021435104
153	0xbe3baf42	-0.18328574
154	0xbd955b9a	-0.07292862
155	0x3e007418	0.12544286
156	0x3e3d5465	0.18489225
157	0x3dbea981	0.09309674
158	0x3d4021d5	0.046907265
159	0xbdaabf78	-0.08337301
160	0x3e3c18bb	0.18368809
161	0xbe2446c6	-0.16042623
162	0x3dc2e60d	0.09516535
163	0x3e36e47e	0.178606
164	0x3e3de51c	0.1854443
165	0xbde691a7	-0.1125825
166	0xbdb5a48b	-0.08869275
167	0xbe08d939	-0.13364114
168	0xbe28d0b4	-0.16485864
169	0xbd10a1b3	-0.03531046
170	0xbe1fd068	-0.15606844
171	0x3d578141	0.0526135
172	0x3d84c9dd	0.06483815
173	0xbe4f9900	-0.20273209
174	0x3e120381	0.14259149
175	0xbe205031	-0.1565559
176	0x3e5d6b32	0.21622923
177	0xbc10ac02	-0.008830072
178	0xbd79cff8	-0.06098935
179	0x3e28b355	0.1647466
180	0xbe4ab35b	-0.19794981
181	0x3e118fd2	0.1421502
182	0xbd922827	-0.07136565
183	0xbc5b87a3	-0.0133990375
184	0x3d2c3c40	0.042049646
185	0x3e016239	0.12635125
186	0x3d8a9ead	0.06768546
187	0xbdfa7cba	-0.12230821
188	0xbdf5c364	-0.120001584
189	0xbe1d5fdc	-0.15368599
190	0xbde2d342	-0.110754505
191	0xbe1e6caa	-0.1547114
192	0xbd780f0b	-0.06056122
193	0xbe3ec7ac	-0.18630856
194	0x3d9e87b9	0.07740731
195	0x3dcd42b6	0.1002249
196	0xbe0b377a	-0.13595381
197	0xbca8993e	-0.020580884
198	0xbe04cad8	-0.12968004
199	0xbd9c7ddc	-0.07641193
200	0xbe3f1041	-0.18658544
201	0xbdd1843e	-0.10230301
202	0x3b4728a6	0.0030389219
203	0xbda0df29	-0.078550644
204	0xbe59f2c3	-0.21284012
205	0x3ccd842e	0.025087442
206	0x3df58fd6	0.11990325
207	0x3d8bda58	0.06828755
208	0x3e09108c	0.13385218
209	0x3e0e8408	0.13917553
210	0x3e3dbbd0	0.18528676
211	0xbd0ea1c5	-0.034822244
212	0xbd21a4c7	-0.039463785
213	0x3c747221	0.014919789
214	0xbe432036	-0.19055256
215	0xbd9b51cc	-0.07583961
216	0xbe1f7714	-0.15572768
217	0xbe0df9b6	-0.13864788
218	0x3ca12170	0.019669265
219	0xbd8cd318	-0.068762004
220	0x3de56911	0.112016805
221	0x3df32343	0.1187196
222	0x3deb5877	0.11491483
223	0xbad89ff0	-0.0016527157
224	0x3d0b0094	0.0339361
225	0x3e334fc9	0.17510904
226	0x3dd80c39	0.10549206
227	0xbc0487a1	-0.008088977
228	0xbda303a0	-0.07959676
229	0xbd2468ac	-0.040138885
230	0x3e3fad9b	0.18718569
231	0xbe3b3e4a	-0.1828548
232	0xbcbd0e6d	-0.023078168
233	0xbe008447	-0.1255046
234	0xbe11f77b	-0.14254563
235	0x3e4037c4	0.18771273
236	0xbdde4bf6	-0.10854332
237	0xbe59f1f5	-0.21283706
238	0xbb6bf1cf	-0.0036002283
239	0x3d8fb041	0.0701604
240	0xbdfdb89c	-0.12388727
241	0xbe369c3c	-0.17833036
242	0x3c5da440	0.01352793
243	0xbdcdb88c	-0.10044965
244	0xbd312673	-0.04324956
245	0xbe1e3f16	-0.15453753
246	0x3dd73dbb	0.10509821
247	0xbe28e4ef	-0.16493581
248	0xbd697be9	-0.057002936
249	0xbc9d242e	-0.01918229
250	0xbdf970b1	-0.12179697
251	0xbe098f9c	-0.13433689
252	0x3cfe2321	0.03102261
253	0xbe070da9	-0.13188805
254	0xbe432193	-0.19055776
255	0xbe03b89b	-0.1286339

transformer.transformer_encoder.layers.0.self_attn.in_proj_bias f4 [96]
0	0x00000000	0.0
1	0x00000000	0.0
2	0x00000000	0.0
3	0x00000000	0.0
4	0x00000000	0.0
5	0x00000000	0.0
6	0x00000000	0.0
7	0x00000000	0.0
8	0x00000000	0.0
9	0x00000000	0.0
10	0x00000000	0.0
11	0x00000000	0.0
12	0x00000000	0.0
13	0x00000000	0.0
14	0x00000000	0.0
15	0x00000000	0.0
16	0x00000000	0.0
17	0x00000000	0.0
18	0x00000000	0.0
19	0x00000000	0.0
20	0x00000000	0.0
21	0x00000000	0.0
22	0x00000000	0.0
23	0x00000000	0.0
24	0x00000000	0.0
25	0x00000000	0.0
26	0x00000000	0.0
27	0x00000000	0.0
28	0x00000000	0.0
29	0x00000000	0.0
30	0x00000000	0.0
31	0x00000000	0.0
32	0x00000000	0.0
33	0x00000000	0.0
34	0x00000000	0.0
35	0x00000000	0.0
36	0x00000000	0.0
37	0x00000000	0.0
38	0x00000000	0.0
39	0x00000000	0.0
40	0x00000000	0.0
41	0x00000000	0.0
42	0x00000000	0.0
43	0x00000000	0.0
44	0x00000000	0.0
45	0x00000000	0.0
46	0x00000000	0.0
47	0x00000000	0.0
48	0x00000000	0.0
49	0x00000000	0.0
50	0x00000000	0.0
51	0x00000000	0.0
52	0x00000000	0.0
53	0x00000000	0.0
54	0x00000000	0.0
55	0x00000000	0.0
56	0x00000000	0.0
57	0x00000000	0.0
58	0x00000000	0.0
59	0x00000000	0.0
60	0x00000000	0.0
61	0x00000000	0.0
62	0x00000000	0.0
63	0x00000000	0.0
64	0xbc96d723	-0.018413132
65	0x3b2cba0a	0.0026356005
66	0xbd2993bd	-0.04140066
67	0xbcd8614f	-0.026413588
68	0x3d1c07f3	0.03809352
69	0x3d3e53e6	0.04646673
70	0xbd50e5ea	-0.051000513
71	0x3d8b7ce8	0.06810933
72	0x3d3061a6	0.043061875
73	0x3d2a7e31	0.04162425
74	0x3d6dcd20	0.05805695
75	0x3cb06070	0.02153036
76	0xbd20dfcc	-0.03927593
77	0xbcf05b4a	-0.029340405
78	0xbd1810d7	-0.037125435
79	0xbd7a7cf2	-0.061154313
80	0xbd0816bf	-0.033224817
81	0xbd004952	-0.031319924
82	0xbc805c84	-0.015669115
83	0x3ddc38e3	0.10753038
84	0xbdb873ae	-0.09006439
85	0xbdce4216	-0.10071199
86	0x3dec7f88	0.11547762
87	0xbb91a120	-0.0044442564
88	0xbcdcf847	-0.026973857
89	0x3d71251b	0.058873277
90	0x3d624f44	0.055251375
91	0xbc6ec619	-0.014573597
92	0x3d25176d	0.040305544
93	0xbb642eb3	-0.0034817874
94	0xbcb63c50	-0.022245556
95	0xbb808f95	-0.0039233663

transformer.transformer_encoder.layers.0.self_attn.out_proj.weight f4 [32, 32]
0	0xba8f44ad	-0.0010930501
1	0x3c1d531a	0.0096023325
2	0x3d064b9d	0.032786954
3	0xbd2cdb10	-0.0422011
4	0xbbc65002	-0.006052018
5	0x3d2899ee	0.041162424
6	0x3d39b62c	0.04533975
7	0xbd52849e	-0.051396005
8	0xbd0f58f7	-0.034996953
9	0xbc3cb860	-0.011518568
10	0x3b259fbc	0.002527221
11	0x3d05fc78	0.032711476
12	0x3c84e0d4	0.016220488
13	0x3d02aa78	0.031900853
14	0x3bcd2b6a	0.006261279
15	0x3c3a9fec	0.011390667
16	0xbc09711e	-0.008388786
17	0x3cc668f0	0.02421996
18	0x3c5cf7d6	0.013486823
19	0x392a4f70	0.00016242056
20	0x3d1206b4	0.035650924
21	0xbcced0bf	-0.025246022
22	0xbb960713	-0.00457848
23	0xbcc0fa1c	-0.023556761
24	0xbcabbe1a	-0.02096467
25	0xbcf94141	-0.030426623
26	0xbcc08b8d	-0.023504043
27	0x3cc545c1	0.024081113
28	0xbd835f2c	-0.06414637
29	0x3c479fef	0.012184127
30	0x3d05a9db	0.03263269
31	0x3cb24e7a	0.021765936
32	0xbccc2a16	-0.024922412
33	0xbc9d8e01	-0.019232752
34	0xbc3f01da	-0.011658156
35	0x3cf73ab4	0.030179359
36	0x3b545684	0.00324002
37	0x3c50ff3b	0.012756164
38	0x3c44d843	0.012014451
39	0x3ba4fc76	0.0050349785
40	0xbc0e5dfe	-0.008689402
41	0x3c992c41	0.01869786
42	0x39baf0fb	0.0003565623
43	0xbcd7ecfb	-0.026358118
44	0x39ab6d4c	0.00032697094
45	0xbd831a39	-0.06401486
46	0x3cf5087a	0.029911269
47	0xbc4b38b4	-0.012403656
48	0xbc95ad13	-0.018271005
49	0x3ccc8bfd	0.024969095
50	0xba56abcf	-0.00081890536
51	0x3d0c2bf3	0.0342216
52	0x3ce7d569	0.028300004
53	0x3cf9018c	0.030396245
54	0xbc9b5c94	-0.018965043
55	0xbc04dd90	-0.008109465
56	0x3d2aa52c	0.041661426
57	0x3cd3bab8	0.02584587
58	0xbd20b429	-0.039234314
59	0x3d3ec035	0.04657002
60	0xbc7b9b84	-0.015356902
61	0xbace61c9	-0.0015745695
62	0xbd1c90f5	-0.03822418
63	0x3aa6f288	0.0012737075
64	0x3b58f5d1	0.0033105502
65	0xbbd7d22b	-0.0065863333
66	0x3c826a12	0.015919719
67	0x3c72a583	0.014809969
68	0x3c7e621e	0.015526323
69	0x3c1ae703	0.009454492
70	0xbd1360d2	-0.035981007
71	0x3d20e628	0.039281994
72	0x3ca6e91c	0.020374827
73	0x3b86abf9	0.004109856
74	0xb9cc7863	-0.00038999607
75	0xbd7d6827	-0.061866906
76	0x3c03310b	0.008007298
77	0xbc91e23e	-0.017808076
78	0xbcc7f717	-0.024409814
79	0xbc3b0be9	-0.011416414
80	0xbc3e0db5	-0.011599948
81	0x3d327253	0.04356606
82	0x3c087861	0.008329482
83	0xbcb676fe	-0.022273537
84	0xbcf7ae15	-0.030234376
85	0x3c89d540	0.016825318
86	0x3cc4818a	0.02398755
87	0xbc3f1045	-0.011661594
88	0x3d4049e4	0.046945468
89	0x3c32dad0	0.010916427
90	0x3c2f7aa7	0.010710395
91	0x3c8d58d4	0.01725427
92	0x3d043e9f	0.032286283
93	0xbc0f5dd3	-0.008750397
94	0xbd89ad95	-0.06722561
95	0xbae29861	-0.0017287844
96	0xbc0d685a	-0.008630836
97	0x3ccad81e	0.024761256
98	0xbd072910	-0.032998145
99	0xbc06dbc6	-0.008231109
100	0x3c70a594	0.014687914
101	0x3b9ee528	0.004849095
102	0x3c979874	0.018505313
103	0xbc850500	-0.016237736
104	0xbc9372b6	-0.017999034
105	0xbc938df4	-0.018012024
106	0x3c29d29c	0.010365155
107	0xbbc5f2c6	-0.0060409037
108	0x3bf1ebe6	0.0073828576
109	0xbcc70ec8	-0.02429904
110	0x3cd35e99	0.025801944
111	0x3d0c75dc	0.034292087
112	0xbbc64385	-0.0060505294
113	0x3c2949d1	0.010332541
114	0xbd11c53a	-0.03558848
115	0x3d3f37cc	0.04668407
116	0xbbc2f5a7	-0.005949694
117	0x3d12b160	0.03581369
118	0xbc7746dd	-0.015092579
119	0xbaa9a172	-0.0012941791
120	0x3b2e0adc	0.0026556766
121	0xbce747eb	-0.028232535
122	0x3cd2bdc5	0.025725255
123	0x3cd6894d	0.026188517
124	0xbd87a130	-0.06622541
125	0x3d3f600d	0.04672246
126	0x3ca54eeb	0.020179233
127	0x3c5fce7e	0.013660071
128	0xbd4be1e8	-0.049775988
129	0x3d00c446	0.03143718
130	0x3b46b570	0.0030320548
131	0x3d49203c	0.049103007
132	0x3d4dd89c	0.050255403
133	0xbc971338	-0.018441781
134	0xbd5a4334	-0.053286746
135	0xbd455e72	-0.048185773
136	0xbd92dfe2	-0.071716085
137	0xbd97276f	-0.07380568
138	0x3cf50142	0.029907826
139	0x3de1c1b8	0.11023277
140	0x3d043e62	0.032286055
141	0xbcab4051	-0.020904692
142	0x3cf3cab3	0.02975974
143	0x3cf99719	0.030467557
144	0x3d7b2044	0.061310068
145	0xbc58e11f	-0.013237267
146	0xbd41b888	-0.047295123
147	0x3d4ea3ad	0.050449062
148	0xbdcfe101	-0.10150338
149	0xbb94467f	-0.0045250054
150	0x3d7c7539	0.06163523
151	0x3d6ee5f4	0.05832477
152	0x3cd08297	0.025452895
153	0x3be5ccd3	0.0070129423
154	0x3bbb34b6	0.0057130707
155	0xbcac27de	-0.021015104
156	0xbc2e19e9	-0.010626295
157	0xbdc5211a	-0.09625454
158	0x3d3a3397	0.045459356
159	0xbda81008	-0.08206183
160	0x3d218577	0.039433923
161	0x3c95350e	0.018213775
162	0x3cb269d3	0.021778977
163	0xba2b1ea8	-0.00065277005
164	0xbcaf26fa	-0.02138089
165	0x3c3ce24f	0.011528566
166	0xbccb4662	-0.024813835
167	0xbc935f07	-0.017989649
168	0xbdc537ba	-0.096297696
169	0x3b27faa7	0.0025631578
170	0x3c0f11bd	0.0087322565
171	0xbc80b5c9	-0.015711682
172	0x3c033d94	0.008010287
173	0x3d0683b2	0.03284044
174	0x3d21c05c	0.03949009
175	0x3c3d2e03	0.011546615
176	0x3b582e81	0.0032986703
177	0xbcb147d7	-0.021640701
178	0xbc6c2973	-0.014414179
179	0x3cb6c716	0.022311728
180	0xbd7b210b	-0.06131081
181	0x3c3c36e1	0.0114876935
182	0x3d19e6a2	0.037573464
183	0x3c03417f	0.008011221
184	0xbd46911d	-0.048478235
185	0xbd4f5f1b	-0.05062781
186	0x3cb19411	0.021677049
187	0xbd2762a8	-0.04086557
188	0xbcd3b8c1	-0.025844933
189	0xbda31556	-0.07963054
190	0x3d030c66	0.031994246
191	0xbb0d2d8d	-0.0021542043
192	0xbc98007c	-0.018554918
193	0xbca4a957	-0.020100279
194	0xbd7d9b38	-0.061915606
195	0xba92837c	-0.0011178101
196	0x3d6aca60	0.057321906
197	0x3b6763fc	0.0035307398
198	0xbc2ed4d8	-0.010670863
199	0x3d938e7e	0.072049126
200	0x3d1acf12	0.037795134
201	0x3d3a2baa	0.045451798
202	0x3d1fcbb2	0.03901262
203	0x3c2f6df9	0.010707372
204	0xbcaeff0d	-0.021361852
205	0xbce6a732	-0.028155897
206	0xbce37504	-0.027765758
207	0xbc85c187	-0.016327633
208	0xbd3074e4	-0.043080226
209	0xbd2c443d	-0.042057265
210	0x3d8939b5	0.0670046
211	0xbd1ed638	-0.038778514
212	0xbbc9a83f	-0.0061540897
213	0xbd069665	-0.03285827
214	0xbcb512ff	-0.022103785
215	0x3b82117c	0.0039693695
216	0x3d1322af	0.03592175
217	0x3d2ada31	0.04171199
218	0x3bfde78c	0.00774855
219	0x3d7d5b6c	0.061854765
220	0xbb74f8dd	-0.003737978
221	0x3cd3172f	0.02576789
222	0xbcedd769	-0.02903338
223	0xbd4ca8a2	-0.04996551
224	0xbd8865f6	-0.066600725
225	0x3c8d1e6c	0.01722642
226	0xbd9bb5d3	-0.076030396
227	0xbc868631	-0.01642141
228	0xbc762d1e	-0.015025405
229	0xbb5d5bd2	-0.0033776653
230	0xbd483376	-0.048877202
231	0x3cc0940d	0.023508096
232	0x3d3e9619	0.046529863
233	0x3d063102	0.03276158
234	0xbd93bc94	-0.07213703
235	0xbd030d2e	-0.03199499
236	0x3d38c90d	0.045113612
237	0xbd922be9	-0.071372814
238	0xbd962263	-0.073307775
239	0xbcb54ecc	-0.0221323
240	0xbdb5901d	-0.08865378
241	0x3c9f15a2	0.019419495
242	0xbc35ade6	-0.011088824
243	0x3ce77bc8	0.028257266
244	0x3d173ef5	0.036925275
245	0x3d77c5fa	0.06049154
246	0xbc869eee	-0.016433205
247	0x3cda2ebc	0.026633613
248	0x3dd087f1	0.10182179
249	0x3c6e5b85	0.014548187
250	0x3c91a837	0.017780406
251	0x3d985173	0.0743741
252	0x3d37c5ac	0.04486625
253	0x3d7eb3ae	0.062183075
254	0xbda655c2	-0.08121826
255	0xbca43591	-0.020045074

transformer.transformer_encoder.layers.0.self_attn.out_proj.bias f4 [32]
0	0xbc584ec7	-0.013202376
1	0x3c6efe7b	0.01458704
2	0x3c027873	0.007963288
3	0xbc0ce2dc	-0.008599009
4	0xbc366af5	-0.011133899
5	0xbb332100	-0.0027332902
6	0x3c1bf13a	0.009517962
7	0xbb6b240c	-0.003587964
8	0x3ba16ba6	0.004926163
9	0xbc775ed5	-0.015098293
10	0xbc07dd97	-0.008292577
11	0x3a752ded	0.0009352852
12	0xbcaccee7	-0.021094752
13	0xbbb48b07	-0.0055097374
14	0xbb214f0c	-0.0024613766
15	0x3c67efca	0.014156291
16	0x3c80e033	0.015731907
17	0xbc7588f2	-0.014986264
18	0x3cc822a1	0.024430575
19	0x3bba22b6	0.0056804074
20	0xbc690ad0	-0.014223769
21	0x3a5d9264	0.0008452295
22	0xb8354a88	-4.3223175e-05
23	0x3cf2f647	0.02965845
24	0x39f8afbd	0.0004743318
25	0x3cfd7abd	0.030942315
26	0xbd0b37a7	-0.03398862
27	0xbba5d2ca	-0.0050605284
28	0x3c8bd9bd	0.0170716
29	0x3c1b5490	0.0094806105
30	0x3c029247	0.007969446
31	0x3c3c55b1	0.01149504

transformer.transformer_encoder.layers.0.linear1.weight f4 [64, 32]
0	0x3b29997c	0.0025878837
1	0x3dca7107	0.098848395
2	0x3e30cdc0	0.17265987
3	0x3c5879d6	0.013212642
4	0x3db95925	0.09050206
5	0xbdcf634c	-0.10126361
6	0xbdfbd0a5	-0.12295655
7	0x3e12e5b9	0.14345445
8	0xbb7c8ef5	-0.0038537357
9	0x3ca8fb6d	0.020627702
10	0x3dded0bf	0.10879659
11	0x3d5f06ef	0.05444997
12	0xbd79fb4a	-0.061030664
13	0xbe2dba86	-0.16965684
14	0x3c0605ed	0.008180124
15	0xbb9eea28	-0.004849691
16	0xbdaa1e44	-0.08306554
17	0x3d26c4e6	0.04071512
18	0x3e0977e8	0.13424647
19	0xbd8c0e05	-0.068386115
20	0x3e1156ce	0.1419327
21	0xbcda573c	-0.026652925
22	0xbd9a02f1	-0.07520092
23	0xbd479bb5	-0.04873248
24	0x3d923f03	0.07140925
25	0xbe17ec28	-0.1483618
26	0x3dd47669	0.103741474
27	0x3be126c7	0.0068710777
28	0x3d113e44	0.03545977
29	0xbcc884f4	-0.02447746
30	0xbc6f0ccf	-0.014590456
31	0x3c5d763e	0.013516961
32	0x3ec6cec4	0.38829625
33	0x3d42605f	0.047455188
34	0x3e313770	0.17306304
35	0x3d7effa2	0.06225551
36	0x3db48a94	0.08815494
37	0xbebb1637	-0.36540386
38	0xbe21bb7c	-0.15794176
39	0x3e88802d	0.2666029
40	0xbd7a4a46	-0.06110599
41	0xbd6346d5	-0.055487473
42	0xbe87b081	-0.2650185
43	0x3ec7f9cd	0.3905777
44	0x3e134fc5	0.14385898
45	0x3e0549f4	0.13016492
46	0x3e444cc0	0.19169903
47	0x3a76b29b	0.00094107696
48	0xbda2b63a	-0.07944913
49	0xbce754d7	-0.028238697
50	0xbc8574cb	-0.016291043
51	0xbcf9bcde	-0.030485567
52	0x3e3b207c	0.1827411
53	0xbe576351	-0.2103398
54	0x3e195aa3	0.14975981
55	0xbede216e	-0.4338488
56	0xbd87a7f7	-0.066238336
57	0xbe55d361	-0.20881416
58	0xbe6fc399	-0.23414458
59	0xbc534a33	-0.012896108
60	0xbeb9f50a	-0.36319762
61	0x3e992e0b	0.2991794
62	0xbf395a33	-0.7240326
63	0xbe3b172a	-0.18270555
64	0xbd0db417	-0.034595575
65	0xbe5c3267	-0.21503602
66	0x3e3814a5	0.17976625
67	0xbcaff20b	-0.02147772
68	0xbbe1d670	-0.006892018
69	0xbc052c01	-0.008128167
70	0x3d6d190a	0.057885207
71	0x3dd6016b	0.10449489
72	0xbcd6355e	-0.026148494
73	0xbc629f2f	-0.013831898
74	0xbdd2ae69	-0.10287172
75	0xbb5bbb31	-0.0033528323
76	0xbdcf1c4b	-0.10112818
77	0xbd25b85b	-0.04045902
78	0x3e077431	0.13227917
79	0xbea3bf4e	-0.3198189
80	0x3e31a411	0.17347743
81	0x3db9f066	0.090790555
82	0xbe05a4e0	-0.13051176
83	0x3e880920	0.26569462
84	0x3de854f9	0.11344332
85	0x3d987716	0.07444589
86	0x3dff36de	0.12461637
87	0xbdbd626c	-0.09247288
88	0x3d154d82	0.03645087
89	0xbe60791c	-0.219212
90	0x3e155c05	0.14585884
91	0xbdcd480d	-0.10023508
92	0x3e1c5149	0.15265383
93	0xbd97dfac	-0.07415709
94	0xbe8daf30	-0.2767272
95	0x3d0ae187	0.033906486
96	0x3d497c46	0.049190782
97	0xbe044a83	-0.12919049
98	0xbd7584ee	-0.059941225
99	0x3dfbb7e2	0.12290932
100	0xbcd0ce8e	-0.025489118
101	0xbe3bce0c	-0.1834032
102	0xbe1a9a4a	-0.15097919
103	0xbd3be845	-0.045875806
104	0x3d642f55	0.0557092
105	0x3d5a486d	0.053291727
106	0x3ddc8e7b	0.107693635
107	0xbdacb6dd	-0.08433316
108	0xbd42856b	-0.04749052
109	0xbdec6540	-0.115427494
110	0xbdf2c917	-0.11854761
111	0x3e012664	0.12612301
112	0xbd84ad2b	-0.06478342
113	0xbe09a05a	-0.13440076
114	0x3d4f1fc2	0.050567396
115	0x3ddacc6c	0.10683522
116	0x3e5a74bb	0.21333592
117	0xbe727670	-0.23677993
118	0x3cc703ee	0.024293866
119	0xbe01f3f7	-0.12690721
120	0x3d2c034f	0.041995343
121	0x3dea20f1	0.11432064
122	0xbe080c20	-0.13285875
123	0xbbae10ab	-0.0053120456
124	0xbde8f51c	-0.11374876
125	0x3e4225b3	0.18959694
126	0xbe373986	-0.17893037
127	0x3e53dd41	0.2068987
128	0x3e6f95d5	0.23397
129	0x3d1c4455	0.038151104
130	0x3e432609	0.19057478
131	0x3de02606	0.109447524
132	0x3c711a70	0.014715776
133	0xbc30dd38	-0.01079493
134	0xbe52d1c4	-0.20587832
135	0xbe076599	-0.1322235
136	0x3d5738a6	0.05254426
137	0xbdba5c12	-0.09099592
138	0x3e06cb32	0.1316345
139	0xbd912e57	-0.07088917
140	0xbd990409	-0.07471473
141	0xbd8a6720	-0.06757951
142	0x3dac71f0	0.08420169
143	0xbe270fe2	-0.16314653
144	0xbdbff937	-0.09373706
145	0xbca97027	-0.020683361
146	0x3e5d5757	0.21615349
147	0xbd8c5fe6	-0.06854229
148	0x3e3fa162	0.18713906
149	0xbd84f79f	-0.064925425
150	0xbe86b45f	-0.26309487
151	0x3d299a9b	0.04140721
152	0x3d9f0497	0.07764547
153	0x3d184162	0.03717173
154	0x3e216f69	0.15765156
155	0x3d07c61b	0.033147912
156	0x3e1fbd4b	0.15599553
157	0x3dad273c	0.08454749
158	0x3d1298cb	0.035790246
159	0x3d5bdac9	0.053675447
160	0x3dbe86a4	0.093030244
161	0xbd2a1cd6	-0.041531406
162	0x3bb07c93	0.005385944
163	0xbd9a02f0	-0.075200915
164	0xbe1deb2d	-0.15421744
165	0x3e79655f	0.24355076
166	0xbec26cc6	-0.37973613
167	0xbe9d6a40	-0.30745125
168	0xbd5e7cb7	-0.054318156
169	0x3e6bd20e	0.23029348
170	0x3e2564d7	0.16151749
171	0xbda9e8b7	-0.0829634
172	0xbd544ef4	-0.051833108
173	0x3d90cd29	0.07070381
174	0x3e39d34b	0.18147008
175	0xbd81fe1c	-0.06347296
176	0xbe924f03	-0.28575906
177	0x3d9823a1	0.07428671
178	0x3e1a6f8d	0.15081616
179	0xbcba5720	-0.022746623
180	0xbd376abd	-0.044779528
181	0x3e2a5e40	0.16637516
182	0xbe5975df	-0.2123637
183	0x3dfd3fce	0.123656854
184	0xbd1fd3ef	-0.039020475
185	0xbe88727d	-0.26649848
186	0xbdb5faf9	-0.0888576
187	0x3e0c109f	0.13678215
188	0xbee2537b	-0.44204316
189	0xbd5412f8	-0.051775903
190	0xbd654f5c	-0.055983886
191	0x3ed4d4a4	0.41568482
192	0xbd1a7124	-0.037705556
193	0xbe8a73b2	-0.27041394
194	0xbd0c47e7	-0.03424826
195	0x3e238fb8	0.15972793
196	0xbe02d963	-0.12778239
197	0xbd949e17	-0.07256716
198	0xbb2fd4cd	-0.002682972
199	0xbd9e0ea3	-0.077176355
200	0xbe1b0a24	-0.15140587
201	0xbce574c2	-0.028009776
202	0x3c56bb2f	0.0131061515
203	0x3e20b5e0	0.1569438
204	0x3de90a4f	0.11378919
205	0xbc5294c3	-0.01285285
206	0x3d7f0b2c	0.062266514
207	0xbdeb0f24	-0.11477497
208	0xbc8fa840	-0.017536283
209	0xbd2ff092	-0.042954035
210	0x3e5870f7	0.21136843
211	0x3c558e07	0.01303435
212	0x3b60c248	0.0034295488
213	0xbcc49d77	-0.024000866
214	0x3d652475	0.05594297
215	0xbd4ab31e	-0.049487226
216	0xbc3a266c	-0.0113617
217	0xbd75bcfa	-0.059994675
218	0x3d503b2b	0.050837677
219	0xbd025ff5	-0.031829793
220	0xbc5c008a	-0.013427863
221	0x3d48a5cd	0.048986245
222	0x3cad019c	0.021118931
223	0x3e5fbfa3	0.21850447
224	0x3e0983dd	0.13429208
225	0xbe50a6c3	-0.20376115
226	0x3e5bd773	0.21468906
227	0xbd4b81a0	-0.049684167
228	0xbd0cd4a5	-0.03438248
229	0x3d9d359a	0.07676239
230	0xbd87d16c	-0.06631741
231	0xbd8a96d9	-0.06767053
232	0x3d939c39	0.072075315
233	0x3d4ae02b	0.04953019
234	0x3c797fb5	0.015228202
235	0xbd9a3b1f	-0.07530808
236	0x3cdd1c82	0.026991133
237	0x3d786f26	0.060652874
238	0x3e95a4cd	0.29227296
239	0x3cb5075a	0.022098232
240	0xbdd5b370	-0.104346156
241	0xbb2208a8	-0.0024724398
242	0x3dfab55b	0.12241622
243	0x3e137484	0.14399916
244	0xbdfa2c8b	-0.12215527
245	0x3e311bc1	0.17295744
246	0xbdab57f6	-0.083663866
247	0x3d3dd732	0.046347804
248	0x3e4963bb	0.1966695
249	0xbe878863	-0.26471242
250	0xbe063bdd	-0.13108774
251	0x3c8fab94	0.01753787
252	0x3d1a2837	0.037636008
253	0xbdab1cb2	-0.083550826
254	0xbe60c406	-0.21949777
255	0x3e0c4b71	0.13700654

transformer.transformer_encoder.layers.0.linear1.bias f4 [64]
0	0xbe88a398	-0.26687312
1	0x3da34396	0.07971875
2	0xbe27c718	-0.16384542
3	0xbe415806	-0.18881235
4	0xbd6272bf	-0.05528521
5	0xbd43b15c	-0.047776565
6	0xbe72b585	-0.23702057
7	0xbe85baa4	-0.26118958
8	0xbe8cf679	-0.27531794
9	0xbdfac998	-0.12245482
10	0x3e5b439e	0.21412513
11	0x3e0a8658	0.1352781
12	0x3d3a74c6	0.04552152
13	0xbe219de8	-0.15782893
14	0xbe7ec696	-0.24880442
15	0xbe845e4c	-0.25853193
16	0x3d3449d9	0.04401574
17	0xbde42899	-0.11140556
18	0x3dbbc279	0.09167952
19	0xbd971e9a	-0.07378884
20	0xbe27a573	-0.16371708
21	0x3e20bf82	0.15698054
22	0x3d1b7770	0.0379557
23	0x3d883226	0.0665019
24	0xbc94d00e	-0.018165614
25	0xbdaa6450	-0.08319914
26	0xbe0f3cec	-0.13988084
27	0xbe818606	-0.25297564
28	0x3c48a232	0.012245702
29	0x3d599beb	0.05312721
30	0xbdbb74d4	-0.091531426
31	0xbe43dd98	-0.191275
32	0xbe396253	-0.18103914
33	0xbdd57393	-0.10422435
34	0x3dd714ef	0.1050204
35	0x3b0bcd4d	0.0021332086
36	0xbd1e2cc2	-0.038616903
37	0xbe1149b2	-0.14188269
38	0xbdf36303	-0.11884119
39	0xbd845672	-0.06461801
40	0x3d6da963	0.058022868
41	0xbe99957e	-0.29996866
42	0xbd93b342	-0.07211925
43	0xbe80bf52	-0.25145966
44	0x3abaefc2	0.0014262127
45	0xbe069988	-0.13144505
46	0xbdb3e571	-0.08783997
47	0xbcbc8943	-0.02301467
48	0xbe31d1a6	-0.17365131
49	0x3cadd2c9	0.021218674
50	0xbdf414fc	-0.11918065
51	0xbe881be3	-0.26583776
52	0xbdd91cbd	-0.106011845
53	0xbe3d3969	-0.18478931
54	0xbe10fdab	-0.14159267
55	0x3c9a2e2d	0.018820846
56	0xbad3ba62	-0.0016153569
57	0xbe8306a0	-0.25590992
58	0xbe7bacc7	-0.24577628
59	0x3ddf64ad	0.10907874
60	0x3dd11940	0.10209894
61	0x3d40cb95	0.04706915
62	0xbe4d4c8e	-0.20048735
63	0x3c85bc88	0.01632525

transformer.transformer_encoder.layers.0.linear2.weight f4 [32, 64]
0	0x3e255d9d	0.16148992
1	0xbea8a71f	-0.32940003
2	0xbe22b5eb	-0.15889709
3	0xbd98fbde	-0.07469915
4	0x3d0a0f66	0.03370609
5	0x3dd1dcea	0.10247214
6	0x3d76a471	0.060215417
7	0x3d5abf77	0.05340525
8	0x3dfc5c8c	0.123223394
9	0x3d51076b	0.051032465
10	0xbe584a9f	-0.21122216
11	0x3bdabc9d	0.0066753165
12	0x3dbf89e2	0.09352471
13	0xbc9282bc	-0.017884605
14	0x3d81bef2	0.06335248
15	0x3d9a87c7	0.07545429
16	0x3dd8032b	0.10547479
17	0xbdb68f9a	-0.089141086
18	0xbd9c7651	-0.076397546
19	0x3d302cb6	0.04301139
20	0xbbfa7269	-0.0076430333
21	0xbe7cda92	-0.24692753
22	0x3e87c6fc	0.26519
23	0x3daf03e9	0.08545668
24	0x3e139c13	0.14415006
25	0x3d9f0101	0.07763863
26	0x3d821340	0.06351328
27	0xbd954b3a	-0.07289739
28	0x3dcfad51	0.10140479
29	0xbe95fc16	-0.2929389
30	0xbeb32ca9	-0.3499501
31	0x3e7218e4	0.23642308
32	0xbd361578	-0.044454068
33	0xbde3cfbd	-0.11123607
34	0x3e09baef	0.13450216
35	0x3cb2ea46	0.021840226
36	0x3d67bca7	0.056576397
37	0x3e6c03eb	0.2304837
38	0xbdaf46db	-0.085584365
39	0x3de0ef6d	0.10983167
40	0x3e5a7e88	0.2133733
41	0xbdb945cd	-0.090465166
42	0x3dfac8fc	0.12245366
43	0xbdb7c9a4	-0.08974007
44	0xbe9b90ff	-0.3038406
45	0xbdca1d8c	-0.09868917
46	0x3d6a8bd0	0.05726224
47	0xbb8f4902	-0.004372717
48	0x3da9cbf7	0.08290856
49	0xbd8b4b10	-0.068014264
50	0x3df23fda	0.11828585
51	0x3e476b4a	0.19474521
52	0x3d158fac	0.03651397
53	0xbda50815	-0.08058182
54	0x3dfb7a83	0.12279227
55	0xbde2574d	-0.110518076
56	0x3d930f3a	0.071806386
57	0xbe779835	-0.24179156
58	0x3e374fb3	0.17901497
59	0xbcd461ae	-0.025925484
60	0x3e8b69d4	0.27229178
61	0xbe7d395e	-0.24728915
62	0xbdc2cf2f	-0.095121734
63	0xbe13d9c0	-0.14438534
64	0x3d5d35ea	0.054006495
65	0x3db83344	0.08994153
66	0xbce7b053	-0.02828232
67	0xbdf8f360	-0.12155795
68	0xbd0fd23c	-0.035112604
69	0xbe415a0f	-0.18882011
70	0x3bb1a46e	0.005421213
71	0xbd38028f	-0.044924315
72	0x3d7e095d	0.06202065
73	0xbdd37aac	-0.10326132
74	0x3e21da7b	0.15806
75	0x3ddea1ac	0.1087068
76	0xbdbd2b23	-0.09236743
77	0x3b658f47	0.0035028027
78	0x3e3bd9a6	0.18344745
79	0xbc154f3b	-0.009113128
80	0x3dbd9aab	0.09258016
81	0xbdb2383b	-0.08702131
82	0x3de36f56	0.1110522
83	0xbd829231	-0.0637554
84	0x3d866c0a	0.065635756
85	0x3e0d08ab	0.13772838
86	0xbd118ec2	-0.035536535
87	0xbda0170c	-0.07816896
88	0x3e12da32	0.14341047
89	0x3b87111f	0.004121914
90	0x3d946a7b	0.07246872
91	0xbe09c655	-0.13454564
92	0xbc4cb80e	-0.012495054
93	0x3ca6eaa2	0.020375554
94	0xba7d8a96	-0.0009671835
95	0x3d9c5cb4	0.07634869
96	0xbe14cb4e	-0.1453068
97	0x3d74e06e	0.059784345
98	0x3d60b241	0.054857496
99	0x3d8cbd3e	0.068720326
100	0x3d9379c8	0.07200962
101	0xbc7b2468	-0.015328504
102	0x3dda8e4f	0.106716745
103	0x3daac2c7	0.08337932
104	0x3da8d249	0.08243234
105	0x3dddb562	0.10825612
106	0xbd0af026	-0.03392043
107	0x3dfbb1a6	0.12289743
108	0xbce908b6	-0.028446537
109	0x3daacb77	0.08339589
110	0x3d778359	0.060427997
111	0x3d19c57f	0.037541863
112	0xbca94ac0	-0.020665526
113	0x3dd53e9d	0.10412333
114	0xbe24b8ea	-0.16086164
115	0xbd319697	-0.043356504
116	0x3d32146d	0.04347651
117	0x3e023daf	0.12718843
118	0xbd64bde3	-0.055845153
119	0xbd850a8e	-0.06496154
120	0xbd6191ca	-0.055070676
121	0x3cc70efc	0.024299137
122	0xbc3fedc8	-0.011714406
123	0x3c23b843	0.009992662
124	0xbd998c4a	-0.07497461
125	0x3c18e360	0.009331554
126	0xbd888651	-0.06666244
127	0x3e86220b	0.26197848
128	0xbd314640	-0.043279886
129	0xbb3945f7	-0.0028270462
130	0xbdb80c53	-0.08986726
131	0x3b3206be	0.0027164663
132	0xbc0bf108	-0.008541353
133	0xbe2f73c5	-0.17134006
134	0xbd2bf2cc	-0.041979596
135	0xbdc33541	-0.09531642
136	0x3d5c94c5	0.053852815
137	0x3df7ca9d	0.12099192
138	0x3d21105b	0.03932224
139	0x3ec45ff1	0.38354447
140	0xbe3068ac	-0.17227429
141	0xbce30326	-0.027711462
142	0xbc947504	-0.018122204
143	0xbc83719b	-0.016045382
144	0xbdd05abb	-0.101735555
145	0x3dbcbad5	0.09215323
146	0xbcdb2cbe	-0.026754733
147	0x3cfa25a6	0.03053553
148	0x3e080a59	0.13285197
149	0x3af9bfa1	0.0019054302
150	0xbe2cf660	-0.1689086
151	0x3d8111a0	0.0630219
152	0xbe2080bc	-0.15674108
153	0xbcbdfc8b	-0.023191711
154	0xbdcd3a6e	-0.1002091
155	0x3b7a10b2	0.0038156924
156	0xbe9582ff	-0.29201505
157	0x3e397ac0	0.18113232
158	0x3d8829b2	0.06648578
159	0xbe9081ec	-0.28224123
160	0xbc7bc036	-0.015365651
161	0x3d492df4	0.04911609
162	0x3c6e36e7	0.014539457
163	0x3b804eaf	0.00391563
164	0xbbacd53c	-0.005274443
165	0xbea647a9	-0.32476547
166	0xba054fa0	-0.00050854124
167	0xbd4be9c7	-0.049783494
168	0xbe1ad79e	-0.15121314
169	0x3d6836bc	0.056692824
170	0xbc1d54a7	-0.009602702
171	0xbd324ae0	-0.043528438
172	0x3be1c2ed	0.006889692
173	0xbe33c21a	-0.17554513
174	0xbd5d5c87	-0.05404332
175	0xbdb38884	-0.08766273
176	0xbbbb7d3b	-0.0057217157
177	0xbe11a425	-0.14222772
178	0xbdfeb90c	-0.12437639
179	0x3bb77c0b	0.005599504
180	0x3d9f6c25	0.07784299
181	0x3e067ba0	0.13133097
182	0xbdeec115	-0.11657921
183	0xbd8a7a7c	-0.06761643
184	0x3e02e5e4	0.12783009
185	0x3e152b9c	0.14567417
186	0xbe1a63dc	-0.15077156
187	0x3d461def	0.04836839
188	0xbe533b47	-0.20628081
189	0x3e9235e7	0.2855675
190	0x3d9579db	0.07298633
191	0xbdd5833d	-0.10425422
192	0xbd9431ae	-0.07236038
193	0x3e32671b	0.17422144
194	0xbd2371eb	-0.039903563
195	0xbd77fed3	-0.060545754
196	0xbd169bcf	-0.036769684
197	0xbe9d985a	-0.30780298
198	0x3dfa9f88	0.122374594
199	0x3dad45a5	0.08460549
200	0xbc1d8d0b	-0.009616147
201	0x3e575cad	0.21031447
202	0x3ca6335a	0.020288158
203	0x3dac56cc	0.08414993
204	0x3e161eae	0.14660141
205	0xbd1f8ce0	-0.03895271
206	0x3db3d4ef	0.08780848
207	0xbc660909	-0.01404024
208	0xbdbac445	-0.09119467
209	0x3cdaabb7	0.026693208
210	0x3d1cff3e	0.038329355
211	0x3cf1add6	0.029501837
212	0x3da2703b	0.079315625
213	0xbe1bf1c5	-0.15228947
214	0xbec8e65f	-0.3923826
215	0xbb9d9a76	-0.004809673
216	0xbe2de4c0	-0.16981792
217	0xbd8b5169	-0.06802637
218	0xbe18df75	-0.14928992
219	0xba88f3a7	-0.0010448591
220	0xbd56423a	-0.052309252
221	0x3ebecc71	0.3726535
222	0x3e2dbfc5	0.16967686
223	0xbe1f9886	-0.15585527
224	0xbad8f12b	-0.0016551366
225	0x3de4b190	0.1116668
226	0x3d0b3451	0.03398544
227	0x3bb09333	0.0053886413
228	0x3c90c72e	0.017673101
229	0xbeeb12df	-0.45912835
230	0x3d99bc50	0.07506621
231	0x3cecc088	0.0289004
232	0xbe60ef47	-0.21966277
233	0xbcb575f0	-0.022150964
234	0xbd15d825	-0.036583085
235	0xbd862d54	-0.065516144
236	0x3e5523eb	0.20814483
237	0xbdce8471	-0.10083855
238	0x3dcd95b3	0.100383185
239	0xbe068812	-0.13137844
240	0x3deb8864	0.11500624
241	0x3d41cf03	0.047316562
242	0xbe9a77e1	-0.30169585
243	0xbcd9a404	-0.026567467
244	0x3db27d16	0.087152645
245	0x3e06bfc0	0.13159084
246	0xbbe355d9	-0.006937724
247	0xbdab1668	-0.08353883
248	0x3dfaece4	0.122522146
249	0x3de61e25	0.11236218
250	0xbe218541	-0.15773489
251	0xbdb3483e	-0.087540135
252	0xbe9c9b5d	-0.30587283
253	0x3e91ddcd	0.28489533
254	0x3df5f11e	0.1200888
255	0xbb10e431	-0.002210867

transformer.transformer_encoder.layers.0.linear2.bias f4 [32]
0	0xbb8b364d	-0.0042484165
1	0x3af75fa0	0.0018873103
2	0x3b28b591	0.0025742988
3	0xbcbc4372	-0.02298138
4	0xbbaf8916	-0.005356918
5	0x3cf6b8f2	0.030117486
6	0x3c7f30c9	0.015575596
7	0xbc3ef1c2	-0.011654319
8	0x3c930fe5	0.017951915
9	0x3ca6f613	0.02038101
10	0x3b8e68e4	0.004346
11	0xbb2cf8fe	-0.0026393528
12	0xbc23bf79	-0.009994381
13	0x3c3ee026	0.011650121
14	0xbce4e655	-0.027941862
15	0x3c325c44	0.010886256
16	0x3b3c9c5d	0.0028779723
17	0xbd2c5ed7	-0.042082634
18	0x3b8e5d29	0.0043446016
19	0x3c4450f1	0.011982189
20	0x3c747c57	0.014922223
21	0xbbbb524c	-0.0057165977
22	0xbba150e4	-0.004922973
23	0x3ca9c6bb	0.020724645
24	0xbca776c6	-0.020442378
25	0xbbf74fc6	-0.0075473515
26	0xbc1a0fbd	-0.009403166
27	0x3bf01f4c	0.0073279496
28	0x3c8a9c94	0.016920365
29	0xbcdad5b7	-0.026713235
30	0x3cf548a9	0.029941874
31	0x3abf5e3a	0.0014600225

transformer.transformer_encoder.layers.0.norm1.weight f4 [32]
0	0x3f9d9ba4	1.2313123
1	0x3f990ff4	1.1957994
2	0x3f852180	1.0400848
3	0x3f80e2ae	1.0069177
4	0x3f3ff59f	0.74984163
5	0x3f9ef0d5	1.2417246
6	0x3f9836b2	1.1891692
7	0x3f8862e4	1.0655179
8	0x3f43d3b3	0.764949
9	0x3f7e64a7	0.99372333
10	0x3f71fe5b	0.9452874
11	0x3f9edfe3	1.2412075
12	0x3f8a1e29	1.0790454
13	0x3f09adde	0.53780925
14	0x3f835195	1.0259272
15	0x3f599b11	0.8500224
16	0x3f855677	1.0417012
17	0x3f70d34d	0.9407242
18	0x3f855bcf	1.0418643
19	0x3f07780a	0.5291754
20	0x3f4a5750	0.7903948
21	0x3f806249	1.0029994
22	0x3f447870	0.76746273
23	0x3f5201c4	0.82033944
24	0x3f8dd139	1.1079475
25	0x3f8d7c65	1.1053587
26	0x3f40e8bc	0.75355124
27	0x3f6b7182	0.91970074
28	0x3f8b8aea	1.0901768
29	0x3fa68f29	1.3012439
30	0x3fa2007e	1.26564
31	0x3f4f7365	0.81035453

transformer.transformer_encoder.layers.0.norm1.bias f4 [32]
0	0xbedb5e91	-0.42845586
1	0x3e847cdc	0.2587651
2	0xbe908e0b	-0.2823337
3	0xbe5eb18d	-0.21747418
4	0xbd804191	-0.06262506
5	0x3ef8f7d3	0.48626575
6	0x3e8ddd42	0.2770787
7	0xbdc6d0b6	-0.09707777
8	0x3e253798	0.16134489
9	0x3d02d233	0.031938743
10	0x3e4cd38c	0.20002574
11	0xbe93c23b	-0.28859124
12	0xbe055045	-0.13018902
13	0xbe384bc8	-0.17997658
14	0xbea15632	-0.31511074
15	0x3e853640	0.26017952
16	0x3e0acdab	0.13555019
17	0xbed8f9bc	-0.42378032
18	0xbea95fde	-0.33080953
19	0x3b93d88c	0.0045118984
20	0xbdb3db73	-0.08782091
21	0x3e513b02	0.20432666
22	0x3e138c8e	0.14409086
23	0x3ea6a8b4	0.32550585
24	0xbeb97c37	-0.3622758
25	0x3ed1964b	0.40934977
26	0xbb8f8f8e	-0.0043811267
27	0x3c038e40	0.0080295205
28	0x3e96dc62	0.29465014
29	0xbedb1fd4	-0.4279772
30	0x3f393c10	0.72357273
31	0xbde064c4	-0.109567195

transformer.transformer_encoder.layers.0.norm2.weight f4 [32]
0	0x3fd4425f	1.6582755
1	0x3fdc0d46	1.7191551
2	0x3ffb0715	1.9611536
3	0x3fec82c9	1.8477412
4	0x3feb4021	1.8378946
5	0x3fceb949	1.6150295
6	0x3fdaadaf	1.7084254
7	0x3fca0649	1.5783168
8	0x3fd749b6	1.681937
9	0x3feeee63	1.86665
10	0x3ff1b5b0	1.8883572
11	0x4001fd51	2.0310862
12	0x3ff91ba0	1.9461555
13	0x3fedc02c	1.8574271
14	0x3fd96633	1.6984314
15	0x3fd8dd23	1.6942486
16	0x3fe695a0	1.8014412
17	0x3fd3a96f	1.6536082
18	0x3fd6c1a8	1.6777849
19	0x3fe383ae	1.777456
20	0x3fc4a7b5	1.536368
21	0x3ff399b0	1.9031277
22	0x3fdc1513	1.7193931
23	0x3fc45736	1.5339115
24	0x3fd35f46	1.651345
25	0x3fd1b48a	1.6383221
26	0x3fdd6f0a	1.7299511
27	0x3ff4089c	1.9065127
28	0x3fee2e09	1.8607799
29	0x3fd2d869	1.6472293
30	0x3fc1187d	1.5085598
31	0x3fee8658	1.8634748

transformer.transformer_encoder.layers.0.norm2.bias f4 [32]
0	0xbf57c49f	-0.84284395
1	0x3f5c0d81	0.85958105
2	0x3f5d9616	0.8655714
3	0x3f567b8a	0.83782256
4	0x3f5cfd5b	0.8632409
5	0x3f619009	0.88110405
6	0x3f59923c	0.8498876
7	0xbf5aa938	-0.8541446
8	0x3f5b748f	0.8572473
9	0xbf5e68d2	-0.86878693
10	0xbf5b1972	-0.855857
11	0x3f624095	0.88379794
12	0x3f5df6ba	0.867046
13	0x3f5da320	0.86577034
14	0xbf6250dc	-0.8840463
15	0x3f5c654b	0.8609206
16	0xbf6193c7	-0.88116115
17	0x3f5bc1f7	0.8584284
18	0xbf5d0528	-0.8633599
19	0x3f5c1a04	0.85977197
20	0xbf5a42d1	-0.85258204
21	0xbf5addca	-0.85494673
22	0xbf56f2b8	-0.8396411
23	0x3f5cad1f	0.8620166
24	0xbf5e9fd1	-0.8696261
25	0x3f5c8ad9	0.86149365
26	0x3f5ef169	0.8708711
27	0xbf57ab66	-0.8424591
28	0xbf62db56	-0.8861593
29	0xbf5ce2e3	-0.862837
30	0x3f5ac56c	0.8545749
31	0xbf5a565a	-0.8528801
